{{cookiecutter.project_slug}}/exp1/lightning_logs/version_42/checkpoints/epoch=49-step=650.ckpt (torch, 42202 bytes, 18 tensors)

model.0.weight f4 [8, 1, 3, 3]
00000000: fa55 d5be f2fb a2bd ec43 c43e cc68 87bd
00000010: c920 36bc e1a2 2db9 e800 1cbf f105 b1be
00000020: a4ba a8bd 6494 f5be 86fb 3ebe a8b9 2c3e
00000030: 0f63 2b3e 61e5 903e 32ac a1bd 47f7 10be
00000040: 4025 a93e ed0b f43d ed85 bf3e 5104 88be
00000050: 6bbb ddbd 1e16 c13d 513e 28be 2da0 963c
00000060: 5404 f3bd 5b02 8dbe 1f1f 213e cacb 7e3d
00000070: 5c49 7fbc 71d9 083c faaa 9abe 168d a2bd
00000080: bd81 97bb 3cc1 813e 6e7f 473e 478f f8bd
00000090: 0494 c33e 1d7c 67be bc91 dfbe 4a65 3e3e
000000a0: 7e6e 6c3c 219f 8cbe 3fae 1ebe 3eb5 f1bd
000000b0: 7543 02bf eba9 473e 79a8 c13d 6de7 323d
000000c0: c0dc 573e e043 e03d 2275 803e 096e 94be
000000d0: 5491 8fbd bd91 eabe d269 283e d6da aebe
000000e0: 9050 8f3d 491c 823e d128 073e 1029 62be
000000f0: 174f 5f3e d79a 243e dbc8 893c a972 b93e
00000100: 1938 8c3d 6694 5dbe 669d 71be eca7 90be
00000110: 7238 c3be 8c5f 34be fbe0 19be e68e 493c
-0.41667157 -0.07958211 0.3833307 -0.06611785 -0.011116215 -0.00016559243 -0.6093888 -0.34574845
-0.08238724 -0.47964776 -0.18650636 0.16867697 0.16737007 0.28300002 -0.07894172 -0.14156829
0.33036232 0.11916337 0.37406865 -0.26565793 -0.10826763 0.09428047 -0.16430022 0.018386925
-0.1186606 -0.2754086 0.15734528 0.062206067 -0.015581455 0.008352623 -0.3020857 -0.07937066
-0.0046236203 0.2534274 0.19482204 -0.12136703 0.38198864 -0.22605939 -0.43665874 0.18593326
0.01443064 -0.27465156 -0.15496157 -0.11802147 -0.5088418 0.19498412 0.09455962 0.043677736
0.21080303 0.10950446 0.25089365 -0.289902 -0.07010141 -0.45814314 0.16446617 -0.34151334
0.06997788 0.25412205 0.13199164 -0.22085977 0.21807514 0.16074692 0.016819408 0.3622029
0.06846637 -0.21638641 -0.23595199 -0.28253114 -0.38129002 -0.17614573 -0.1502723 0.012302136

model.0.bias f4 [8]
00000000: 8418 103e 7c2a 6fba 82e9 84be e406 b1ba
00000010: 98d3 26bb 599f 843e 9c2d 0cbd 0c8b ba3e
0.14071852 -0.0009123457 -0.25959402 -0.0013506082 -0.002545571 0.25902823 -0.034223184 0.3643421

model.3.weight f4 [32, 8, 3, 3]
00000000: 841e c1bd f375 f1bd 9f2d a43d 2b93 113e
00000010: 9193 ebbd 3830 833e 99d2 423d 8afe 693a
00000020: 65f2 bf3d f725 d5bd 905e a4bd 883a 86bd
00000030: 9631 debd 91b2 cbbb 9740 353c 53bb 043d
00000040: 5e6f 963d 3882 8f3d 6236 8b3d 9cb0 3f3d
00000050: 650c 70bd 22df ef3d bcfd 203c 7ae4 eebc
00000060: 8f23 a73d ba2c b0bd 4a7b 8e3d dd96 b03d
00000070: 0218 293d 2df6 b73d cebe 2fbe b53b aabc
00000080: 1bf1 d33c f044 163d f902 c23d 877b 9abc
00000090: db8b ddbb 0741 9b3d d269 1a3e a4e0 2a3d
000000a0: 36a3 bcbd ca09 5a3e b09c 84bd b258 74bd
000000b0: 290b 433d 7b3d 1b3d 39ed b43d 4725 1d3e
000000c0: 6573 b83d 8203 4abc 8694 993d 0705 f3bd
000000d0: 6060 943d 5e28 07bc 59c2 14be d4b3 b0bd
000000e0: 8fa9 8c3d e5fc 633c 71fc 073d 0962 403d
000000f0: e279 b4bd e280 7e3d 9602 b5bc 0e80 e73d
00000100: 357f 563e c011 b93d 696f 933a 628e b63d
00000110: 0b06 4d3e 4ab6 1b3e b894 f5bc ade1 e0bd
00000120: 7e65 fb3d 428a 893d c4cf 913c 89f7 453e
00000130: 2d81 2b3d aaea 553c c2bd 4c3e 294e 6bbd
00000140: a991 97be fa32 d2bd c0ea 793d 5f18 7bbd
00000150: cd08 c03c 47be 10bd 11b1 b6bd 8d4b fd3d
00000160: b937 933c 05d4 bdbd ff16 dd3d b880 10bb
00000170: e16c 583d 3747 07bc 72aa a43d c850 ae3d
00000180: ab4f 053e 8446 bdbd 1c9f 113e 35af 853d
00000190: 274c 3abe d89c eabd 0988 efbd e7d6 09be
000001a0: a0e1 8dbc 70ab 743d 0e4b 35bd 1bd9 bfbd
000001b0: 8ded 5b3e e5f6 19bd 1340 4ebd ae78 af3d
000001c0: fa80 723c a5b7 0cbd 269d 843d 10f5 4cbe
000001d0: f770 103e ff9c 15bc cf69 8dbd 3678 70bc
000001e0: 662b 82bd 234c 42bd 09d2 603d 34a3 123d
000001f0: 5017 e5bd b586 413d 5b5e 213e eff9 bfbd
00000200: 1804 9bbc 8ed6 4abd c9b8 d83d f140 a53d
00000210: 3384 07be c3a2 64bd be1b 103e e937 113e
00000220: 6fdf 89bd 9dff 92bd 26a3 723c 03ba 023e
00000230: 566a 8f3d 34c3 1e3e f904 473c b2e7 cbbd
00000240: b385 cbbc 688b 21bd 27d7 173e 780e b73d
00000250: c8c1 9bbd 1949 97bd 8259 1fbe 1824 b83c
00000260: aa5f ccbc be66 05be 49a6 67bd 8d49 193d
00000270: 1387 c33c e428 c13c a1d4 b93d add9 2d3d
00000280: 0de0 e83d fd94 12bd 045a b0bd 473b 92bd
00000290: 9e2e 873b 4c52 f43b 0fa8 233d e93b d2bb
000002a0: ae02 83bc bf9c 9c3c 7c89 22be b04d 86bd
000002b0: a0f3 f3bc 5771 d43d e7e2 acbd 162e 06be
000002c0: 19a1 9c3d 4fa3 02be e270 30bd 3a4b c5bd
000002d0: ef07 49bb eef4 f63d 5d59 b63d 3634 91bc
000002e0: 4803 f83c d9da a03d 2beb a1bd 2316 70bd
000002f0: d68f 313d acf0 00bb 7060 ad3c 167f dd3c
00000300: a07c 953d fbcc cf3d c091 34bd e94a 523d
00000310: 4c7c d03b efd9 9c3d ec9f 14bc 5b7f d0bb
00000320: b020 f8ba d9de 373d 8b50 933d a6fa 2d3c
00000330: 1098 bc3a 3440 00be e724 983d 8621 dc3a
00000340: 1842 233e 5f82 be3d 1b8c 04be 2357 e5bd
00000350: ab1a 813d 7654 1dbe 3008 8c3d 45f2 2ebd
00000360: 0a2c ccbe 7d3b fabd ac0a 413d 8710 343e
00000370: 8581 38bc 4134 113d 771b a4bd 86a1 d6bc
00000380: 2d24 1cbe c333 afbd d4e9 b53c ed38 093e
00000390: 88dc 22bc 45c5 c33d e901 e83d 9361 213e
000003a0: e41c 12bd 28e3 4a3d d4aa db3b 3372 3cbe
000003b0: 8580 553d bf41 b0bc 5e0c 86bc d6b8 833d
000003c0: 0198 733d f3da e03b 5b0e ccbc 9d28 703d
000003d0: 4d8b 1a3d d63e 99bd 1ef7 953c 46e0 95bb
000003e0: e10e c1bd a7c8 92bd 2c8b 133e 6c99 f43d
000003f0: f495 1f3d 6c08 1abe dde1 80bd 9d5e 95bd
-0.094296485 -0.11790075 0.08016514 0.14216296 -0.115027554 0.25622725 0.047564123 0.0008926174
0.09372405 -0.10407632 -0.08025849 -0.06554133 -0.108493015 -0.006216355 0.011062763 0.03240521
0.0734546 0.07007259 0.06797482 0.046799287 -0.05860557 0.11712481 0.00982612 -0.02916168
0.08161079 -0.08602281 0.06957109 0.08622525 0.04128266 0.08982501 -0.1716263 -0.020780424
0.025871804 0.036686838 0.09473223 -0.01885773 -0.006761057 0.07580762 0.1507943 0.04171814
-0.092108175 0.21292797 -0.06475198 -0.0596549 0.047618065 0.03790043 0.08834309 0.15346251
0.09006385 -0.012329938 0.07499032 -0.11866193 0.072449446 -0.00824937 -0.14527263 -0.086280495
0.06868278 0.013915275 0.03319973 0.046968494 -0.0881231 0.06213463 -0.02209596 0.11303721
0.20946963 0.09036589 0.0011248413 0.08913876 0.20021836 0.15206257 -0.029978141 -0.10980544
0.122752175 0.06715824 0.017799266 0.19332708 0.04187124 0.013056437 0.19994262 -0.057447586
-0.29603317 -0.10263629 0.06101489 -0.06130254 0.023441697 -0.035337713 -0.089204915 0.12367926
0.017970907 -0.09268955 0.10795402 -0.0022049379 0.05283821 -0.008256725 0.08040322 0.085115016
0.13018672 -0.092419654 0.14220852 0.06527559 -0.18193112 -0.11455697 -0.116958685 -0.13460885
-0.0173195 0.059733808 -0.04426103 -0.093675815 0.21477337 -0.037588973 -0.050354075 0.0856794
0.014801258 -0.034354825 0.06475286 -0.20015359 0.14105593 -0.009131669 -0.06904947 -0.014677098
-0.06355934 -0.04743589 0.054887805 0.035800174 -0.11186087 0.047247607 0.1575865 -0.09373843
-0.01892285 -0.04952102 0.1058212 0.08069027 -0.13234024 -0.055819284 0.14073083 0.14181484
-0.0673207 -0.071776606 0.014809405 0.1276627 0.07002704 0.15504152 0.012147182 -0.09956302
-0.024844026 -0.03943959 0.14828168 0.089383066 -0.0760532 -0.07386989 -0.15561488 0.022478148
-0.02494796 -0.13027474 -0.056555066 0.03742366 0.02386812 0.023579068 0.09073759 0.04244392
0.11370859 -0.035786618 -0.08610919 -0.071402125 0.0041254302 0.0074560996 0.039955195 -0.0064158333
-0.015992489 0.019117711 -0.15872759 -0.065577865 -0.029779255 0.1037318 -0.08441716 -0.13103518
0.076479144 -0.1275761 -0.043076403 -0.09633489 -0.0030674895 0.120584354 0.089037634 -0.017725091
0.030275002 0.07854242 -0.07906183 -0.05861486 0.043350063 -0.0019674702 0.021164149 0.027038138
0.07299161 0.10146519 -0.04408431 0.05134097 0.0063624736 0.07658755 -0.0090713315 -0.006362838
-0.001893064 0.04489026 0.07193097 0.010618841 0.001438858 -0.12524492 0.074289136 0.0016794659
0.15943182 0.0930221 -0.12944071 -0.11198261 0.06303915 -0.1536425 0.06837499 -0.042711515
-0.3987735 -0.12218378 0.047129318 0.1758443 -0.011261349 0.035450224 -0.08013051 -0.026200067
-0.15248175 -0.08554795 0.022206225 0.13400622 -0.009940274 0.095591106 0.11328489 0.15759878
-0.035672083 0.04953304 0.006703714 -0.18402939 0.05212452 -0.021515725 -0.016363319 0.06431739
0.059471134 0.0068620383 -0.024909189 0.05863248 0.037730504 -0.07482688 0.018306311 -0.0045738546
-0.09426666 -0.07167178 0.14408559 0.119433254 0.038961366 -0.15042275 -0.0629308 -0.07293437

model.3.bias f4 [32]
00000000: a0db 43bc 877b 4b3e 2aff c83d 19dc acbd
00000010: bf92 b73d d2bd dd3c 0d2d 26bc a88e 1cbd
00000020: 52d9 d3bd 6842 0a3e 4129 c8bd c368 5e3d
00000030: 115a 02bd a50e 343e 21bf 113d 00e1 563d
00000040: 3f8e ff3a 1622 f93d c7ce 65bd 1b81 8ebd
00000050: f9eb 133d 7ca1 c0bd 2a93 f9bc 7a63 85bc
00000060: b22b 44bd 1435 0dbe 2da2 c43b c6b0 9cbd
00000070: 8f43 963d b856 ccbb ea67 8f3d deff 233d
-0.011954218 0.1987134 0.09814294 -0.08440418 0.089635365 0.027068052 -0.010142577 -0.038221985
-0.10344185 0.13501894 -0.097734936 0.054299127 -0.031824175 0.17583711 0.035582665 0.05246067
0.0019497349 0.121647045 -0.0561054 -0.06958219 0.036113713 -0.09405801 -0.030465681 -0.016282786
-0.047893234 -0.13789779 0.006000778 -0.07650904 0.073371045 -0.0062359236 0.07002242 0.040038936

model.7.weight f4 [10, 32]
00000000: 2478 243b 4e64 30bc 8d88 b63d ac7a e93d
00000010: 5752 a6bc 1138 e73d 3abf ea3d aaed 8cbd
00000020: 5c38 6d3d eeb2 863d 7a16 5dbd 3ef6 c43c
00000030: b263 273e b7ce 51be bd60 323e 39be c8bc
00000040: ebd1 71bc a8e4 4e3d 42e3 813e 3804 fd3d
00000050: 7d16 083e 558b fc3c f15e 1a3e b246 08be
00000060: 49df 77bb 085a fbbc 0977 1c3d d984 c43c
00000070: efd0 2dbe 0ea3 cabd 9569 02be 5b64 233e
00000080: f737 a93d 9f74 353e dc30 c53d 1f2b e5bd
00000090: f4dc 203e 3b4d 52bd 9a72 e0bc b390 2e3d
000000a0: 7398 013e a52d 6d3d 9b02 fc3d 1a68 9d3d
000000b0: 7802 fcbd 2b2f b13d bc15 3dbe 3e96 0abe
000000c0: b226 17be 335b cf3d 62d6 2f3d 018a 09be
000000d0: a5f4 00be 57e1 5d3e e3bb d03c ee84 ffbd
000000e0: 77fe fa3d 4db3 08be 1b24 91bd 6efe 163e
000000f0: 9d65 19bd 1609 fdbc 7fc0 243e dd3b ecbd
00000100: 30d6 9b3d bd06 4fbe 7f61 343b d3ce e9bc
00000110: 61a8 463e 83b8 e63b a5cb 103e 5fb5 26be
00000120: 7a2d a1bd d951 a1bd ba92 f6bd 9a61 303e
00000130: 17bc 26be 1fcb 39be b4fb 13be db94 053e
00000140: 7d85 3b3e c0af 643c b11f 813c 112d 9cbc
00000150: 5029 58bc 2648 3ebd 3a25 343e cc9f 2b3e
00000160: f01b 4d3e 6709 1d3e cd6c 72bc 70a0 3ebd
00000170: 2786 4b3d e6bb 3b3e 13c3 c2bd 4284 a53c
00000180: 9c23 98ba 9d78 8cbe 1813 8e3c c981 eabd
00000190: d38e 163e f5e6 c83c 2f8f edbd 9d60 743d
000001a0: 53a8 7d3e 4331 173e cfc8 243e 9009 353e
000001b0: 3f0d 37be b1ce d5bd 3b83 493e 2d83 913d
000001c0: f946 0bbd 9e9a dfbc 486f 02bf 6d9e f7bd
000001d0: eace ddbd cf36 183d 1295 9ebc bcd2 41bd
000001e0: 6015 12be 229e 963e 2a41 3cbd 8186 bc3d
000001f0: 767c 873b f948 253e 86ff 3f3e 819e a3bc
00000200: 916c 2c3d 7681 013e 0583 4ebc b6b0 4e3e
00000210: dced adbd 694c 3d3e cf8a 253e 1aad debd
00000220: 78f8 b33d 6f0b 34bd 4009 36bd 3c9e 2fbe
00000230: f0cd e03c 7fb2 ba3d e758 56be 4c5e ecbd
00000240: 7675 093e 2cc5 cebd cb88 fe3d ab90 2f3d
00000250: 389e a53d 728d 1ebe 2138 cb3d da4f 2d3e
00000260: dccc b1bd 034e 75be d76d 58bd 507a b0bd
00000270: 21f2 623d bb84 063e 2fa4 283e b353 2c3e
00000280: 3968 a83d 08eb 3cbc 9787 f13d a761 b33c
00000290: 5e3e 1e3d 0d33 29be 18e2 1dbe edc0 adbd
000002a0: da0f ed3d ebeb 393e 776e 0cbe 1040 543e
000002b0: e05a 303e f844 20bc f932 fc3c 0ccd 833d
000002c0: 1803 a13d c5ee 08be deb9 fd3b 7051 233e
000002d0: 160e 7d3c b539 de3d eea0 313e bdc4 533e
000002e0: 2121 d73d c8f9 64be 35ed efbd 3719 51be
000002f0: 84a6 3b3e 1fce b9bd 40cb 2bbe 20a8 0abe
00000300: 340e 0f3e e570 4c3d 1045 233e d45e c6bd
00000310: 6775 de3d a515 c53d 70a9 163e 0e90 3b3e
00000320: a410 c83d 7d0a 2cbc 96f2 693d eb42 833d
00000330: 8259 c7bd e6b2 35be 6a61 45be 92a4 c2bd
00000340: 5c85 b53d 243f a9bd 3e90 81bd 627f bbbd
00000350: d30b e1bc e737 6bbe 0bdb b33d fcba d43d
00000360: faa5 f8bd 589c f5bd c4b5 0ebe 8ea7 323e
00000370: ee62 de3d a078 493d 32f8 f8bd 0429 c73c
00000380: 9aa0 66bd 5629 e73d 43b1 b93d 7625 643e
00000390: 5923 853d 78e7 ccbd 2bed 2b3e ece9 913d
000003a0: be5d 3fbe 716d 273e 98bd a0bd 57bb 503d
000003b0: b665 dd3b 0c64 2c3e 80c9 963e 1aff efbd
000003c0: 0003 a93c 7f4b fdbd 0894 81be 98e7 413d
000003d0: c0e7 c4bd 40aa ffbc 4525 20be 8482 acbd
000003e0: 9c0e 8c3d 0127 96bd 4722 2bbe 50cc 043e
000003f0: 576d fcbd 83fb 0a3e 2577 063e bd0b 133e
0.0025096023 -0.010766102 0.08912764 0.11400351 -0.020302935 0.11289991 0.11462255 -0.06881268
0.057915077 0.06577097 -0.053976513 0.024043199 0.16346624 -0.20489012 0.17419715 -0.024504768
-0.014759521 0.050511032 0.25368696 0.1235432 0.13289829 0.030828157 0.1507528 -0.13308218
-0.0037822297 -0.030682579 0.03819946 0.023989128 -0.16974233 -0.098943815 -0.12735589 0.15956251
0.082626276 0.17720269 0.0962846 -0.11189865 0.15709287 -0.051343184 -0.027398396 0.042618465
0.12655811 0.05790486 0.123051845 0.076858714 -0.123051584 0.08651575 -0.18465322 -0.13533875
-0.14760855 0.10124817 0.04292906 -0.1343155 -0.12593324 0.21667992 0.025480216 -0.12476526
0.122555666 -0.13349648 -0.07086965 0.14745495 -0.03745042 -0.030888122 0.16089056 -0.115348555
0.076092124 -0.20217414 0.0027523933 -0.028541004 0.19400169 0.0070410385 0.14140184 -0.16280125
-0.07870002 -0.07876939 -0.120397046 0.17224732 -0.16282688 -0.18143891 -0.14451486 0.13045065
0.1831264 0.013957918 0.015762182 -0.019064458 -0.013193443 -0.046455525 0.17592326 0.16760176
0.20030189 0.15335618 -0.014796448 -0.046539724 0.049688485 0.18333396 -0.09509864 0.020204667
-0.0011607292 -0.2743577 0.017343089 -0.11450536 0.1470292 0.024524191 -0.11599576 0.05966245
0.24771242 0.14764886 0.16092227 0.17679429 -0.17876147 -0.10439814 0.19678967 0.07105098
-0.03400323 -0.027295407 -0.5095105 -0.12090764 -0.10830481 0.037161645 -0.019358192 -0.047320113
-0.14265966 0.2941752 -0.045960583 0.09205342 0.00413471 0.16141118 0.18749818 -0.019973041
0.042095724 0.12647042 -0.01260448 0.20184597 -0.08492634 0.1848618 0.16166233 -0.1087286
0.08787626 -0.043956216 -0.044442415 -0.17150205 0.027441949 0.09116077 -0.20932351 -0.11541423
0.13423714 -0.10096201 0.12428435 0.042862576 0.080868185 -0.15483645 0.09922815 0.16924992
-0.08681652 -0.2395554 -0.052839126 -0.08617079 0.055406693 0.1313657 0.16468881 0.16828804
0.08223004 -0.011530645 0.1179344 0.02189715 0.038633697 -0.1652338 -0.15418279 -0.08484063
0.11575289 0.18156402 -0.13714014 0.20727563 0.17222166 -0.009782068 0.030786024 0.06435594
0.07861918 -0.13372333 0.0077431044 0.15949035 0.015445253 0.108508505 0.17346546 0.20680518
0.10504366 -0.22360909 -0.117151655 -0.20419775 0.1832524 -0.090725176 -0.16776752 -0.13540697
0.13970262 0.049912352 0.15944314 -0.09686056 0.108622365 0.09623269 0.14713073 0.18316671
0.09768799 -0.0105005475 0.057116114 0.06409248 -0.09733869 -0.17744026 -0.19275442 -0.095040455
0.08863327 -0.08263996 -0.0632634 -0.09155156 -0.027471459 -0.22970544 0.087820135 0.10387227
-0.121410325 -0.11992711 -0.13936526 0.1744673 0.10858713 0.049187303 -0.121567145 0.02431155
-0.056305505 0.11287181 0.09067013 0.22279915 0.06500883 -0.10005087 0.16789691 0.07124695
-0.18688104 0.16350342 -0.07848662 0.05095991 0.0067565097 0.1683504 0.29450607 -0.11718579
0.020631313 -0.12367915 -0.2530825 0.047340006 -0.09614515 -0.031209111 -0.15639217 -0.084233314
0.06838724 -0.07331658 -0.16712295 0.12968564 -0.123255424 0.13572507 0.13131388 0.14359947

model.7.bias f4 [10]
00000000: bb14 3abe af43 5c3e b777 33bb dce2 95bd
00000010: 2435 a23d 0ff2 8abd 5961 aa3c ecd8 b8bc
00000020: d14f 453d 76ee 083e
-0.1817197 0.21510194 -0.0027384588 -0.073186606 0.07920292 -0.0678445 0.020798372 -0.022564374
0.048171822 0.13372216

exp_avg f4 [8, 1, 3, 3]
00000000: 0999 e73b 59c8 2bbc 8a3b 4ebd fbe0 dcba
00000010: 617d 9b3b 0778 413c c540 823b 430f cc3c
00000020: 0e5d 833d 964e d73c 137d a8bd 45b5 1cbe
00000030: 714e e1bd 929b 5fbe bedd 4fbe ab2d 27be
00000040: bfe0 7fbe db3c 43be 78fd c3bc 7b97 bdbc
00000050: 9aec 483c 2edd 8fbb d0e4 bf3c 6c86 c23c
00000060: a014 713c e6d5 783b d9b5 e43b 199f c5bb
00000070: 27d4 b1bb 0d57 1fbd f603 8e3d 25ff 80bc
00000080: 10b6 7cbd c629 09be 82fe 23be 855e 15be
00000090: 53bd 813e f994 823d 9662 913b 025d 453e
000000a0: 3c40 623d efdc bc3b 6c4d 2b3e faf3 7d3d
000000b0: fc12 8c3c 73a5 23be 7484 d5bd c223 ccbd
000000c0: 030f b3bd a35d 4fbd 34f4 79bd 1c1f e93c
000000d0: 6465 263d 9999 673d 2e8d 163d ef27 8f3d
000000e0: a479 de3a 1370 77bc aa4b 953c 69cc e4bb
000000f0: cbd3 35bc 2a0d 9fbc 25de 8fbd 87f7 48be
00000100: bd67 adbd 0c4e a7bb 244f b4bb fde4 d6b9
00000110: 8c7f 053b f888 6a3b 3633 08ba 39cd 123c
0.0070678038 -0.010484778 -0.05034975 -0.0016851717 0.004745171 0.011808402 0.0039750063 0.024909621
0.06414233 0.02628259 -0.08226981 -0.15303524 -0.1100129 -0.21836689 -0.20299432 -0.16326015
-0.24988078 -0.19066183 -0.023924574 -0.02314352 0.012263441 -0.0043903803 0.023424536 0.023745738
0.01471439 0.003796929 0.0069796857 -0.006030929 -0.005426902 -0.038901377 0.06934349 -0.015746662
-0.061697066 -0.13394842 -0.16015056 -0.14586838 0.25339755 0.063760705 0.004436801 0.19273761
0.05523704 0.005763642 0.16728753 0.062000252 0.017098896 -0.15981083 -0.10425654 -0.09967758
-0.08743098 -0.05062641 -0.061023906 0.028457217 0.040624037 0.056542967 0.036755733 0.069900386
0.0016973508 -0.015102404 0.018224556 -0.0069823754 -0.011097859 -0.019415457 -0.070247926 -0.19625674
-0.08467052 -0.0051057395 -0.0055025984 -0.0004098787 0.0020370213 0.0035787206 -0.00051956193 0.008960062

exp_avg_sq f4 [8, 1, 3, 3]
00000000: 523f 2e3a 5e7e da3b d42c ac3d f4d2 5239
00000010: 159c bc3a b152 3e3d 0ae6 0f37 b3a1 a53a
00000020: 96fe cc3c f873 4d3d 942d 873d 7bb1 dd3d
00000030: c407 c23d e380 143e c6bf 023e a060 d33d
00000040: aaac 2f3e d251 043e 5716 3d3e adf8 f63c
00000050: b441 383c 292d 8b3d 9077 093c cfff 663c
00000060: 8057 ac3c 3fc1 803b 04fc 9e3d 1184 253f
00000070: f8b9 153f 3464 353f dc25 103f d198 523f
00000080: f631 2b3f f547 e13f 98d3 d03f af7d 323f
00000090: a106 0f3f 384b 313d 7654 b439 48f7 8e3e
000000a0: d849 693c 78e9 e638 728e ec3d bd59 493c
000000b0: 3d36 093a 35d6 253f 1361 2b3f b22f 023f
000000c0: 517e 073f 8036 f23e cdcb a43e 584f 6c3e
000000d0: 8d2a 283e 5100 943d ff55 9f3e 6d01 373e
000000e0: 38a1 ed3d e400 093f 4827 ac3e 6bab f23d
000000f0: c60c 0a3f 4530 ad3e cdbd 183e da4a 3f3e
00000100: f682 373d deeb 433c b7f6 713c d859 3139
00000110: 2d35 0838 4213 113b bcaf 6c38 b255 a23a
0.00066470087 0.006667896 0.08406988 0.00020105747 0.0014389778 0.04646558 8.577024e-06 0.0012636691
0.02502374 0.050159425 0.0660049 0.10824867 0.094741374 0.14502291 0.12768468 0.10321164
0.1715571 0.12921837 0.18465553 0.030147875 0.011246134 0.06795723 0.008390322 0.014099075
0.021037817 0.0039292867 0.07762912 0.6465464 0.5848689 0.7085602 0.5630777 0.8226443
0.6687311 1.7600085 1.6314573 0.6972303 0.5586949 0.043284625 0.00034395204 0.27923036
0.014238797 0.000110107416 0.11550607 0.012289462 0.00052342174 0.6477998 0.66945 0.5085403
0.5292712 0.47307205 0.32186738 0.23077142 0.16422482 0.07226623 0.31120297 0.17871638
0.11603016 0.53516984 0.3362372 0.11849102 0.5392574 0.3382589 0.14916153 0.18680897
0.04480263 0.011958091 0.014768294 0.00016913505 3.247445e-05 0.0022136723 5.643045e-05 0.0012385158

exp_avg f4 [8]
00000000: 4e75 27ba ab07 8dba e509 9c39 2ff3 24ba
00000010: 3b34 963a 450c 6eb9 eff8 be39 e881 0dbb
-0.0006388024 -0.0010759732 0.0002976201 -0.00062923407 0.0011459658 -0.0002270202 0.00036425094 -0.0021592323

exp_avg_sq f4 [8]
00000000: 8d5a 5639 c8b7 0b38 5d8c 3937 209c dc38
00000010: 1067 a037 db0f 7b39 3dbc 7937 60c7 1839
0.00020442363 3.3311342e-05 1.105954e-05 0.00010519498 1.9121479e-05 0.00023943132 1.4885384e-05 0.00014570123

exp_avg f4 [32, 8, 3, 3]
00000000: 9d79 753c 63e8 4f3c ce37 363c 9ec8 693c
00000010: 425f 913c 96da 783c 692a 2f3c 4ecb 243c
00000020: 5883 7f3c 272d 293d 9ba4 573d 150b 963d
00000030: 12ff f33c 1456 8f3d 9aad 9f3d 9b4a 703d
00000040: 13f5 b93d 7698 953d 972c f43c ba51 7a3c
00000050: 12b7 e63c 2904 de3c 34a0 313c 71e3 013d
00000060: 23bf b13c 046a f33b 4f17 0f3d cc06 5c3c
00000070: 306e 553c 7446 ab3c bfa6 043c 9dde 863c
00000080: 748d ab3c 7601 983c a398 ec3c fa2f 083d
00000090: 4be8 f93c 21ba 283c afde ef3c b813 f13c
000000a0: 5667 f73b 16f7 0a3d afbd b03c 2090 9a3b
000000b0: 2c03 2a3d bfbf 513d d3c6 0d3d 1109 073d
000000c0: 5a1f 253d a53a f33c c3d7 383d 13c1 7a3c
000000d0: c9d7 083d 85ab 2f3d 569e 823d 1d78 653d
000000e0: cec8 973d 871e 713d c4e2 643d f52b a43d
000000f0: 6af6 643d 37af 8f3d 1577 d03d e814 a43c
00000100: 0852 c73b df50 fa3b 5a92 8f3c 90a5 043c
00000110: 4d99 683c ae8a 3e3c b60c 113b 8001 883c
00000120: 0c45 8d3b c0ef bd3b 00c7 fb3a 3697 c43b
00000130: 5706 cc3b c180 b3ba 44ea ec3b d196 a73b
00000140: cb6c fc39 3a62 ed3b e2e6 0c3b 3f73 d2ba
00000150: 6de6 e93b ff5d 9b3c 7a32 873c 5762 093c
00000160: e5ce 073d be4e ed3b 7e67 4d3c 4848 2b3c
00000170: 2f03 aa3b 72f2 973c b59c 3abb 9b3b fd3b
00000180: 2561 7d3c 74c7 823a e03d 683c 2ead 883b
00000190: 0e87 753a 43f2 d33a 8d68 c5b9 8844 653c
000001a0: 26bd e63b c312 ea3b ea74 e93b 9b71 f539
000001b0: 9ec0 643c 135a 5b3c f389 4a3c c9af 413c
000001c0: 2927 9239 70d3 7a3c f837 6e3c c6bd c23b
000001d0: 9c92 813c 7d95 f23b ad16 543c f8c6 693b
000001e0: 72c7 35bb 5260 00bc 2bb9 4dbb 7245 6d3c
000001f0: 5749 8e3c 23e8 853c 05bd 3abb 50aa 483c
00000200: bd9a d63b 0560 853c 8d1b c93b 3895 653c
00000210: b520 ee3c dbed f83b 0729 6b3c cd86 323b
00000220: 6587 013c db4c 51b9 1152 08bb ee72 aabb
00000230: fc3d a9bb eea2 a5ba bba3 4f3b 070e bb3b
00000240: f97d 583b 572d 863b 281f 9b3b ff4c 133b
00000250: 235d 2a3b 8c94 dc3b 14a9 343b 18a1 423c
00000260: c34a 283c 147b 0d3d a60b 123d ccdf 473d
00000270: 86bf 1d3d 74b8 333d 4de6 3a3d 87db 113d
00000280: b505 493d ec98 c33c 5a95 283c 2d73 4b3c
00000290: e170 aa3c 4972 3e3c c7ac 583c e93c 1e3c
000002a0: b0fd 483c 876c 243c 3e4f ad3c 395b 093c
000002b0: 8010 053c 3b9f 683c c02e 4a3c 4938 f53b
000002c0: 91ce 063c 9f8b 2f3c 7529 1c3c 1e5f 373c
000002d0: 3ff2 513b ef8d 943b aea2 543c 4f45 ec3b
000002e0: d09c 0e3c d9f3 1c3c 3673 3e3c c000 013c
000002f0: 424c b33c a81d d23c c077 113d a017 1a3d
00000300: 1fa3 8f3c 16d4 813c 322d cc3c af92 893c
00000310: 076a 003d b48d 0c3d 1902 623c daef 983c
00000320: daa6 073d 5ab5 cc3c abe8 d03c 8d2b 173d
00000330: 6582 013d 620e fa3c 8f44 393d 9432 6c3b
00000340: fd56 4a3b 8348 3d3c f3bc 0a3c bda4 4a3b
00000350: a0e4 deb8 c68c fe3b d1c3 cb3a 9c25 be3b
00000360: 6dda 143b c95b 45bb 200e 68bc 5685 c0bb
00000370: 54df 40bc c790 b0bc 5336 09bc a035 f7ba
00000380: facc 87ba beb7 bebc 9ac7 a5bd ccfd 05be
00000390: 0e59 d1bd 5e68 d4bd 35c1 e4bd f728 f5bd
000003a0: 930a a7bd 13c7 bfbd 6ce7 ebbb aa3a fbbb
000003b0: 0664 60bc 72cf 0abc 08a2 97bb 482b ddbc
000003c0: ab71 89bc a7ce b6bc 0f2c dbbc 2b56 34bc
000003d0: 94bb 02bd 59d4 f1bc c6d3 c3bc c610 cabc
000003e0: dc2f 81bc 8341 c0bc 25dd 0bbd c1ac debc
000003f0: 939c 95bb b6c7 f839 e2cc dfbb ddb8 48bb
0.014982608 0.012689683 0.011121703 0.014269022 0.017745618 0.015188834 0.010691264 0.010058237
0.01559528 0.041302826 0.052647214 0.073263325 0.029784713 0.0699884 0.07796784 0.0586649
0.09079947 0.0730447 0.029806418 0.015278274 0.028163467 0.027101593 0.010841418 0.031711046
0.021697586 0.0074284095 0.03493434 0.013429355 0.013026759 0.020907618 0.008096396 0.016463572
0.020941474 0.018555384 0.028881377 0.03324888 0.030506274 0.010298283 0.029280988 0.029428348
0.0075501604 0.033927046 0.021574823 0.004716888 0.04150693 0.051208254 0.03461344 0.03296763
0.040313102 0.02969105 0.04512764 0.015304822 0.033408914 0.042888183 0.063778564 0.056022752
0.07411347 0.058867004 0.055880323 0.08016197 0.05589906 0.070158415 0.10178963 0.0200295
0.006082777 0.007639035 0.01752584 0.008096114 0.014196706 0.0116297435 0.002213282 0.016602278
0.0043112095 0.0057964027 0.0019209087 0.005999471 0.0062263417 -0.0013694988 0.007230075 0.0051144143
0.00048146243 0.0072443755 0.0021499922 -0.0016056075 0.0071380646 0.01896572 0.016503561 0.008385262
0.033156294 0.007242053 0.0125368815 0.010454245 0.005188368 0.018548224 -0.0028474752 0.007728053
0.015465056 0.0009977655 0.014174908 0.0041710353 0.0009366133 0.0016170222 -0.00037652664 0.01399339
0.007041591 0.00714335 0.007124533 0.00046814684 0.013961939 0.013388175 0.012361991 0.011821696
0.00027876467 0.0153092 0.014539711 0.005943033 0.01581698 0.0074030743 0.012944859 0.0035671573
-0.0027737287 -0.007835465 -0.0031390886 0.014481889 0.017368956 0.016346043 -0.0028494012 0.012247637
0.006549208 0.016281137 0.0061373175 0.014012627 0.02906833 0.007596714 0.014353043 0.0027240992
0.007905816 -0.00019960424 -0.0020800869 -0.005201689 -0.00516486 -0.0012637058 0.0031683284 0.0057084593
0.003303407 0.0040947604 0.0047339387 0.0022476313 0.0025995455 0.0067315754 0.0027566599 0.011879228
0.010271731 0.034541205 0.03565564 0.048797414 0.03851273 0.04387708 0.04562979 0.03560975
0.04907771 0.02387663 0.010289514 0.012417597 0.020805778 0.011623927 0.013224787 0.009658077
0.012267515 0.010035641 0.02115595 0.008383566 0.00812161 0.01419812 0.012340248 0.0074835164
0.00822796 0.010714441 0.0095313685 0.011192111 0.003203526 0.0045335214 0.012978239 0.0072104107
0.008704379 0.009579622 0.011624148 0.007873714 0.021886948 0.025648907 0.035514593 0.037620187
0.017533837 0.0158482 0.024923895 0.016793577 0.031351116 0.034314826 0.013794445 0.018669058
0.033118106 0.024988819 0.02550157 0.036906768 0.031618495 0.030524436 0.0452314 0.003604089
0.0030874603 0.011552933 0.008467901 0.0030920946 -0.0001062837 0.0077682463 0.0015546029 0.005802823
0.00227132 -0.0030114523 -0.014163524 -0.00587527 -0.011771996 -0.02155341 -0.008374768 -0.0018860586
-0.001036077 -0.023280974 -0.080947116 -0.13085097 -0.10222064 -0.10371469 -0.11169664 -0.11970704
-0.08156314 -0.09364142 -0.0071992185 -0.0076669054 -0.013695722 -0.00847231 -0.00462747 -0.026998177
-0.016777834 -0.022315336 -0.026754407 -0.011006872 -0.03191717 -0.0295202 -0.023904692 -0.024666201
-0.015769891 -0.023468738 -0.034146447 -0.027181985 -0.0045657842 0.00047451042 -0.006829844 -0.0030627765

exp_avg_sq f4 [32, 8, 3, 3]
00000000: d23c 3c3a 4f73 3f3a acce 113a af28 4c3a
00000010: 7b69 563a 42e1 893a e800 553a c327 1c3a
00000020: 626b ea39 a3f1 9e3c 6b29 0f3d b309 5f3d
00000030: 6537 ab3c 6f26 9b3d 6caf 8c3d 391c 973d
00000040: 1509 f53d 2477 a73d ce3b e23b 4dda 633b
00000050: adcd 603b 756e f83b 485b 8c3a 2495 ba3b
00000060: 3ad1 1a3b 5f47 413a 75c8 f13b 6689 483b
00000070: 267d 2a3b eadc cd3b 95e5 c03a 9e72 c83b
00000080: 7843 1c3c f0ca 8b3b 1aad 1a3c 59c1 003c
00000090: f426 be3b bb46 0f3b c4d6 3f3b e9a6 b53b
000000a0: 1f82 113a ed4f c63b 0c58 8e3a 0854 443a
000000b0: 564e e13b c174 fb3c e67b cd3c 8c27 f43c
000000c0: 922c 6d3c 32e8 fa3b 0ae9 b23c f187 dd3b
000000d0: d167 ce3c f45b 263d b95c 003d 9513 b23c
000000e0: f870 573d 32d5 bc3c 528d 133d 33d7 a03d
000000f0: eda6 ed3c 0313 a03d 20d5 d73d 0a13 1c3b
00000100: f17d f03a 4a39 9b3a 43d3 203b 7edc 353a
00000110: 88ba cb3a 87d7 493a 729e 3439 84f2 cb3a
00000120: 1d4c de39 f77f 9f3a 26ad 293a 57b7 9c3a
00000130: 6c7e 5f3a b54f 2c3a 1f3e 2c3b de0d 413a
00000140: 5648 9837 bdb3 8c3c 2656 1e3d 52a4 d73c
00000150: 7db2 ea3c 10b6 6d3d dd0d c93c b292 533d
00000160: ef90 783d c184 913c 8c87 9b3c 3398 7b3b
00000170: d932 1b3b a295 573c 7f25 8e3a 00ef 783b
00000180: 574a 013c 7dfd da39 707f 473c 4371 8e3b
00000190: e6c0 183b 9b22 893b 7603 cf3a 212c d93b
000001a0: 8574 083c 1b7c 9e3b 4f9a 993b c547 2c3b
000001b0: 9b3c ad3c 3367 503b 7db9 533b d278 303c
000001c0: 8161 6d3a a80d b13b 7c1f b93b 50fa 633a
000001d0: 8edf 693c cf79 f93c efc1 233c e7e4 833c
000001e0: 74be aa3c 82dc 273c 2d64 ad3c 2cf4 9b3c
000001f0: bf00 c23c 1d04 e73c de31 a03d 6ef6 113d
00000200: 5225 553d fc5d 543d 2ee0 6e3d 4cb4 ab3d
00000210: 1807 173d 8247 613d 35e4 af3d 8327 af3b
00000220: f282 823a e110 9939 7200 333b ea46 033a
00000230: 6acb 593a 0049 0f3b e7e1 9f39 0f42 203b
00000240: 20fb 8f3a c9de 4e3a ee05 f13a 3bb3 a13a
00000250: 3abb 513a 662e 2b3a 0165 ab3a ffd6 483b
00000260: 1ca1 ad3a d1ed 5f3d 00f6 d53d 3290 193e
00000270: a48e f23d c3dd 543e f87a 663e 51f3 cc3d
00000280: 7d97 263e b60b d73d ce1b d43a 1e11 ab3b
00000290: 61a9 3d3c ef8e d73a 6d91 dd3b e73d e63b
000002a0: f9fa 4a3b a2dc c73b 63c2 293c f636 983b
000002b0: 0194 233c 5efc 963c d24e 083c ce29 443c
000002c0: 2f8e c03c ed7c 9b3b e7f7 ee3b a184 1d3c
000002d0: 1a06 1f3a 3b0e 773b 1e9c 073c 67b2 603a
000002e0: 8656 853b b171 c33b 9cab b23a c1bf 743b
000002f0: f84d 1f3c bcb5 e93c ca99 1a3d 7815 583d
00000300: 21e2 e63c 02df 2b3d f8be 4a3d 4088 753d
00000310: c767 b23d b8b8 ff3d 6588 233d ea9b b33d
00000320: 37ef 083e cef6 903d 0bdb 0b3e 14fa 613e
00000330: de4b 823d 70dd b13d ecf4 313e 1944 3b3a
00000340: aa66 073b d05c 3b3b 3e98 0a3a 0282 883a
00000350: 5ac3 a53a 6bfd 593a 151c 203b 2c68 393b
00000360: 36e2 8537 618a 9f39 2068 133b 7c8f 1639
00000370: ee1f c639 5fd3 553b 2e0a 253a 2798 5b3a
00000380: 67ce d43a 474c 813c f19e 6f3d ed5b 3d3e
00000390: 79b4 f23d 5d1b 253e e2ab 563e a889 093e
000003a0: 1a64 ae3d c80e 0b3e e126 d63a 171e 2b3a
000003b0: b1d3 1a3b 0dd4 e73a 8d6b c33a dbc1 253c
000003c0: 7f07 bb3b 9759 323c ef0f 513c ed0c 893b
000003d0: 4c7e e53b ca4f 353c ebc5 823c 82b9 613c
000003e0: bd7c 033c 5184 083c 39bb 353c 72f4 2e3c
000003f0: a63c 213a 301a ce37 cd28 993a 2915 053a
0.0007180694 0.0007303254 0.00055621075 0.0007788045 0.000817917 0.0010519403 0.000812544 0.00059568527
0.00044711964 0.01940233 0.03495161 0.05445261 0.020900438 0.0757569 0.068693966 0.0737843
0.11964623 0.08177021 0.006904102 0.0034767569 0.003430228 0.007581527 0.0010708356 0.0056940485
0.0023623244 0.0007373001 0.0073786327 0.0030599474 0.0026014536 0.0062824385 0.0014716858 0.006117179
0.00953757 0.0042661354 0.009440685 0.007858598 0.0058029834 0.0021862227 0.0029272297 0.005543579
0.00055507006 0.0060520084 0.001085998 0.0007489328 0.0068757934 0.030695321 0.025083493 0.029804014
0.014475958 0.0076570744 0.021839637 0.0067605902 0.025195988 0.040615037 0.031338427 0.021737853
0.05259797 0.023050878 0.036023445 0.07853546 0.02901026 0.07816126 0.10538697 0.002381506
0.001834808 0.0011842635 0.0024539984 0.0006937458 0.0015543262 0.00076996576 0.00017225163 0.0015559946
0.00042399848 0.0012168874 0.00064726395 0.0011956495 0.0008525613 0.00065731566 0.0026282144 0.0007364432
1.8153496e-05 0.01717555 0.038656376 0.026323471 0.028649563 0.058034956 0.024542743 0.05165357
0.060685094 0.017763497 0.018985532 0.0038390278 0.002368143 0.013158234 0.0010844915 0.0037984252
0.007891259 0.00041769064 0.01217638 0.004346998 0.0023308336 0.0041850335 0.0015793878 0.006627575
0.008328562 0.004836572 0.0046875845 0.0026287895 0.021147063 0.0031799793 0.0032306605 0.010770993
0.0009055362 0.0054032393 0.005649505 0.0008696662 0.014274491 0.03045359 0.009994968 0.01610036
0.020842768 0.010245444 0.021165932 0.019037329 0.023681996 0.028200204 0.078220114 0.035635404
0.052037545 0.051847443 0.058319263 0.08383998 0.036872 0.054999836 0.08588449 0.0053452863
0.0009957238 0.0002919501 0.0027313498 0.00050078204 0.0008308204 0.002186358 0.00030495154 0.0024453436
0.0010984875 0.0007891474 0.0018388608 0.001233674 0.0008000616 0.0006530046 0.0013076366 0.0030645726
0.0013246867 0.05467016 0.104473114 0.14996412 0.11843613 0.2078772 0.22507846 0.100073464
0.16268726 0.105002806 0.0016182603 0.0052205464 0.011576028 0.0016445796 0.006761721 0.0070264223
0.0030972345 0.0060992995 0.010361287 0.0046452237 0.009984017 0.018430885 0.0083195735 0.011972858
0.023505298 0.004745117 0.007292736 0.009614141 0.0006066278 0.003769769 0.008276967 0.0008571506
0.0040691523 0.005964481 0.0013631466 0.003734574 0.009723179 0.02852904 0.03774432 0.05275485
0.028183999 0.041960724 0.04949853 0.05994439 0.087112 0.12486404 0.039924998 0.087699726
0.13372503 0.07078324 0.13657777 0.22068053 0.06362127 0.08684814 0.17378587 0.0007143631
0.0020660558 0.0028589256 0.0005286968 0.0010414722 0.001264672 0.0008315655 0.00244308 0.002829085
1.5960173e-05 0.00030429944 0.0022492483 0.00014358567 0.00037789292 0.0032627208 0.00062957674 0.00083768595
0.0016235829 0.015783442 0.058501188 0.18492098 0.11850829 0.1612372 0.20964006 0.13431418
0.085151866 0.13579857 0.0016338491 0.0006527616 0.0023624713 0.0017687097 0.0014909372 0.0101170195
0.0057076807 0.010885618 0.0127601465 0.004182449 0.007003581 0.0110663865 0.015963515 0.013777139
0.008025345 0.008332328 0.011092001 0.0106783975 0.00061507 2.4569308e-05 0.0011685133 0.00050767005

exp_avg f4 [32]
00000000: 97b7 053b cba5 37b9 a000 403a 7590 02bb
00000010: 9a28 0ab9 f5c8 9338 3e9c 68ba 6639 ce3a
00000020: a22e 453a 146c bfb9 64ed 2a3b 247e a5ba
00000030: 2d99 90ba 130a 30bb f7fe 66b9 6baf c7ba
00000040: e6f8 14bb 3290 493b 572b 09ba f979 32bb
00000050: 2826 7dba 0da2 5a3a 8e7d afb8 9060 52bb
00000060: 1cee c3ba 8182 a939 4efd 863a c65f f73a
00000070: 8447 13bb d6ce 5bba 036a b83a 314d 76b9
0.0020403618 -0.00017514003 0.0007324312 -0.001992253 -0.00013175831 7.0469374e-05 -0.00088733796 0.0015733659
0.00075219024 -0.00036510883 0.0026081437 -0.0012626094 -0.0011031978 -0.0026861473 -0.00022029491 -0.0015234774
-0.0022731363 0.0030756113 -0.00052325934 -0.0027233346 -0.000965687 0.00083401875 -8.368037e-05 -0.0032101013
-0.0014948281 0.00032331425 0.0010298879 0.0018873147 -0.0022473047 -0.0008385008 0.001406968 -0.00023489144

exp_avg_sq f4 [32]
00000000: 7012 aa38 39d6 db38 11b0 4439 7390 7638
00000010: 782f 7639 1cf7 2e39 9d9e 2c39 57c4 5139
00000020: 37b3 b636 956f bc38 241f 2a38 ec11 7139
00000030: f163 aa38 f738 6e39 577e b138 52ee da39
00000040: 4275 9d38 7e4d e938 afcf 8d37 c938 0839
00000050: d383 f138 5942 ff36 b16d 7437 beca 0339
00000060: ffdf 3638 6d69 8a36 1344 2439 bc14 3938
00000070: 8612 f338 c06a 0b38 d3d3 c639 96e2 3a37
8.109666e-05 0.00010482636 0.00018757606 5.87855e-05 0.00023478072 0.00016685989 0.00016462286 0.00020004936
5.444886e-06 8.985322e-05 4.056016e-05 0.00022990227 8.124847e-05 0.0002271867 8.46355e-05 0.00041757763
7.508184e-05 0.0001112474 1.690522e-05 0.00012991125 0.0001151633 7.607316e-06 1.4569073e-05 0.00012568661
4.3600794e-05 4.1249937e-06 0.00015665618 4.4126748e-05 0.00011590593 3.32396e-05 0.00037923324 1.113922e-05

exp_avg f4 [10, 32]
00000000: 56ab 6f3b 7ead b13c b5d8 8c3c 184d bfbc
00000010: 00fc 1eba a432 123c 8a49 10bc 713e 0abc
00000020: f1f2 8b3b 51bc d93c 2ba0 873c 7ac0 0a3c
00000030: 9494 52bb 1d0d 6a3d 2a99 553c 307e a73b
00000040: 32a1 bf3c 7db3 8e3c 6f95 54bd 0d25 c93b
00000050: fa2b a8bc cc10 063d c5ac 553a 4420 de3c
00000060: b4b2 ef3b d9fa b13b 9dfd 993c 1c70 d83c
00000070: 3d72 0b3d 1e95 f73c 4ba8 193d f058 3e3a
00000080: 08c7 853e 98f0 443e af27 193e 015a c93d
00000090: c5a3 643d 0128 4d3e 974f 523e 2b7b a73e
000000a0: 560b 793d 1ee2 d13d 96d1 b33d aad1 843d
000000b0: 85fb 223d a2be 363e 609c 983d e5eb c23e
000000c0: 7ac2 133e b462 cf3d 02d1 d93d 96f3 063e
000000d0: 2758 973d 2957 f33d fee7 8739 7a28 163e
000000e0: 071c 353d 9cdc 833d 892c 7b3e f6c6 093e
000000f0: a3fd 153e e5bd bb3d 3d8a 0b3e cda3 193b
00000100: 5ce5 53be 3528 efbd 88c1 e0bd 073d 9ebd
00000110: 0f2b 88bd 23c3 10be cd35 15be da13 54be
00000120: 580b 0ebd efc9 cabd 0797 4ebd 0e2b 75bd
00000130: 87cf 9fbc b16b f6bd f29f 29bd b9cc 89be
00000140: 1828 c2bd 35c8 96bd 6bc2 cdbd b6e2 8fbd
00000150: 7482 54bd ff35 d5bd b766 21bb 67c3 f7bd
00000160: 9b78 8fbd 55fb c5bd b531 42be 6198 f9bd
00000170: fc93 0abe 0610 b4bd 1674 b1bd 86ef 243b
00000180: d43e bd3d 89cd 2c3d e2c5 8f3d c15a 313d
00000190: e795 ef3c dad7 523d ef20 693d 2c2c c93d
000001a0: ae50 c63c 1dca 1a3d fc1b 873c 2a3d 433d
000001b0: 1377 a83c 7285 f53c fc06 6c3d f624 1a3e
000001c0: 6369 533d 6d09 313d 0eeb 393d 5f10 213d
000001d0: 1188 2c3d ddfc 463c 0d5f 843a 4867 643d
000001e0: b052 0d3d e1e5 06bc 1601 d73d 9792 423d
000001f0: 499a 8e3d 2fc8 a23c cc7b 0f3d 5b8a 2538
00000200: cd2d 2fbe 44e5 e0bd 60ef 9dbd 117d 99bd
00000210: 8d40 c1bc d2a4 02be 4d36 01be 1917 2abe
00000220: 0272 25bd a3c6 79bd 2365 94bd 1f44 ccbc
00000230: d130 93bc 955c f7bd a332 f13a 5627 31be
00000240: fc55 d2bd 98cf a7bd 8ff3 c2bd e74f 9fbd
00000250: cc14 2fbd c599 15bd e831 f0b9 4b1f febd
00000260: 40a6 2fbd acc9 94ba ed17 e6bd f8f4 3bbd
00000270: a105 80bd a571 a6bd 0ff6 dcbd c1a1 c7bb
00000280: deb1 95bd 3fd3 0bbd 82b0 66bd 1c7e 28bd
00000290: e3b3 d2bc 5b50 a3bc 065b b0bc 3805 a5bd
000002a0: 4e2e 20bd ac85 6abd 0ec6 abbc 2516 64bd
000002b0: 5e9a eebc d383 17bd aa09 a2bd 7ea6 debd
000002c0: 0b97 1ebd 3425 b8bc bcb3 7dbc 678f 3bbd
000002d0: 828f adbc 1e8d 1bbd edd1 d2b9 a75d 8dbd
000002e0: 34a1 19bd b26b 863b 00ba a1bd 72a3 0cbd
000002f0: 5a7f a1bd 698d 9abc 7a92 22bd eddb 2d39
00000300: 45dc 123e facf cc3d ed8d 763d 761a c23d
00000310: fabc ff3c e422 e33d cf3a 073e 853f 313e
00000320: c143 9e3c 21ff bc3d 8456 843d f7f1 153d
00000330: 1b52 e03c 1f88 253e fb6c c03d 763e 593e
00000340: 8d5e 993d 9bfc 923d d1ac b83d d6d3 b93d
00000350: fb5e d53c b925 ee3d a9f2 1d3a 318a 973d
00000360: 0d01 073d d4cd 643d c736 283e a62c 883d
00000370: 2457 7a3d 10af 973d b0a7 d43d 53d6 683b
00000380: f102 5abd cbc7 c4bd e01c 80bd 3ed4 30bd
00000390: 2694 f4bc ae52 acbd 82a2 5ebd a936 dabd
000003a0: efb2 1f3c 35df 2bbd cd0c 08bd 5a1e 60bc
000003b0: c455 27bb c0ca d0bd 90ee 00be 469a ddbd
000003c0: bbe5 46bd 92d8 68bd e2af dfbc 7e06 31bd
000003d0: ac2e d5bc eecf 9ebd da2c 9f39 11d1 81bc
000003e0: 5ac5 2fbb 9a16 b7bc 8ef5 89bd d856 acbd
000003f0: 64e1 0abd aec0 5abd 376c 87bd f53f 10bb
0.003657063 0.021689173 0.017193178 -0.02335219 -0.00060647726 0.0089232065 -0.008806596 -0.008437739
0.004270904 0.026579054 0.016555866 0.008468742 -0.0032132016 0.057141412 0.013037005 0.0051114783
0.023392294 0.017419571 -0.051900323 0.00613845 -0.020528782 0.032730862 0.000815105 0.027114995
0.0073150042 0.0054315147 0.01879769 0.026420645 0.034044493 0.030222472 0.037514012 0.00072611775
0.2612841 0.19232404 0.14956544 0.0983162 0.055820245 0.20034792 0.20538174 0.32711157
0.060801826 0.102482066 0.0878021 0.06485303 0.03979065 0.17846158 0.07451701 0.38070598
0.14429656 0.10126248 0.10635568 0.13178858 0.073898606 0.11881859 0.00025922054 0.14663878
0.044216182 0.06438562 0.24528708 0.13454804 0.14647536 0.09167079 0.13626952 0.002344358
-0.20692962 -0.11677591 -0.10974413 -0.07726484 -0.06648838 -0.14136939 -0.14571305 -0.20710698
-0.034678787 -0.09901797 -0.050437 -0.059855513 -0.019508136 -0.12032259 -0.0414123 -0.26914003
-0.094803035 -0.07362405 -0.10046848 -0.070256636 -0.051882222 -0.104106896 -0.0024627873 -0.12097817
-0.070054255 -0.096670784 -0.18964274 -0.12187267 -0.13533014 -0.08792119 -0.0866472 0.002516718
0.09240499 0.0421882 0.07020165 0.04329944 0.029246284 0.051475383 0.056916174 0.09822878
0.024208393 0.037790406 0.016492836 0.047665752 0.020564592 0.029970858 0.05762385 0.15053162
0.051614176 0.04322188 0.04539018 0.039322253 0.04212195 0.012145248 0.0010099128 0.05576256
0.034502685 -0.008233518 0.10498254 0.04750308 0.06963021 0.019870846 0.03503017 3.946792e-05
-0.17107315 -0.10981229 -0.07711673 -0.07494558 -0.02359035 -0.12758186 -0.1261837 -0.16610374
-0.04039193 -0.06098045 -0.07245853 -0.024934826 -0.017967613 -0.120782055 0.0018401932 -0.17300162
-0.102703065 -0.08193892 -0.09519111 -0.07778912 -0.042744443 -0.0365236 -0.0004581355 -0.124083124
-0.042883158 -0.0011351607 -0.11235032 -0.045887917 -0.06251074 -0.08127145 -0.107891195 -0.0060922806
-0.07309316 -0.034137007 -0.056320675 -0.041135892 -0.025720542 -0.019935777 -0.021527778 -0.08057636
-0.03910666 -0.057256386 -0.020968463 -0.05568518 -0.029126342 -0.03699095 -0.079119995 -0.108715996
-0.038718265 -0.022478677 -0.015484747 -0.045791056 -0.021186594 -0.037976377 -0.00040210728 -0.069026284
-0.03750725 0.0041021938 -0.07896805 -0.03433556 -0.078856185 -0.018866258 -0.039690472 0.00016580494
0.14341839 0.10000606 0.060193945 0.09477703 0.03121804 0.11090639 0.13206027 0.17309387
0.019319417 0.092283495 0.06461814 0.03660771 0.027382901 0.16165207 0.093957864 0.21215233
0.07488737 0.07177087 0.09017337 0.090736076 0.026046267 0.11628289 0.0006025234 0.07399405
0.032959986 0.055860355 0.16427146 0.06649141 0.06111826 0.074064374 0.10383546 0.0035528138
-0.05322546 -0.0960842 -0.062555075 -0.04317116 -0.029855799 -0.084142074 -0.0543542 -0.10654957
0.009747251 -0.041960914 -0.033215333 -0.013679111 -0.0025533298 -0.101949215 -0.12591004 -0.10820441
-0.04855893 -0.056847163 -0.027305547 -0.043219082 -0.026023231 -0.07754503 0.0003036026 -0.015846761
-0.0026820512 -0.022349644 -0.06736289 -0.08415002 -0.033906356 -0.05340641 -0.06612437 -0.0022010778

exp_avg_sq f4 [10, 32]
00000000: 0fb1 7e3f a161 223e e9f2 813f 41fb be3d
00000010: fdef 833d 7ffd 583f 4ca7 703e 7dbb 0840
00000020: ca80 963c c16b ff3e 508d f03d 793a b33e
00000030: e0d9 553d a83c 303e e6d7 6c3e 4c77 0140
00000040: 46ae a33e b93e 423f 8f8e e43c fba6 4b3f
00000050: 9a51 523e 22e3 a43d d1e6 233a b46e 5a3e
00000060: 77d2 e53d c9a3 d63b 1fc0 7b3f 8c6f 293e
00000070: 9b77 673e cc5f 193e 84ad 283f 561f 1a3b
00000080: 35bd 193f 1e09 5d3e b9c8 e23e 99a4 693d
00000090: 4518 203d 4ae4 dc3e 8fa4 3e3e 8edb 933f
000000a0: 060b 2f3c 0109 683e 4b27 ab3d cc0d 3d3e
000000b0: b5cf c43c 090b 303e cc2e 763d 42f8 893f
000000c0: 7191 2e3e cd0f a43e 53d9 333d f17d a53e
000000d0: c75f 9c3d e4eb a93d 493d 2839 5f97 e73d
000000e0: b658 713d 604b ba3b fa16 e73e 88da e83d
000000f0: 4c38 0c3e 4727 c23d 4f73 b63e 7eab 543a
00000100: c1e5 4b3f ca7d 503e a2b9 f73e 530f bf3d
00000110: 3317 803d b362 083f b26e a73e f67f ba3f
00000120: d4aa 9a3c b1fd 7e3e 28a1 803d 155f 503e
00000130: 79a6 e73c c1c1 5f3e 7ad6 273e 0a06 ec3f
00000140: 9953 b83e 4f8b 873e 8b20 4d3d c442 063f
00000150: a901 f23d c8ec a93d ca1b 8c38 4d12 963e
00000160: ef8c 833d 7791 ea3c 6817 583f b4b7 0f3e
00000170: fba5 833e 50b3 253e f129 023f 2735 da39
00000180: 0ebf b03e 7f57 1a3d 83ca 883e 9640 e63c
00000190: 9c1c d73c d61c 823e f01b aa3d 869c 363f
000001a0: 048a bd3b e7d7 f63d 151f d73c 2a20 e43d
000001b0: 16e1 5b3c 84f2 413d 71c5 e63d bf59 593f
000001c0: cd33 2e3e 1a2b 463e e8aa 8f3b d5ec 983e
000001d0: 00f7 883d c04b ab3c f19a 5438 b5a6 f13d
000001e0: 7641 d03c 9d41 c53b 18d4 c83e 1bcd 2c3d
000001f0: a644 c63d 099a 9f3d 78ca 993e 6de9 9339
00000200: 57f1 363f 7ede 8f3e bd36 bb3e 10e4 a83d
00000210: a529 0e3d 9bcc 033f 2663 ce3e 8d64 a53f
00000220: 4f18 833c 8ea2 3c3e 52ea 973d 8fba 053e
00000230: c4da f23c 8ea4 903e f177 983d 3866 be3f
00000240: d502 8d3e c155 703e d1a7 833d a491 bd3e
00000250: daf1 9c3d 82ad a93d 9e62 8c38 a66c 4f3e
00000260: 1e0e 2c3d 41cc bb3b 8f0b 223f 79d1 033e
00000270: 7a44 3c3e 8072 023e f9dc cc3e 2e55 1d3a
00000280: 726d a83e e4eb 973d 3b29 673e ae1e 393d
00000290: 50a9 e83c a682 4a3e 5596 043e 4458 203f
000002a0: fe31 6d3c b27e e83d d643 e83c 2a52 023e
000002b0: 2a9e 813c 9476 b43d 234e 053e 7521 623f
000002c0: eb08 1e3e 0b43 f93d b0b9 523c c9ec 673e
000002d0: ae8c 573d e7f9 053d 8593 2738 0c22 1c3e
000002e0: 2cb0 063d 1a56 b83b 7340 d43e d1c1 593d
000002f0: bdf6 0c3e 0311 893d 13fc 543e 269b 6539
00000300: 8f6e 0a3f 2fdc 5b3e 2885 973e ad29 363d
00000310: 5468 e23c 5882 c33e 2ef8 973e a53e 843f
00000320: e1e7 2a3c 4f86 083e a5d3 3b3d 08c2 e23d
00000330: 61b7 a23c 612c 3c3e 39f7 5b3d 3259 8f3f
00000340: 9ce7 463e 96af 2d3e 986d 283d d590 8a3e
00000350: 6196 523d c11a 5f3d 5b72 9438 59e6 153e
00000360: e7eb ec3c 1887 893b 2998 ed3e 7067 e13d
00000370: e1b9 053e f5cc b43d 6421 8a3e 3a90 b039
00000380: 8117 773e fbc3 a03d 6a9e 4b3e d33f 0f3d
00000390: 06fd 803c ff12 453e 9804 b53d 168a 083f
000003a0: 0c9d 6c3b 7f3f b03d 86aa e83c 928f 903d
000003b0: d3e9 393c 6e14 9f3d f277 b63d bd3c 293f
000003c0: 1fec ec3d 8c9e e63d b1a6 3f3c dd2e 443e
000003d0: 28b2 263d b637 ff3c d1d4 2d38 84c9 983d
000003e0: 9641 793c de8e 4e3b d7ad 883e aa34 3e3d
000003f0: 9d04 a13d 4db5 843d 32a8 503e 75af b439
0.9948892 0.15857555 1.0152255 0.09325267 0.064422585 0.84761804 0.23501319 2.1364434
0.018371958 0.49886897 0.11745703 0.3500555 0.052209735 0.17210639 0.23129234 2.0229063
0.31968898 0.7587696 0.027900008 0.79551667 0.20538941 0.08051135 0.0006252351 0.21331292
0.112217836 0.0065502864 0.9834003 0.16546458 0.2260422 0.1497795 0.65889764 0.0023517213
0.6005433 0.21585509 0.44293764 0.05704174 0.039085645 0.4314292 0.18617462 1.1551378
0.010683781 0.22659685 0.08357104 0.18462294 0.024024824 0.1719171 0.060103223 1.0778887
0.17047669 0.32043305 0.04390843 0.32322648 0.076354556 0.08296946 0.00016044559 0.113081686
0.058922492 0.005685255 0.45134717 0.113698065 0.1369335 0.09480148 0.35634848 0.00081127125
0.7964745 0.20360485 0.48383814 0.09329095 0.06254425 0.53275603 0.3270164 1.45703
0.018880285 0.24901463 0.06280738 0.20348771 0.028277623 0.21851255 0.1639041 1.8439343
0.3600128 0.26473472 0.050079864 0.52445626 0.11816723 0.082971156 6.680896e-05 0.29310837
0.06423365 0.028633816 0.84410715 0.14034921 0.2571257 0.16181684 0.5084525 0.00041619802
0.34520763 0.0376811 0.26717004 0.028106969 0.02625876 0.25412625 0.0830611 0.71332586
0.005784275 0.12052899 0.026259938 0.11138947 0.013420364 0.04735042 0.11268128 0.84902567
0.17011948 0.1935238 0.0043843873 0.29868189 0.066877365 0.020910144 5.068904e-05 0.11799375
0.02542184 0.0060197846 0.39224315 0.04218779 0.096810624 0.07793052 0.30037284 0.0002821194
0.71462005 0.28099436 0.365652 0.082466245 0.034707684 0.5148408 0.4031002 1.2921311
0.016002802 0.18421385 0.0741774 0.13059448 0.029645331 0.28250545 0.07444752 1.4874945
0.27541223 0.23470213 0.06428493 0.37025177 0.07663317 0.08285047 6.694089e-05 0.2025629
0.04200565 0.005731136 0.63298887 0.12872876 0.18385497 0.12738991 0.4001234 0.00060017675
0.32896 0.074180394 0.22574322 0.045195274 0.028401047 0.19776401 0.12947972 0.6263468
0.014477251 0.1135229 0.02835266 0.12726656 0.015822489 0.088116795 0.13018088 0.883323
0.1543309 0.121709906 0.012861654 0.2264892 0.052624397 0.03270903 3.995329e-05 0.15247363
0.032882854 0.0056254985 0.4145542 0.053163353 0.13765998 0.06692698 0.20799284 0.00021896939
0.5407495 0.21470712 0.29593778 0.04447334 0.027637638 0.38185382 0.29681534 1.0331618
0.010431261 0.13332485 0.045856137 0.11072165 0.019862833 0.18376304 0.053702567 1.1199095
0.1942429 0.16961512 0.04112014 0.27063623 0.051412944 0.054468874 7.07849e-05 0.14638652
0.02892108 0.0041970126 0.4640515 0.11006057 0.13059188 0.08828155 0.269786 0.00033676793
0.2413006 0.0784988 0.19884649 0.034972977 0.015745651 0.19245528 0.08838767 0.533357
0.003610435 0.08605861 0.028401624 0.07058634 0.011347252 0.077675685 0.089095965 0.66108304
0.11568474 0.11260709 0.011697457 0.19158502 0.040697247 0.031154495 4.1444615e-05 0.07460311
0.015213391 0.003151826 0.2669513 0.046436943 0.07862208 0.06479893 0.20376661 0.00034463

exp_avg f4 [10]
00000000: 62b5 f33b c3e4 d43b 4771 d5bb fa3b 833b
00000010: 3142 2bbb 8d21 e3bb 1060 c73b 8933 e8bb
00000020: 0ddc 8fbb b01a 663b
0.007437394 0.006496997 -0.006513748 0.0040049525 -0.0026131982 -0.00693149 0.0060844496 -0.0070862216
-0.004390246 0.0035111122

exp_avg_sq f4 [10]
00000000: 7f3e 363b 0c47 3d3b 3a56 143b 07c7 803a
00000010: 1e71 193b c023 973a f704 d23a c670 893a
00000020: 571a 513a efa0 0e3b
0.0027808247 0.0028881459 0.0022634403 0.000982494 0.002341337 0.001153104 0.0016023208 0.001048588
0.0007976642 0.0021763404
