{{cookiecutter.project_slug}}/exp1/lightning_logs/version_41/checkpoints/epoch=999-step=1000.ckpt (torch, 42202 bytes, 18 tensors)

model.0.weight f4 [8, 1, 3, 3]
000000 2c c8 1a 3e 26 75 88 be c3 0f 90 be dd 74 89 3d
       0.15115422 -0.26651877 -0.28137025 0.06711743
000010 52 ee a8 be 67 6f 5b be 4f 62 80 3e b5 d2 17 3e
       -0.32994324 -0.21429215 0.25075004 0.14826472
000020 b0 86 01 3d 8c 02 33 3e c1 0f 38 3e 7f b6 65 be
       0.03162259 0.1748144 0.1797476 -0.22432898
000030 26 49 8d 3e 2f ce 93 3e 39 7f 8b 3e c1 6a 5f be
       0.2759487 0.28868243 0.272455 -0.21818067
000040 c6 91 30 3d 3b fb 1c 3e 7a 3b 0b 3e 5b 96 9d 3e
       0.04310777 0.15330212 0.13596907 0.30778775
000050 5b dd 10 3e 31 9f e8 3a 5a 4a 13 3d 1a e7 80 3e
       0.1414694 0.0017747638 0.03595958 0.25176316
000060 0f ff a1 3e 32 1e 9c bc 3e dc 8c be 77 d1 95 3e
       0.31639907 -0.019057367 -0.2751178 0.29261371
000070 64 93 12 be 25 1d 16 3e e8 33 e4 3d e5 02 c2 bd
       -0.14314038 0.14659555 0.11142713 -0.09473208
000080 50 56 67 3e ed 60 79 3e 69 ef 70 3e 0e c6 9b 3e
       0.2259152 0.2435338 0.23528828 0.3042454
000090 1f 66 98 be 7a 10 1e 3e 06 7e 1f be a0 48 b9 bb
       -0.29765412 0.15435973 -0.15575418 -0.0056544095
0000a0 9d 1f 5d 3e f7 af a2 bc e9 89 96 3e 8f c7 e9 3c
       0.21594091 -0.019859297 0.29402092 0.02853754
0000b0 a1 46 35 be bc 00 16 3e 3b c5 05 be 64 97 0f 3e
       -0.17702724 0.14648718 -0.13063519 0.14022595
0000c0 71 2a 27 3e d6 4e 04 be c3 d1 06 3e 75 e2 d2 bc
       0.16324784 -0.12920699 0.13165955 -0.025742749
0000d0 0c 51 8f 3e be fd 7d 3d 4d 20 ce 3c bd 5a ad bd
       0.2799152 0.062009566 0.025161887 -0.084645726
0000e0 c7 d9 be be 39 04 8c bd aa 4c b0 3e df a9 5b be
       -0.37275526 -0.06836743 0.3443349 -0.2145152
0000f0 ee cd bd 3c 01 b9 56 3e 0b a1 55 3e a3 0d f8 3c
       0.023169484 0.20969011 0.20862214 0.03027994
000100 17 1d 80 3c 95 99 d6 3e e4 98 a4 be ce 98 8f bd
       0.015638871 0.4191405 -0.32147896 -0.07011567
000110 ad c1 b3 3e 07 ba 8a bd 18 24 9e be 08 e7 de bd
       0.351087 -0.06773763 -0.30886912 -0.108839095

model.0.bias f4 [8]
000000 70 0a e0 3d 3f c0 02 3e f7 d5 3c 3e b8 d5 2d be
       0.10939491 0.12768649 0.18440996 -0.16976058
000010 b3 9e 21 be a4 34 2c 3e 3a 11 9d 3e e4 88 99 3e
       -0.15783195 0.16816956 0.30677205 0.29987252

model.3.weight f4 [32, 8, 3, 3]
000000 df 8b 2c 3d c1 7c 21 3d 4d 49 09 3d 99 6e 8c 39
       0.04212558 0.039425615 0.03351717 0.00026785283
000010 c1 3e 5f 3d ca cb a6 bd af 45 a8 bc e6 6a 86 3d
       0.054503206 -0.081443384 -0.02054104 0.06563358
000020 b0 96 ed 3d 41 3e f1 3d 25 99 b7 bd cc 67 c6 bd
       0.11601007 0.11779452 -0.08964757 -0.096877664
000030 a1 17 fb 3d bf fc db 3d 1f c1 9c bd 54 76 40 3d
       0.12260366 0.10741567 -0.076540224 0.046987846
000040 95 84 ab 3d e6 f7 f7 3d 59 d4 43 bd 9b b6 6b bd
       0.083748974 0.1210783 -0.047809932 -0.057547193
000050 65 d9 b4 bd e3 63 82 bd 18 95 1a 3d 54 c4 8a 3d
       -0.08830527 -0.06366708 0.037739843 0.06775728
000060 99 f9 de bd 66 b0 cd bd 58 49 38 bd 08 3f 23 bd
       -0.10887451 -0.10043411 -0.04499182 -0.039855033
000070 bf 53 ea 3d 02 a6 85 bd ea 74 d4 3c a6 94 43 3d
       0.114417545 -0.06525804 0.025934655 0.047749184
000080 ae f3 db bc d2 30 a5 bd 7d e0 d0 3b d1 d3 37 3c
       -0.026849594 -0.08065952 0.0063744173 0.011219935
000090 65 b1 ce 3d d3 16 92 3d 74 dc ae bd 26 c0 aa bc
       0.10092429 0.071332596 -0.08538142 -0.020843577
0000a0 6e 14 07 bc 76 d9 eb 3d 9a 0b c3 bd ef a5 1c be
       -0.008244617 0.11516087 -0.09523697 -0.15297674
0000b0 ca 50 bd 3d 35 8d 7c 3d e4 0b f3 3d 42 17 c7 3d
       0.09243925 0.061658103 0.11867502 0.09721233
0000c0 a2 83 83 bd 18 59 ce bc bd 7b bb bd e5 6e 9f bd
       -0.06421591 -0.025188968 -0.091544606 -0.07784823
0000d0 e4 eb a7 bd cf 70 ed bb 79 27 ae 3d 52 44 3e bd
       -0.081992894 -0.007246114 0.085036226 -0.046451874
0000e0 28 4e 0b be 9e 6f 8b 3d 5f fe 97 3b 16 6a 1c be
       -0.13604033 0.06808399 0.0046384777 -0.15274844
0000f0 9e 02 c4 bd c1 59 54 3c 1c d7 84 3d b5 f9 de bd
       -0.09570812 0.012960852 0.06486341 -0.108874716
000100 35 7e 1e bd d4 76 1d 3e b7 dc 93 3d db ae ba bd
       -0.03869458 0.1537736 0.072198324 -0.09115382
000110 f8 f6 9a bd da 0e 48 3d ec d8 f3 3d 06 29 72 bc
       -0.07566637 0.04884229 0.11906609 -0.014780289
000120 9a 3e 39 bd fa 0e 2f 3d 65 96 08 be aa bb 97 bd
       -0.045225717 0.042738892 -0.13338621 -0.07408841
000130 86 28 77 3e 0c 13 1b 3e 30 10 dd 3d b2 8b 9b bd
       0.24136552 0.15143985 0.10794103 -0.07595004
000140 f0 03 d1 3c 42 15 5d 3d 4d 14 57 3d 41 cb d6 bd
       0.025514573 0.05397535 0.052509595 -0.10487986
000150 d4 6a 26 bc 40 4a cd 3d 7f cd 8a bc 00 4f 0b bd
       -0.010157306 0.10023928 -0.016943691 -0.034010887
000160 d8 62 b2 3c f4 b2 2d 3d ef e2 be 3d 21 89 6c bc
       0.021775648 0.04240699 0.09320628 -0.014436991
000170 56 75 da bd e6 a9 8f bc 77 56 18 be 4e b4 d4 bd
       -0.10666911 -0.017537069 -0.14876734 -0.10385953
000180 d8 f6 3e bc f4 e7 ab 3d fb 27 9e 3d 30 88 c9 bd
       -0.011655532 0.08393851 0.077224694 -0.09840429
000190 da 02 ba 3d 87 5c 1e be aa db 26 bd 3d 1f 7f 3d
       0.09082575 -0.15464984 -0.04073683 0.06228565
0001a0 90 14 c3 3d 7b 1e 3c bc e6 31 07 be 64 64 41 bd
       0.09525406 -0.0114818765 -0.13202628 -0.04721488
0001b0 16 73 97 3d b8 3f 4d 3e 69 19 15 bb 0d 17 f9 3b
       0.07394998 0.20043838 -0.0022750741 0.007601625
0001c0 32 db a0 bd e3 92 41 3e 91 ca 08 3e 7f 94 92 3d
       -0.07854308 0.18903689 0.13358523 0.0715723
0001d0 95 ff 31 3d 5b 15 85 3c a1 62 6a 3d fd 14 4a bd
       0.043456633 0.016245535 0.057222966 -0.049336422
0001e0 91 c9 06 bd 93 54 77 3c 37 2e 16 3d 4d 6f fd bc
       -0.032907072 0.015095848 0.036665168 -0.030936861
0001f0 9f de ec 3b 4f 1a 7d bd ff 7f b0 bc b5 1c a9 bc
       0.007228687 -0.061792668 -0.021545408 -0.020643571
000200 2e 6b 1f 3d 20 0f 8e 3c 0e 57 d3 3d 0b 93 1d 3d
       0.038920574 0.017341197 0.10319339 0.03847031
000210 50 2b 46 bb fd 20 c1 3d 53 e9 97 bd a7 ed 76 3e
       -0.0030238219 0.0943012 -0.0741755 0.24114095
000220 0a 6b 33 3e 9b 1e 62 3e 05 7a 3e 3e eb 72 5f 3d
       0.17521301 0.22081988 0.18601234 0.054552954
000230 1c bf a2 bd ae d8 23 3e 03 26 7d 3e f8 9a 56 3e
       -0.079466075 0.16000625 0.24721532 0.20957553
000240 91 42 09 3e 01 26 9b 3d d7 bd 0b 3e 88 e6 99 3c
       0.134043 0.07575608 0.13646637 0.018786684
000250 45 c5 e2 3b c6 bc b3 3d 48 05 17 3d 27 31 1f 3d
       0.006920489 0.0877624 0.03687027 0.038865235
000260 96 38 26 3e 54 38 c8 3d 77 68 d1 3c f3 87 08 be
       0.16232523 0.09776369 0.025562508 -0.1333311
000270 4b ec d3 3c 0f 8e 85 ba 62 1f 9d 3c 8e 8e 18 3b
       0.02586951 -0.0010189431 0.019180004 0.0023278329
000280 21 ba 92 3c 55 d8 83 3d 5c 79 17 3c 67 9f 68 3d
       0.017911019 0.064377464 0.009245243 0.056792643
000290 99 64 9c bb ca c7 8c bd ed 1f 08 be fa 73 c3 bd
       -0.0047727344 -0.06874044 -0.13293429 -0.09543605
0002a0 e2 bb 0e bd 58 18 6e 3d c4 6d a0 3c 16 e3 d4 3d
       -0.034847148 0.058128685 0.01958359 0.10394876
0002b0 32 bb 61 bd 61 a4 07 3d bd 73 0f bd a9 b0 8f bc
       -0.055110164 0.03311575 -0.035022486 -0.017540293
0002c0 41 92 79 bd 73 ce 81 bd e5 e4 59 3a 88 c4 87 3b
       -0.060930494 -0.06338205 0.0008312001 0.0041433014
0002d0 53 88 a5 3d bd 8c 26 3e 17 7c 82 be fd 1a dc bc
       0.080826424 0.16264625 -0.25485298 -0.026868338
0002e0 91 ce bf 3c be f6 d2 bd 7e 32 90 bd 3e 8a 12 3e
       0.023413928 -0.103009686 -0.070408806 0.14310548
0002f0 99 79 64 bd 12 96 a1 3a c7 e8 0b bd d0 03 e1 3d
       -0.055780027 0.001232805 -0.03415754 0.10987055
000300 79 6c e1 3d a7 da 89 bd e7 ab 20 bd 0a 34 09 be
       0.11007018 -0.06731158 -0.03922644 -0.13398758
000310 61 1e 84 bd 0e c2 24 3d a3 79 14 be e7 ae 1b bd
       -0.06451107 0.040224127 -0.14499526 -0.038008597
000320 88 36 73 bd 57 f8 a9 bb 38 76 4c bb 1d 87 6c 3d
       -0.059378177 -0.005187075 -0.0031198394 0.05774604
000330 64 e9 fb bd 91 a4 ee 3d 13 ca b7 bd 96 d9 45 3e
       -0.12300375 0.11652482 -0.089740895 0.19321284
000340 b7 47 84 bd 16 ca 85 bd 5d 0b 07 3d ed 27 c7 bd
       -0.06458991 -0.065326855 0.03296982 -0.09724412
000350 4d f2 92 bd b1 df 6d 3d 98 de e3 bd 29 aa ef bc
       -0.071751215 0.058074657 -0.11126441 -0.029255943
000360 26 44 68 3d 74 31 95 3d f6 76 9f bc 17 1e aa bd
       0.056705616 0.07284823 -0.019465905 -0.083065204
000370 4d 87 d6 bd 75 21 34 3d 9a 90 c3 bd f1 17 72 3d
       -0.10475025 0.04397722 -0.09549065 0.059104864
000380 8c 28 33 be a3 19 c7 bd 6c bd 2d be b4 36 f0 3d
       -0.17495936 -0.09721687 -0.1696679 0.11729184
000390 53 fc a1 bd f2 a3 6e bd 45 08 cf 3d 17 47 bf bd
       -0.07909455 -0.05826182 0.10108999 -0.09339731
0003a0 33 c7 c4 3d 10 75 9c bc ed a0 6e be 88 12 bb bc
       0.09608307 -0.019098788 -0.23303576 -0.022835985
0003b0 26 c1 51 3c fb 83 01 be a4 11 b7 3c 5b db 0f bd
       0.012802398 -0.12648003 0.022347279 -0.035121303
0003c0 c8 92 22 be 11 6c eb bd a6 b1 fe bc 03 fb 69 3d
       -0.15876305 -0.114952214 -0.031090569 0.05712415
0003d0 c2 4f b7 bd 1f 6f 9a bc 64 57 8a 3d 48 0e ef 3c
       -0.089507595 -0.018851815 0.0675495 0.029181615
0003e0 82 8a 0b 3e 7e de f8 bc f9 b4 e0 3d e4 6c 85 3c
       0.13627055 -0.03037953 0.10972018 0.016287275
0003f0 58 fb 95 bd 90 8b 78 bc 6f f5 01 be 0c 2b 11 be
       -0.07323331 -0.015169993 -0.12691282 -0.14176577

model.3.bias f4 [32]
000000 fb 7e 00 3e 02 0d 3c 3c d4 4c f2 3d 94 88 48 3d
       0.12548439 0.011477711 0.1183106 0.048958376
000010 ad b3 53 3d 16 3b 52 3c c4 c6 37 bd 87 b9 82 3d
       0.051685024 0.01283147 -0.044867292 0.06383043
000020 1d 31 cc bd 18 9a da 3d ae 20 9b bd 8e 34 96 bd
       -0.09970305 0.10673922 -0.075745925 -0.07334243
000030 c0 ab 47 3d cc e4 a8 bb 63 13 b7 3d fa fd 6a bd
       0.048747778 -0.005154228 0.089392446 -0.057371117
000040 13 8f 26 3d 1c 4e b6 bc 93 e2 ec bd 9a 2f 8c bd
       0.04066379 -0.022254042 -0.11566653 -0.06845017
000050 b5 c5 88 3d 7e 02 5d 3d 4a 84 5d 3d 3e d2 bc 3d
       0.066783346 0.053957455 0.05408124 0.09219788
000060 29 20 86 bd c5 c9 cf bd 0b b2 ca ba 43 9a 00 be
       -0.06549103 -0.10145906 -0.0015464438 -0.12558846
000070 16 2a 43 bc 6d a0 ca 3d 5e 4b 15 3d 28 94 e4 bc
       -0.01191189 0.0989388 0.03644883 -0.027902678

model.7.weight f4 [10, 32]
000000 c0 49 ab bd 11 b6 90 3c 6c 64 c6 3d 23 97 27 3b
       -0.08363676 0.017664941 0.09687123 0.0025572262
000010 60 65 8d 3c f6 ef 14 be ca 10 73 bc b9 c6 0b 3e
       0.017260253 -0.14544663 -0.014835546 0.13650025
000020 d0 40 a2 bd 9c 78 37 bc b2 99 5b 3e 3b 89 8b 3d
       -0.07922518 -0.011198189 0.21445349 0.06813284
000030 ae 36 10 be 8f 92 eb 3d a6 93 02 3d 9c 90 a2 3a
       -0.14083359 0.11502563 0.03187909 0.0012402716
000040 91 96 9a bd 2b 02 af 3d 1c 6c 85 3d 2c 8b 29 be
       -0.075482495 0.085453354 0.06514761 -0.16556996
000050 55 96 61 bd 12 36 a0 3d 43 98 18 be d0 fa 40 3e
       -0.05507501 0.07822813 -0.14901833 0.18845677
000060 ee 2c 8b bd 19 00 cf bd de 73 d5 bc 5d 61 47 3e
       -0.06795679 -0.101074405 -0.026056226 0.19470735
000070 7e 3c 30 3d 59 f6 93 bd 5e 2f 70 3b 27 28 45 be
       0.04302644 -0.072247215 0.0036649327 -0.19253598
000080 39 7c 8c 3d 23 2e 81 be 1b 17 88 bc fb 46 9b 3e
       0.06859631 -0.25230512 -0.01661258 0.3032759
000090 7d ce 2a be 34 03 1d be 31 d4 77 3d e3 f2 37 3e
       -0.16680332 -0.15333253 0.060505096 0.17963748
0000a0 b0 ae 2e 3e 01 15 36 3e 89 5a b7 3d 92 53 3a 3e
       0.17058825 0.1778145 0.08952815 0.18195942
0000b0 90 cd f3 bd 89 e9 b3 3d 0e ff d9 bd 55 fd 08 be
       -0.11904442 0.08784778 -0.10644351 -0.13377889
0000c0 64 57 54 bc 34 1e 25 bd a3 bb 68 3d 85 f3 c7 bd
       -0.012960289 -0.040312007 0.05681957 -0.097632445
0000d0 6a 48 35 3e 77 c6 c3 bd 32 56 1e bd 32 d4 84 39
       0.17703405 -0.095593385 -0.03865642 0.000253351
0000e0 0e 17 3d 3e 4a 09 0f 3c c2 d2 f4 bd 15 10 bd bd
       0.18465826 0.008730242 -0.11954261 -0.09231583
0000f0 10 18 16 be a5 d3 28 3e fa e6 23 3d 5a b1 84 3e
       -0.14657617 0.16486986 0.0400152 0.25916559
000100 f1 34 0a be 80 74 22 3e c2 bf 96 3c 2b 26 8c 3d
       -0.13496758 0.15864754 0.018401984 0.068432175
000110 76 a5 72 3b 18 cb ea bd 98 68 5e 3d 8c 14 01 3e
       0.0037024892 -0.11464518 0.054298967 0.12605494
000120 ce 1b d3 3d 2b 23 b5 bd 1d b6 4f bd 10 dc e7 3d
       0.10308038 -0.088445984 -0.050710786 0.113212705
000130 70 1f 46 3d 9a 2a e6 3d 27 72 0e 3e ed f5 c9 3d
       0.048369825 0.11238594 0.13910733 0.0986136
000140 71 31 49 3d 27 1c bc 3d be b4 5b bd 40 26 89 bc
       0.049119417 0.09185057 -0.053639166 -0.016741872
000150 fe 64 a5 bd 52 f8 a6 3d d0 08 63 bd 40 9f ca bd
       -0.08075903 0.08152832 -0.055428326 -0.09893656
000160 b0 82 05 be d9 08 ee 3d 6b 6c 03 3e 34 36 0c 3b
       -0.13038135 0.11622781 0.12834327 0.0021394612
000170 3a bb 14 3e b0 66 9b bc 7a bf b6 3d 93 a5 cc bd
       0.14524546 -0.018969864 0.0892324 -0.09992518
000180 82 3b 1d be 0c 2b 22 be aa d3 55 be af 93 10 be
       -0.15354732 -0.15836734 -0.20881525 -0.14118837
000190 97 f4 4a 3a 97 95 fc bd 21 2c e8 3d e8 cd ea 3d
       0.0007742135 -0.123332195 0.11336542 0.11465055
0001a0 64 80 d9 bd f5 82 4b be 8d 45 a6 bc b9 93 3a bd
       -0.10620192 -0.19874175 -0.020296836 -0.045551036
0001b0 9e 4a dd bd 1c d7 cb 3d f4 16 12 be 8d 47 a6 bc
       -0.10805248 0.09953138 -0.14266568 -0.02029779
0001c0 15 29 9a bc 8b c8 08 3e 43 41 f4 3d b0 f5 e8 3c
       -0.018818418 0.13357751 0.1192651 0.028437465
0001d0 d8 ea 1c 3d 0b 1a 11 be 09 ee 1b 3e 87 65 95 bd
       0.038309902 -0.14170091 0.15227522 -0.072947554
0001e0 f1 cf db 3d b5 9b aa bd 2f 11 f6 3c d9 bd f3 3d
       0.10733021 -0.0833048 0.03003749 0.11901445
0001f0 e3 ab c2 3c 8d 22 2b 3e 77 f7 15 3e 6b 7b 8d 3d
       0.023763603 0.16712399 0.14645182 0.06908306
000200 f6 15 e5 bd cd 1f fd 3c 7d 13 76 3e 8f 66 b2 bd
       -0.11185829 0.030898953 0.24030872 -0.08710968
000210 27 03 8f bc be a0 d0 bd 0f 9e 3c 3e 93 c1 bc 3b
       -0.017457558 -0.10186909 0.1841967 0.0057603805
000220 2c 4b 99 3d 6f 41 ab bd b4 09 3e 3e c3 4b 3f 3b
       0.07485041 -0.0836209 0.18558389 0.0029189445
000230 d8 a1 18 3e 25 97 f6 bd e0 d7 08 3e dc 80 05 3e
       0.14905488 -0.12040547 0.133636 0.13037437
000240 1f 1a b4 3c 67 73 de bd 4e 59 90 3c ea e3 0e be
       0.021985112 -0.10861855 0.017620709 -0.1395413
000250 16 be 19 bd a3 15 fc bd 48 a0 c5 3d 96 05 5e 3d
       -0.037534796 -0.123088144 0.09649712 0.054204546
000260 b6 55 80 bd 5d 20 56 3e 1e 16 07 3e af dd 6a be
       -0.06266348 0.20910783 0.13192031 -0.22936128
000270 fb a0 62 bd 8c 92 c0 bc 37 20 c2 bc 57 d1 e4 3d
       -0.055329304 -0.023507379 -0.023697002 0.11172741
000280 1e 58 eb 3d e5 f8 4b 3e 99 a3 b4 3d c2 c2 8b be
       0.114914164 0.19919164 0.08820266 -0.27297026
000290 f8 3c 04 3e a6 63 8a bd 21 19 8f 3b 2b 69 4e 3e
       0.12913883 -0.06757288 0.0043670093 0.20157306
0002a0 fe 35 4b bc bb 99 28 be fc a8 92 bd 2f 63 0b 3e
       -0.012403009 -0.16464894 -0.071611375 0.13612054
0002b0 ea ae 01 be ba c6 7b bd ab 39 3c 3e 0b 3f 3b 3e
       -0.1266438 -0.061468817 0.18381374 0.18285768
0002c0 9c 90 80 bb 58 98 0b 3e a2 b1 04 be 22 c9 4f 3e
       -0.003923489 0.13632333 -0.12958387 0.2029157
0002d0 30 e4 9e 3d 69 69 0d 3e 06 77 af bd 7f 7c 2d 3d
       0.07758367 0.13809742 -0.08567624 0.042355057
0002e0 1a 99 a7 bd 2c ea bb 3c c1 11 14 3e 16 7a 98 3c
       -0.08183499 0.02293881 0.14459898 0.018612903
0002f0 94 fe 17 be 18 c8 ec bd e2 8c b5 3d 2f d8 65 bd
       -0.14843208 -0.11561602 0.08864762 -0.056114372
000300 ba 28 8a 3b e0 97 97 bd e1 80 04 bc ba 1b cc 3d
       0.0042162808 -0.07402015 -0.008087368 0.09966226
000310 d7 93 fe bc b4 3d b0 3d 8a fd 5c be 40 26 fe bd
       -0.031076355 0.08605519 -0.21581092 -0.12409639
000320 a8 dc 19 3d b4 69 48 3e 09 e2 e5 bd cb 1a 23 3e
       0.03756395 0.19571573 -0.112247534 0.1592819
000330 e2 b9 cd bd f6 b8 ff bd e0 56 b7 3d 48 fc 88 bc
       -0.1004522 -0.124864504 0.08952117 -0.01672186
000340 59 41 c7 bd d8 f2 61 3d 4f 58 ff 3d a0 0d e0 3c
       -0.09729261 0.055163234 0.124680154 0.027350247
000350 42 00 0d be 2f 1f 53 bc d6 4e 8f bd 75 36 25 3e
       -0.1376963 -0.012885853 -0.06997459 0.16134055
000360 87 cf 26 bc 45 fa f7 3c cc f6 f6 bd 3d f5 57 bd
       -0.010181314 0.030270705 -0.120587915 -0.05272411
000370 dc 1a de 3d 52 e0 09 be ac 19 12 bd b0 6b d2 bc
       0.10844967 -0.13464478 -0.035669014 -0.025686115
000380 10 38 95 bd 8a 92 1e be 3d 13 68 3e 85 96 af bc
       -0.07286084 -0.15485588 0.22663589 -0.021434078
000390 e8 c3 49 3e 06 7c 8b bd 54 fc 42 be c6 db 2a be
       0.19703639 -0.06810765 -0.19041568 -0.166854
0003a0 6e f2 f5 3c 7e a9 10 3d 58 c4 61 3e 17 08 5c 3d
       0.030022826 0.03531789 0.22047555 0.053718653
0003b0 79 59 4e be f8 ee 15 bd 20 51 bf bd 00 50 b4 bd
       -0.20151319 -0.03660485 -0.09341645 -0.08804321
0003c0 a8 c3 e0 bd 5e 40 3b 3d 7a ba 9e bd 4e f1 aa bc
       -0.109748185 0.045715682 -0.07750411 -0.020867016
0003d0 9e 3f e3 bd 9a 97 16 3e e9 fc 9c 3c 33 3c 5c 3d
       -0.110961184 0.14706269 0.019163566 0.053768348
0003e0 ee b7 16 3c a4 4b 46 3e 54 3b 74 bc 16 61 d0 3c
       0.009199126 0.19364792 -0.014906723 0.02543692
0003f0 fc e9 04 bd 83 0d ba 3d 35 b6 8d 3d ae 82 90 3d
       -0.032449707 0.090846084 0.06919519 0.07056175

model.7.bias f4 [10]
000000 c1 cd fc bd e2 3a a4 3d 60 77 a0 3c e7 64 7c bc
       -0.12343932 0.080190435 0.019588172 -0.015404916
000010 32 10 0f 3e 6e ad d5 3d 65 65 25 bd fc 36 81 bd
       0.13971022 0.1043347 -0.0403799 -0.063093156
000020 67 9e 1d 3e 97 6f e5 3d
       0.15392457 0.11202925

exp_avg f4 [8, 1, 3, 3]
000000 4b 38 05 bb 25 90 93 39 bc 6a 06 37 b6 57 0e bb
       -0.0020327743 0.0002814542 8.011873e-06 -0.002171976
000010 76 84 40 3a fc 39 7a 3a a2 1c 91 bb 1c 68 31 bb
       0.0007343957 0.00095453835 -0.004428462 -0.002707011
000020 ea 28 8b b9 66 20 44 bb 46 f8 59 bb af 37 00 bb
       -0.0002654263 -0.0029926538 -0.0033259555 -0.001956444
000030 c6 06 46 bb 3e 69 75 bb b8 f8 71 bb bf 84 bf b9
       -0.003021644 -0.0037446762 -0.003692193 -0.00036529262
000040 5f d6 0b bb f5 6a 1c bb 29 b2 08 bb 85 c4 59 bb
       -0.0021337492 -0.0023867462 -0.0020858145 -0.0033228707
000050 71 a2 15 bb 0b bb 0d bb 23 35 ee ba 84 d6 12 ba
       -0.0022832418 -0.002162638 -0.0018173795 -0.00056014233
000060 99 81 1e bb 5a ef 7d ba 1f 3d c4 3a 89 e7 1e bb
       -0.0024186133 -0.000968685 0.0014971829 -0.0024246892
000070 7e 7b 06 bb ec f9 5d bb 99 a3 05 bb 68 00 51 bb
       -0.0020520384 -0.003387089 -0.0020391701 -0.0031891111
000080 74 a9 73 bb bc db 6c bb 2b 63 7a bb 37 ee 50 bb
       -0.003717986 -0.0036141714 -0.0038206081 -0.0031880268
000090 f2 73 19 3a 31 09 87 ba 5c 2c 1c ba 23 bb f4 ba
       0.0005853764 -0.0010302422 -0.0005957538 -0.0018671494
0000a0 33 87 03 bb 0a 74 04 ba 14 c9 23 bb a1 d7 94 ba
       -0.0020069599 -0.00050526916 -0.0024991678 -0.0011355766
0000b0 49 2f 1a 3b 74 55 0d bb eb bb 8d ba 3c 47 d5 ba
       0.002352672 -0.0021565827 -0.001081345 -0.001627184
0000c0 61 af b3 ba 61 52 aa ba 9b d7 47 bb 1d a4 0b bb
       -0.0013708883 -0.0012994522 -0.00304935 -0.0021307536
0000d0 e3 e6 30 bb 98 e9 4b bb 27 04 d3 b8 3f 2f eb 3a
       -0.0026993088 -0.0031114575 -0.000100620375 0.0017943158
0000e0 06 18 21 3b 52 f2 9f ba 7a a6 c0 ba be 5b 32 b9
       0.002458097 -0.0012202954 -0.0014698051 -0.0001700958
0000f0 a0 a6 8c ba 17 3f 2f bb 1c ac 0d bb 51 05 ae 39
       -0.001073081 -0.0026740485 -0.0021617478 0.00033191827
000100 d0 e6 31 bb eb a0 d6 bb 1c 41 83 3a ef 1c 2e ba
       -0.0027145632 -0.0065499446 0.0010013911 -0.00066418847
000110 6e ff a5 bb f0 c7 90 3a 4b ac de 39 19 76 61 b9
       -0.00506585 0.0011045914 0.00042471508 -0.00021501667

exp_avg_sq f4 [8, 1, 3, 3]
000000 4e 4f e4 3b 4f 7b 7f 39 ba d7 1c 37 14 c0 d8 3b
       0.0069674617 0.00024364631 9.348552e-06 0.0066146944
000010 78 c7 a4 3a 1e 15 9a 3a b4 35 8c 3c e2 b1 47 3c
       0.0012571653 0.0011755561 0.017115451 0.012188407
000020 2c 8a 28 3c 0d c1 97 3d 2d 65 94 3d 4c 4b 3c 3d
       0.010286849 0.074098684 0.0724586 0.045970246
000030 d8 83 c5 3d 13 62 c5 3d 6c 6f a8 3d 86 9b 8c 3d
       0.09644288 0.09637847 0.08224377 0.06865601
000040 1d b4 a1 3d 34 fa 90 3d ac 19 4b 3e d9 59 88 3e
       0.07895682 0.070789725 0.19834012 0.26631048
000050 5b 8a 45 3e 4d 9b 62 3e c0 02 60 3e 3a 1c 06 3e
       0.1929106 0.22129555 0.21876049 0.13096705
000060 9a 3a 31 3e ca d3 d7 3d 6c 96 0f 3d 60 5d a0 3d
       0.17307511 0.105384424 0.035055563 0.0783031
000070 c9 41 d5 3d 12 44 10 3e b6 57 e9 3d 0f 59 38 3e
       0.10412938 0.14088467 0.11393683 0.18002723
000080 23 83 61 3e c3 e6 29 3e bc 90 61 3e 86 4c 4e 3e
       0.22022681 0.16591935 0.22027868 0.20146379
000090 35 1f f1 3b ad 44 5e 3c 9e 37 23 3c d4 22 09 3d
       0.0073584565 0.013566178 0.009961991 0.03348048
0000a0 e5 6c 13 3d b3 f1 9f 3c da f7 87 3d 00 7d 27 3d
       0.03599252 0.01952443 0.06639071 0.040890694
0000b0 05 2e 97 3c 71 9e c5 3d d6 5d 83 3d 09 43 cd 3d
       0.018454561 0.09649361 0.06414382 0.100225516
0000c0 09 d0 af 3d 50 6e 97 3d cc 85 d1 3d d1 ba 94 3d
       0.085846014 0.07394087 0.10230598 0.07262195
0000d0 7f 92 b9 3d db 62 b5 3d 36 22 15 3b 69 be 98 3b
       0.09061145 0.08856746 0.0022755987 0.0046613705
0000e0 45 d1 d1 3b e3 bd ac 3b 3e f8 6c 3c ac 6a 4e 3c
       0.0064031207 0.0052716597 0.014463482 0.012598675
0000f0 2a ae 81 3c e1 6d e0 3c b6 de b6 3c 7e dc 13 3c
       0.015830118 0.027396144 0.022322994 0.009024737
000100 77 a2 b6 3b f7 94 8b 3c 7a 19 08 3a 68 86 25 3a
       0.0055735665 0.017038805 0.00051917846 0.00063142786
000110 96 5a f3 3b ad 40 89 39 f4 3b 6c 39 06 d9 61 3b
       0.00742657 0.00026178863 0.00022529048 0.0034461631

exp_avg f4 [8]
000000 fc cc 24 b8 a3 a7 e8 b7 66 14 54 37 62 12 b7 b6
       -3.9291554e-05 -2.7734617e-05 1.2640934e-05 -5.455965e-06
000010 83 ef 43 b7 b8 31 76 37 21 b4 4f 37 02 79 83 34
       -1.1678671e-05 1.4674319e-05 1.2380101e-05 2.4488696e-07

exp_avg_sq f4 [8]
000000 32 c7 99 37 5f 39 32 37 7a 42 03 38 12 11 07 37
       1.8331779e-05 1.06229845e-05 3.1294745e-05 8.0506015e-06
000010 1f f8 b5 35 4a ab 06 38 8a 59 e0 36 26 98 0c 37
       1.3557764e-06 3.2107615e-05 6.686144e-06 8.380075e-06

exp_avg f4 [32, 8, 3, 3]
000000 bd e2 1d ba ea 00 ad 39 57 89 1d 3a e6 14 6a 39
       -0.00060228613 0.00032997812 0.000600954 0.00022323764
000010 1a 9c 08 39 0a 92 08 39 cb 1c bf 39 72 2c 88 39
       0.00013028123 0.00013024374 0.0003645181 0.00025973056
000020 5d 3d f5 b9 67 c7 06 ba b5 7b 45 3a 92 d4 b6 b9
       -0.0004677576 -0.00051414076 0.00075333874 -0.00034872122
000030 49 4e c7 b9 6f c5 46 ba e3 ec 1d 3a ab 59 ab 39
       -0.00038014565 -0.00075825205 0.00060243736 0.0003268247
000040 60 d6 88 ba b4 3b 18 ba da 0e aa 3a ca 6f cc 39
       -0.0010439865 -0.00058072363 0.0012974397 0.000389932
000050 ef 26 23 ba 4b fa 78 39 76 5d 49 ba 4e e9 4a ba
       -0.0006223758 0.00023744364 -0.0007681468 -0.00077404536
000060 8f 41 80 b7 14 c8 4d 39 cb c2 1a 3a d4 b2 19 3a
       -1.5289317e-05 0.00019624858 0.000590366 0.0005863134
000070 9a 54 3e b8 15 c1 90 b9 f5 46 13 3a d1 9f 3c b9
       -4.537832e-05 -0.00027609678 0.00056181784 -0.00017988613
000080 c8 7c f9 39 64 1c 4e 3a 15 cc 92 b8 4b d2 b3 b8
       0.0004758595 0.0007862507 -6.999836e-05 -8.574555e-05
000090 ca a6 45 3a 42 81 70 b8 ee 9f 73 b9 84 88 c5 39
       0.0007539807 -5.734084e-05 -0.00023233864 0.0003767648
0000a0 77 6f 9d b9 ae 65 5a b9 44 a7 50 b9 bd 1b 39 3a
       -0.0003002842 -0.00020827979 -0.00019898737 0.0007061323
0000b0 cb 42 f2 b8 5f b0 a7 38 f3 10 6c b9 10 fd a3 b9
       -0.000115519004 7.996032e-05 -0.00022513028 -0.0003127833
0000c0 5c ad 83 39 0d cc 6b b9 a0 95 1a 39 e3 77 69 39
       0.0002511543 -0.00022487361 0.00014742324 0.00022265273
0000d0 d9 4e e9 b8 4d 29 9c b7 fc b7 b8 b9 d4 c3 ac b9
       -0.00011124992 -1.8615881e-05 -0.00035232294 -0.000329523
0000e0 88 5f 2e b8 e3 df 11 35 87 f7 76 b9 5a 7c 60 39
       -4.1573803e-05 5.434251e-07 -0.000235526 0.00021408629
0000f0 de da 28 3a 72 f3 aa 38 3f 63 3e ba 78 18 31 3a
       0.0006441305 8.151577e-05 -0.00072627136 0.000675566
000100 c9 8f 3c 39 38 a7 74 b9 1e 0e 24 ba d2 35 93 39
       0.00017982641 -0.00023331947 -0.0006258207 0.00028078124
000110 21 e1 ce b8 e8 8c ae 39 a5 0f 39 b9 53 39 64 3a
       -9.864779e-05 0.0003329285 -0.00017648803 0.0008706052
000120 9a 0c 9e 39 d5 23 e8 38 1f 26 10 39 50 7b a0 38
       0.00030145497 0.00011069296 0.00013747111 7.652363e-05
000130 46 d8 0a ba fd 42 36 ba 88 f1 e4 b9 a7 21 4b 39
       -0.00052965095 -0.0006952731 -0.00043667504 0.00019372125
000140 f4 b5 a0 39 36 40 b9 b9 0b 63 10 ba 83 ab 99 39
       0.00030653144 -0.0003533379 -0.00055079226 0.0002931022
000150 c9 f5 8e 38 73 88 b8 b8 04 b6 f6 38 e2 6e 46 3a
       6.816869e-05 -8.799219e-05 0.00011764097 0.00075696234
000160 60 8d 0f ba 4d 5e fa b9 7b 8e 10 ba 78 2c 40 ba
       -0.00054760836 -0.00047753975 -0.00055143953 -0.0007330845
000170 5a ba 3a 39 04 a5 6f b8 6c 6d 9f 3a c4 a9 3f 3a
       0.00017807764 -5.7135723e-05 0.0012163348 0.0007311369
000180 f5 c1 2c 39 a8 b1 d1 b9 2f 24 e7 b9 57 e9 af b9
       0.00016475453 -0.0003999595 -0.00044086712 -0.00033552453
000190 1f 0f 33 3a 29 0a 6e 3a 06 02 4b 3a b9 c1 24 39
       0.00068305613 0.00090804935 0.0007744137 0.00015712426
0001a0 c1 9e 23 ba 4f fb 9e 39 a1 55 19 3a 06 83 00 3a
       -0.0006241613 0.00030323348 0.00058492465 0.00049023365
0001b0 2b 59 ec b9 80 1f 99 b9 07 e1 4f 38 f1 49 bf b8
       -0.00045079863 -0.00029205903 4.956222e-05 -9.1213624e-05
0001c0 70 33 5e 39 94 86 c8 b9 f4 b4 43 b9 13 ba e2 38
       0.00021190732 -0.0003824724 -0.0001866406 0.00010811179
0001d0 f8 6b a3 b9 86 9f 74 b9 c7 9c 7d 39 d2 df 10 3a
       -0.00031170226 -0.0002332908 0.00024186364 0.0005526516
0001e0 8e 82 d9 39 ca b7 ee 38 0d d4 88 b9 47 af 6f 39
       0.00041486736 0.00011382958 -0.00026097932 0.00022858112
0001f0 c1 7b 9c 39 87 7c 8b 39 fa 8b 84 b9 d0 77 b5 39
       0.00029846843 0.00026604926 -0.00025281293 0.00034612278
000200 0d e8 c0 b8 8a 77 1b b9 03 63 24 ba 13 97 53 ba
       -9.198496e-05 -0.00014826484 -0.00062708574 -0.0008071523
000210 0e e2 c3 b9 1e 2a b4 b9 80 58 59 38 9b c9 a0 b9
       -0.00037361722 -0.00034363655 5.1819254e-05 -0.00030667786
000220 7b e2 d9 b9 19 fc 55 b9 e8 f0 dd b8 65 f2 52 b9
       -0.00041558206 -0.00020407177 -0.000105829735 -0.0002011746
000230 7e c5 40 39 76 da 13 b9 11 6d 80 ba f3 34 c0 b9
       0.00018384118 -0.00014100395 -0.0009798129 -0.00036660544
000240 21 e7 9e b9 6c 7d 66 b9 ef 2b 5e 38 84 33 8a b9
       -0.00030308313 -0.00021981233 5.296984e-05 -0.00026359793
000250 33 b6 3c b9 a9 35 33 b8 75 31 bf b8 04 1a d6 b9
       -0.00017996952 -4.27269e-05 -9.116802e-05 -0.00040836644
000260 f2 c2 28 ba a6 68 14 ba 32 4d a5 b9 da 6f b1 39
       -0.00064377405 -0.0005661346 -0.00031528767 0.00033843407
000270 5c 30 54 b9 fe 1c 13 b9 8b 9f 0a 39 21 7b 12 3a
       -0.00020235911 -0.00014029813 0.0001322014 0.00055878056
000280 26 bd da 38 35 c9 4c 39 ff 25 45 ba af c9 f4 b9
       0.00010430282 0.00019529912 -0.00075206155 -0.00046689573
000290 9a b8 fa 39 60 d7 bf 38 c6 cb c2 39 16 04 92 b7
       0.00047821255 9.1477064e-05 0.00037154387 -1.7406459e-05
0002a0 0b 9a 69 3a b7 b1 43 39 2e 94 95 b9 72 4e 30 ba
       0.0008911199 0.00018662853 -0.00028529897 -0.00067255564
0002b0 e1 50 5e 39 1d a4 c5 38 8a 1b 61 39 a2 1e 9e 39
       0.000212017 9.4242605e-05 0.00021467931 0.00030158932
0002c0 ef 67 79 39 7f 9a 97 39 b7 44 17 b9 77 99 6f ba
       0.00023785209 0.00028916073 -0.0001442608 -0.00091399945
0002d0 57 04 41 b9 18 c1 60 b9 e2 d1 3f 39 30 7c c4 39
       -0.00018407531 -0.00021434238 0.00018293367 0.0003747656
0002e0 6c 8e 81 38 ba 8b c3 b8 4f 84 87 39 c0 e9 88 b9
       6.1777275e-05 -9.324351e-05 0.00025847784 -0.000261141
0002f0 ae 1a 68 b9 f2 23 b4 b9 75 06 04 39 1e f0 61 38
       -0.00022135183 -0.00034359057 0.00012590906 5.3867807e-05
000300 09 ff f0 38 a9 3b 8e 38 be f1 6f 39 10 f6 57 39
       0.00011491596 6.7822e-05 0.00022882872 0.00020595663
000310 c4 36 13 b9 d2 78 99 b9 1d 28 fd 39 32 d9 f0 37
       -0.00014039414 -0.00029272452 0.00048285807 2.8711369e-05
000320 09 f4 a9 38 7b fa a9 39 db 45 35 39 45 76 0f 39
       8.104003e-05 0.00032420814 0.00017287528 0.00013681602
000330 21 8d b5 39 58 5a 16 b9 6a 0e f7 b8 0b a0 c8 b9
       0.0003462816 -0.0001433877 -0.000117805626 -0.00038266214
000340 5f 57 9a 38 6a 85 ad 37 7c 90 21 b9 b9 a8 6a 39
       7.3595664e-05 2.0685333e-05 -0.00015407981 0.00022378833
000350 ac 15 de 38 6d db 6a b9 fa 98 34 39 61 b6 05 b8
       0.000105898216 -0.00022397721 0.00017223126 -3.1879525e-05
000360 1a 33 96 b7 37 c8 fa 37 b9 3f db 39 b0 09 b8 37
       -1.790519e-05 2.9895555e-05 0.00041818412 2.193902e-05
000370 af 54 e5 38 7d 07 9f 39 80 1c 45 38 62 28 58 39
       0.000109353445 0.00030332422 4.6995003e-05 0.00020614409
000380 80 71 2f 3a 51 89 8c b9 a5 da d0 37 d2 ad 6c ba
       0.0006692633 -0.0002680519 2.4897347e-05 -0.0009028587
000390 f5 6d 56 39 1f c5 e2 38 17 13 5e ba 9f bb 75 39
       0.00020449593 0.000108132364 -0.00084714725 0.00023434915
0003a0 68 73 a5 b9 98 ab 60 ba e5 03 7d 38 58 e7 3d ba
       -0.00031557237 -0.00085704913 6.0323528e-05 -0.0007244251
0003b0 58 0d 8f ba ab bb 68 38 1f ef 3f 39 cf e7 64 b9
       -0.0010914011 5.548789e-05 0.00018304259 -0.0002183013
0003c0 1f 13 bf 39 4e f6 9a 39 af 1c b5 ba 7a ac c8 38
       0.00036444605 0.0002955668 -0.0013817752 9.5688694e-05
0003d0 ef 2e c5 37 76 fa a6 ba 80 be 8d 39 1f e9 ce 38
       2.3506085e-05 -0.0012739438 0.0002703555 9.866268e-05
0003e0 6d ab fb ba 0c c9 d4 39 83 c6 90 b9 ff 09 b1 ba
       -0.0019200869 0.00040585583 -0.00027613723 -0.0013507007
0003f0 38 05 00 00 6b 7b f7 b7 1f 29 72 39 dd 63 fd 36
       1.872e-42 -2.9502165e-05 0.00023094237 7.551613e-06

exp_avg_sq f4 [32, 8, 3, 3]
000000 8d 8e 84 3b 98 65 c2 3b c6 ef 21 3b f1 8a fd 39
       0.0040453137 0.005932521 0.0024709566 0.0004835944
000010 1a bf 1b 3b ff ad 1f 3b c3 a0 c1 39 9b 01 8f 3a
       0.0023765028 0.0024365184 0.00036931605 0.0010910513
000020 ee 06 77 3b 90 4e dd 3d eb f2 6e 3d 5f a8 fb 3c
       0.003769334 0.10806 0.058337133 0.030719934
000030 62 91 ed 3d ac 57 d0 3d 88 63 4a 3d 76 46 2e 3d
       0.11599995 0.10172972 0.049411327 0.042547666
000040 66 4c 96 3d 3c ce 9e 3d 59 ea f6 3d ef ac ae 3d
       0.073387906 0.0775418 0.12056417 0.08529078
000050 b6 fb 58 3d 3b 6a 1a 3e 2d b8 ea 3d f2 43 9e 3d
       0.052974425 0.15079586 0.1146091 0.07727803
000060 c6 31 9a 3d 00 45 a9 3d fa cf a3 3d b0 9e 46 3e
       0.07529025 0.08265114 0.07998653 0.19396472
000070 e9 99 15 3e 4a e3 9e 3d c3 c2 16 3e 29 02 18 3e
       0.14609493 0.07758196 0.14722733 0.14844574
000080 62 fc c4 3d a8 27 85 3d 05 d4 ee 3d 81 8a 14 3e
       0.09618451 0.065017045 0.11661533 0.1450596
000090 52 a0 26 3c 67 e1 15 3c a2 d8 af 3b d5 28 63 3b
       0.010170059 0.009147978 0.005366401 0.003466179
0000a0 73 ec 8d 3b 02 4f bd 3b 9c e3 64 3a 16 5a 01 3b
       0.0043311655 0.0057772407 0.0008731426 0.0019737533
0000b0 93 53 b6 3b 56 0a 35 3d da 4a 02 3d a2 d7 8f 3c
       0.005564162 0.04419931 0.031809665 0.017558876
0000c0 2c f4 0f 3d 6f c9 0e 3d 39 eb b4 3c da 8e 88 3c
       0.03514497 0.03486007 0.02208482 0.01666968
0000d0 b2 b1 e4 3c 8e c5 08 3d 2f a2 55 3c f4 1d f1 3b
       0.027916763 0.033391528 0.013039156 0.007358307
0000e0 a7 11 49 3b 7d b1 ba 3b 85 34 dc 3b 67 6e 84 3b
       0.0030680688 0.005697428 0.006720128 0.0040414813
0000f0 ca 2a fd 3a 2d 0d c4 3b 4f 41 17 3c 40 0d 5e 39
       0.001931512 0.005983016 0.009231879 0.00021176506
000100 c5 8f a5 38 78 3d fc 38 c2 bd f7 3a ba 08 b1 39
       7.894592e-05 0.00012027746 0.0018901157 0.00033766573
000110 92 d8 c8 38 d7 04 14 3b 8d 34 c7 3a ec 11 f6 39
       9.5770825e-05 0.0022585893 0.0015198156 0.0004693413
000120 6b 1b 79 38 fd d4 4c 39 c5 0e 1d 39 68 71 92 38
       5.939176e-05 0.000195343 0.00014978189 6.982946e-05
000130 c1 2b cc 39 8d 7f 31 3a 21 8f f1 39 e1 65 f4 37
       0.0003894251 0.00067710207 0.0004607374 2.9134508e-05
000140 4a 5c 35 38 a9 f6 ac 3b 72 12 2f 3b 85 f8 54 3a
       4.3239714e-05 0.0052784276 0.0026713875 0.00081241905
000150 19 86 72 3b 04 c8 b4 3b e1 af 65 3b e4 62 45 3b
       0.0037006198 0.005517008 0.003504746 0.0030118758
000160 3f d3 a1 3b 8d 60 aa 3b 10 21 02 3c 9e d0 70 3b
       0.0049385126 0.005199498 0.007942453 0.003674544
000170 68 e8 c3 3a 17 f1 80 3b fe 6f 91 3b b2 8e 91 3b
       0.0014946582 0.00393499 0.0044383993 0.0044420594
000180 92 45 ca 3b c1 82 1b 3c e4 0e 14 3c 5a 3b e1 3b
       0.006172844 0.009491623 0.009036753 0.0068735303
000190 e2 3d bc 3b 0c d1 67 3b c1 a8 e5 3b cf 91 29 3c
       0.0057446817 0.0035372404 0.0070086424 0.010349705
0001a0 0d cf 26 3c c9 b2 08 3c 8c 27 03 3c 01 1b ee 3b
       0.010181201 0.008343407 0.008005034 0.0072664027
0001b0 8a 6f 46 39 f3 a6 7e 39 10 91 1b 39 6c 8e 12 39
       0.00018924303 0.00024285521 0.00014835992 0.00013976701
0001c0 67 b0 94 39 7a dc 47 3a c5 40 2f 3a d4 25 c3 39
       0.0002836019 0.0007624101 0.00066853716 0.00037221482
0001d0 89 ff 5d 39 83 85 d3 3a 41 3c a9 3a e0 cf 47 3a
       0.00021171397 0.0016137812 0.0012911634 0.00076222233
0001e0 a5 42 d0 3a 22 dc 17 3b d8 80 0a 3b ec 44 f9 3a
       0.0015889002 0.002317198 0.0021133926 0.0019017733
0001f0 27 88 00 3b e9 46 e6 3a bb 9c a4 39 ee 42 06 3a
       0.0019612403 0.001756874 0.0003139729 0.00051216676
000200 e1 eb 44 39 b8 59 c8 39 e9 96 9c 3a 7b 10 4d 3a
       0.00018779888 0.00038213818 0.001194683 0.0007822585
000210 bf 02 ac 39 c4 0a b9 39 90 bd e0 38 6f fb df 38
       0.00032808442 0.0003529397 0.00010716461 0.00010680302
000220 be ae 9b 37 02 36 a6 37 f9 2c 1c 39 ba eb eb 37
       1.855881e-05 1.9813891e-05 0.00014894073 2.8123952e-05
000230 97 14 b7 36 98 ce 2c 39 ab 3e 7c 39 ce 81 22 39
       5.456222e-06 0.0001648016 0.00024055938 0.0001549788
000240 36 10 8d 3a bb 8b 7a 39 2f 6a 0f 38 6d 4a 20 3a
       0.0010762278 0.00023893912 3.4192748e-05 0.0006114606
000250 8e 7d 3d 3a ba 77 bd 39 cc 1f 93 39 d0 9d ec 39
       0.0007228487 0.00036138092 0.00028061715 0.00045131007
000260 d2 fc 10 3a 3d 31 fa 3c ff d7 08 3c 79 fb e0 3a
       0.0005530837 0.030541057 0.008352279 0.0017164788
000270 c8 56 80 3c a8 37 13 3b e4 82 13 3a 7b 94 3b 3c
       0.01566638 0.0022463594 0.0005627109 0.011448975
000280 a7 f5 06 3c 87 bc f9 3b 01 9a 8b 3d 42 2a 9a 3c
       0.008237279 0.007621351 0.06816483 0.018818978
000290 65 5b ad 3b d3 4f a3 3c 70 a9 13 3b f7 b7 0f 3a
       0.005290436 0.019935524 0.0022531413 0.000548243
0002a0 e2 47 3f 3c 15 b0 ee 3b fb 39 b6 3b e7 3c 37 3d
       0.011674853 0.007284174 0.005561111 0.044735815
0002b0 3d 37 fd 3b d5 c2 19 3b 68 86 a9 3c 0c d6 d1 3b
       0.007727532 0.0023462076 0.020693973 0.00640369
0002c0 8f a3 5a 3b c7 62 8c 3c 2b c8 63 3c 6f fc 8c 3c
       0.0033361649 0.017136944 0.013902704 0.017210213
0002d0 b5 bf 0a 3b 9c 3b 6e 39 01 a7 cf 36 92 e8 2b 3a
       0.0021171395 0.00022719655 6.1885225e-06 0.0006557788
0002e0 9b 33 ce 39 22 3d 9b 39 a7 c1 e5 39 69 f1 76 3a
       0.0003932983 0.0002960945 0.00043822566 0.0009420128
0002f0 16 72 49 3a 70 33 29 3c c9 e0 f4 3a fc 71 40 3a
       0.00076845416 0.010327205 0.0018682714 0.0007341204
000300 8f f9 8f 3b 47 5e a4 3a dd 63 18 3a d3 8c 66 3b
       0.0043937634 0.0012540304 0.00058132206 0.0035179153
000310 f8 b1 38 3b f4 23 81 3b 0d 2d 36 3a f7 45 61 38
       0.002818225 0.0039410535 0.0006949462 5.370934e-05
000320 fa e5 33 37 64 83 9c 3a 8d ab 2d 3a 44 67 e9 39
       1.0722777e-05 0.0011941013 0.00066249893 0.00044518162
000330 12 06 6d 3a de fd bf 3a b6 43 9a 3a 7c b8 e7 39
       0.0009041737 0.0014647802 0.0011769447 0.00044197205
000340 df e8 43 39 6b e8 c2 39 69 f1 b5 38 1d f4 b8 37
       0.000186834 0.00037175728 8.675719e-05 2.2048183e-05
000350 bb da 01 38 a2 c3 da 38 81 78 17 38 f7 17 e5 37
       3.0959705e-05 0.000104314895 3.6113433e-05 2.7310087e-05
000360 fc 0a dc 37 37 bf 05 38 d6 35 41 39 b5 26 47 37
       2.6231159e-05 3.1887754e-05 0.0001842597 1.18703365e-05
000370 04 97 4a 38 03 6e d4 39 45 14 17 38 23 42 67 39
       4.8301197e-05 0.00040517756 3.6020083e-05 0.00022054515
000380 c9 6c b0 39 80 ba 19 39 4a 56 76 39 a9 10 7d 3b
       0.00033650387 0.00014660694 0.00023492533 0.0038614667
000390 9f cb a4 39 6a 19 96 3a 08 7f 2a 3c 7e c1 ec 39
       0.00031432227 0.0011451666 0.010406263 0.0004515759
0003a0 d4 07 84 3b a5 0f 50 3c 86 7c 47 39 7b 7c 23 39
       0.0040292535 0.012699042 0.00019024507 0.00015591264
0003b0 ea 5b f2 3a 0c f4 08 39 de 5e 5c 3a 29 7f fa 3b
       0.0018490527 0.00013060885 0.00084064703 0.007644553
0003c0 71 a8 f1 39 9d b0 13 3b 8a 15 c9 3c ee d8 ec 39
       0.000460926 0.002253569 0.024546403 0.00045175053
0003d0 7a 00 2d 3a 43 e9 21 3c 62 b1 21 3a 52 b2 36 3b
       0.0006599497 0.009882274 0.00061680947 0.0027877283
0003e0 d8 bb de 3c a4 1b c3 3a 46 bb 57 3c 5d 6f 10 3d
       0.02718918 0.0014885557 0.013167208 0.035262454
0003f0 f3 c0 01 37 e8 71 d1 37 86 6d 08 39 7c f3 6f 37
       7.733924e-06 2.4967783e-05 0.00013010771 1.4302201e-05

exp_avg f4 [32]
000000 b2 c6 33 b8 f9 15 be 37 ef dd 16 37 0d c1 a2 b6
       -4.2861975e-05 2.2659997e-05 8.99237e-06 -4.8504503e-06
000010 a1 7a 6c b7 73 44 0e b6 f3 7f 85 36 c8 b9 5d b7
       -1.4095248e-05 -2.1199492e-06 3.978604e-06 -1.3215882e-05
000020 79 ed be b5 30 c8 5e b7 1a d1 51 b6 82 d6 33 34
       -1.4225217e-06 -1.3278841e-05 -3.126514e-06 1.6748712e-07
000030 97 d6 0d 36 00 15 34 b5 eb 03 96 37 5e b6 fc 36
       2.1135545e-06 -6.7085784e-07 1.7883218e-05 7.5314156e-06
000040 36 51 dd 36 12 04 19 b3 21 2f f0 36 fc 99 a9 b6
       6.5957674e-06 -3.562679e-08 7.158044e-06 -5.0545186e-06
000050 bc c2 1d b8 9f f8 05 b6 13 e9 29 b6 aa 86 67 b6
       -3.7613077e-05 -1.996326e-06 -2.531863e-06 -3.4500067e-06
000060 f7 33 2c 35 a6 ba 55 b7 e5 5e 94 35 0d e0 30 b6
       6.415061e-07 -1.2739247e-05 1.1054477e-06 -2.6356458e-06
000070 d3 56 2d 38 ec fe 2d b7 2f 75 bd b6 7c df 02 b8
       4.1327276e-05 -1.0370957e-05 -5.646281e-06 -3.120255e-05

exp_avg_sq f4 [32]
000000 8e c3 2a 38 0a 2a 48 37 57 6c ab 37 a9 8a a0 36
       4.0713283e-05 1.1930717e-05 2.0435238e-05 4.7845137e-06
000010 3a d4 9d 37 3f 9e ad 36 25 29 3c 36 26 e1 11 38
       1.8814684e-05 5.174224e-06 2.8038132e-06 3.478038e-05
000020 53 3b 4e 37 55 f9 e1 37 8c 12 ec 36 c9 e8 ba 36
       1.2292369e-05 2.6938194e-05 7.035507e-06 5.5703317e-06
000030 84 d7 79 37 d4 e8 e0 36 bb ee 70 38 28 53 37 38
       1.4891735e-05 6.702825e-06 5.7442794e-05 4.3708045e-05
000040 14 58 bd 37 ad 6e d3 37 f1 ee b4 37 7d c0 f8 36
       2.257157e-05 2.5204698e-05 2.1568938e-05 7.4133845e-06
000050 0e 20 24 37 45 07 fa 35 ce a0 eb 37 98 27 d2 37
       9.782625e-06 1.8628567e-06 2.8089064e-05 2.5052388e-05
000060 33 c2 0f 37 d6 e4 05 37 56 36 86 36 7f 08 1f 36
       8.56868e-06 7.980698e-06 3.9998367e-06 2.3697792e-06
000070 39 1c b3 38 38 76 e8 37 c7 d1 27 36 85 68 d2 36
       8.540642e-05 2.7711605e-05 2.5007046e-06 6.2706554e-06

exp_avg f4 [10, 32]
000000 16 74 72 b9 38 9e 9e 39 dc 16 91 ba dc 3a ec b9
       -0.00023122164 0.0003025399 -0.0011069435 -0.0004505728
000010 29 18 13 36 b0 2b 3e 3a 1f 8c cb 39 68 1f 4c ba
       2.191877e-06 0.0007254435 0.00038823576 -0.00077866623
000020 30 e8 a2 3a fc f7 b6 39 c8 c2 3c bb 9a 44 18 b9
       0.0012428816 0.00034898508 -0.0028802622 -0.00014521406
000030 04 a5 ec 39 71 a2 f0 36 1d b2 5e 39 5b 29 a9 3a
       0.00045136374 7.171468e-06 0.00021237922 0.0012906002
000040 0c c7 e7 38 9e ee 7a ba 16 39 66 ba 98 98 d9 3a
       0.00011052014 -0.00095723 -0.000878231 0.0016601263
000050 d5 61 02 b7 1a 38 8a 38 4a e0 b2 3a b3 3b aa ba
       -7.771382e-06 6.5908025e-05 0.0013647166 -0.0012987762
000060 aa 00 65 b7 6c 7c 63 3a c0 b1 5f b8 5f 11 95 ba
       -1.3649618e-05 0.0008677903 -5.3332886e-05 -0.0011372975
000070 4b 2c c5 39 72 dd 27 39 6b d9 ae b9 5f c0 18 3b
       0.0003760777 0.00016008856 -0.00033349855 0.0023308021
000080 cd 2b 4e b9 0e 79 0b 3b 62 9f 0d 3a c3 3c ea ba
       -0.00019662008 0.002128187 0.0005402473 -0.0017870892
000090 56 9a 05 3b d2 ce 8f 3a 6b 04 38 b8 5d d7 e0 38
       0.002038618 0.0010971671 -4.3873133e-05 0.00010721267
0000a0 6a 3a 97 b9 c2 0f 88 ba cb 8c 86 3a 46 56 90 b9
       -0.00028844486 -0.0010380673 0.0010265348 -0.000275301
0000b0 c6 83 42 39 95 6a 9a b7 d8 48 51 3a 95 22 4d 3a
       0.00018550371 -1.8407862e-05 0.0007983572 0.00078252825
0000c0 fe fc 2d 3a ac 0d 88 3a 30 f8 c4 3a 80 0d cd 39
       0.0006637125 0.0010380051 0.0015027579 0.00039110705
0000d0 72 7b 25 ba a3 f6 d2 37 e8 2a b9 3a e9 83 35 3b
       -0.0006312645 2.51488e-05 0.0014127167 0.0027697033
0000e0 45 c9 b5 b7 06 e7 19 3a 5c c1 33 b8 68 7b 78 3a
       -2.1670605e-05 0.0005870912 -4.2857006e-05 0.0009478838
0000f0 e4 da 01 3a 34 02 3a 3a c2 4d 4b 3a db 3b 14 bb
       0.0004953577 0.0007095665 0.0007755422 -0.0022618684
000100 15 14 16 3b 63 a7 a3 ba 4e fb dd 3a 51 00 52 ba
       0.0022900153 -0.0012485798 0.0016935857 -0.00080109114
000110 de 10 11 3a 9c 23 c7 3a 9a f5 2c b9 4b e8 44 3a
       0.00055338244 0.0015193108 -0.00016494692 0.0007511421
000120 33 db 64 bb cb c6 07 38 01 80 38 3b 13 da 22 ba
       -0.0034920692 3.237165e-05 0.0028152468 -0.0006212305
000130 9a ea 38 ba 97 5e a4 b7 17 a3 6f 3a 9a c9 37 ba
       -0.00070540013 -1.959437e-05 0.0009141429 -0.0007010937
000140 b7 12 aa 38 37 75 43 39 00 99 4a 3a 7f 0e f7 37
       8.1097176e-05 0.00018640315 0.0007728487 2.9451445e-05
000150 68 d7 29 3b 1c 5d ed b8 18 a8 1d 3a f1 c8 b1 3b
       0.0025915746 -0.000113183836 0.00060141226 0.0054255654
000160 48 bd 48 38 f2 2f 7a 3a 17 04 1f b9 04 10 5c ba
       4.7859998e-05 0.00095438876 -0.00015164945 -0.00083947205
000170 a9 6c a0 bb 9c 68 af ba c0 7d 51 ba 5c 52 5b 3b
       -0.004895766 -0.0013382616 -0.00079914555 0.0033465838
000180 6b 61 d0 37 eb a9 5a 3a 60 8d 7f 3a 19 60 e7 39
       2.4840896e-05 0.000834136 0.00097485445 0.00044131352
000190 7e 07 4a ba f6 57 6a ba 7c 57 ef ba 0f 78 c2 b9
       -0.0007706805 -0.0008939499 -0.0018260325 -0.00037092014
0001a0 81 3a a8 39 b8 b4 9d 39 65 46 03 3a 46 86 12 39
       0.00032087046 0.0003008002 0.0005007743 0.00013973666
0001b0 28 83 05 b9 3c 91 1a b6 53 68 29 3a c3 a3 91 b9
       -0.00012732728 -2.3032326e-06 0.0006462384 -0.00027778567
0001c0 51 e3 c5 b7 90 4f af ba 54 5a dc ba 2e d0 90 ba
       -2.3590082e-05 -0.0013375152 -0.0016811588 -0.001104837
0001d0 b3 bf 92 ba a7 20 93 36 ab b4 53 ba 0a 8b 90 ba
       -0.0011196047 4.3847426e-06 -0.0008075933 -0.0011027765
0001e0 bd cb ce 36 d5 32 54 b9 66 55 9c b7 a5 48 b9 ba
       6.1629967e-06 -0.00020236832 -1.8636416e-05 -0.001413603
0001f0 85 b7 39 ba 8e 78 11 bb 25 04 d0 b8 a8 5f dd ba
       -0.00070845365 -0.00221971 -9.918985e-05 -0.001688947
000200 2d f8 fe 3a f7 4f 46 39 9e b8 01 bb 0a bc 95 3a
       0.0019452624 0.0001891254 -0.0019793878 0.0011423838
000210 81 d7 ca 3a e3 d4 21 3b aa 19 04 bb c2 aa 18 39
       0.0015475602 0.002469354 -0.0020156899 0.00014559462
000220 d4 85 11 b9 df 77 a1 3a 1b 86 22 bb 39 01 7a 3a
       -0.00013878132 0.001231905 -0.0024799171 0.00095369254
000230 39 7c ba b8 b9 26 a1 37 fa e1 26 bb d7 06 76 b9
       -8.8923094e-05 1.9210727e-05 -0.0025464282 -0.00023462936
000240 57 6a ae ba 22 33 2d 3b 4e dc e0 39 4a 88 78 3a
       -0.0013306838 0.0026428183 0.0004288875 0.0009480758
000250 5f 43 33 ba 87 f1 81 37 1c 10 b3 b6 44 25 38 bb
       -0.0006838347 1.5490468e-05 -5.336491e-06 -0.0028098384
000260 9e 63 9c b7 b3 75 ba ba e6 83 13 39 e8 cf bb 3a
       -1.8643037e-05 -0.0014225751 0.00014068148 0.0014328929
000270 2b 96 d8 3a 2a 02 8f 3a 2a 71 07 ba 57 98 38 ba
       0.0016524246 0.0010910679 -0.0005166704 -0.00070417434
000280 53 57 61 bb e1 df e6 ba 29 cd af ba 67 6a c6 3a
       -0.0034384325 -0.0017614329 -0.0013412583 0.0015137912
000290 ab 84 77 39 d7 e0 87 ba 1c 30 55 3a d1 f7 c8 ba
       0.00023605178 -0.001036669 0.0008132474 -0.0015332644
0002a0 5a 25 59 3b ef b9 8b 3a 0d 74 e4 39 32 bd 00 3a
       0.0033133836 0.0010660271 0.00043574013 0.0004911005
0002b0 6b 7a 47 39 14 67 43 37 fe ff 87 ba a6 5c 17 ba
       0.00019023723 1.16469055e-05 -0.0010375974 -0.00057739986
0002c0 f5 ad aa ba 4d 78 e9 b9 c3 d4 9a 3a 6c 90 f9 ba
       -0.0013021814 -0.00044530854 0.0011812676 -0.0019040233
0002d0 28 5c e3 ba 2e c3 a8 38 af d3 59 b9 b3 25 f2 ba
       -0.001734619 8.047219e-05 -0.00020773591 -0.001847437
0002e0 4d 4a a9 b7 a2 a3 b8 ba 5e 8e 76 39 5a a5 73 b8
       -2.0180969e-05 -0.0014086852 0.00023513424 -5.808971e-05
0002f0 89 89 89 3b 9a 35 f4 3a 33 a6 1d ba 28 b6 92 ba
       0.0041973037 0.0018631697 -0.00060138403 -0.0011193203
000300 1e f0 89 b8 ac a4 dc b8 9d ef ec 39 0b 37 3b ba
       -6.5773944e-05 -0.0001052109 0.00045191954 -0.0007141686
000310 b3 4e 4f b9 38 4e 50 bb a3 83 93 3a 3d c8 c2 38
       -0.00019770376 -0.0031784903 0.0011254441 9.287938e-05
000320 f2 79 80 b9 84 c2 07 bb 71 6e ea 3a 55 af a3 ba
       -0.0002450492 -0.0020715306 0.0017885697 -0.0012488166
000330 4c 28 23 b9 eb 18 de 36 c4 a2 d2 b9 17 ef 8b b8
       -0.00015559903 6.6190164e-06 -0.0004017559 -6.6725705e-05
000340 00 c0 b0 b8 9c f2 72 b9 25 91 73 ba 52 a0 13 3a
       -8.428097e-05 -0.00023169297 -0.00092913426 0.00056314946
000350 0c bb bd 3a 4d 36 d4 36 ad ce 82 ba 6d 2c 53 bb
       0.00144753 6.324414e-06 -0.0009979807 -0.0032222525
000360 8e c6 03 b8 e7 63 2a 3a 8c d6 04 b8 f9 21 a1 3a
       -3.1417752e-05 0.0006499872 -3.1671065e-05 0.001229345
000370 4e f1 e5 ba c8 03 9d 3a 1c 8c 18 3a 8e b7 c4 39
       -0.0017543228 0.0011979276 0.0005819218 0.00037520792
000380 f7 1e 4a 3a ba 83 de 3a a9 e0 5d ba ef 92 31 3a
       0.00077103026 0.0016976513 -0.0008463958 0.0006773909
000390 d8 07 31 bb e4 11 f3 38 01 7a fc 39 cb 3d 8b 3a
       -0.0027012732 0.00011590475 0.00048156086 0.0010623274
0003a0 ff 67 63 ba 35 8a 01 3a 3c 0d f2 ba e0 9c 5e b9
       -0.00086748594 0.0004941554 -0.0018467079 -0.0002123001
0003b0 0c 75 3a 39 33 94 25 36 34 81 50 39 7f a7 94 b9
       0.00017781946 2.467318e-06 0.00019884558 -0.00028353554
0003c0 1b 1d ea 39 a4 6d 89 ba da 1c aa b8 d0 7d 73 b9
       0.00044653643 -0.0010484946 -8.111606e-05 -0.00023221155
0003d0 bf bf 06 3a 12 68 20 b8 9a 57 31 ba 85 d7 8c b8
       0.0005140267 -3.8243896e-05 -0.0006765068 -6.715864e-05
0003e0 74 3f 36 38 62 5a bc ba 12 b0 9a 38 76 c0 87 ba
       4.3451277e-05 -0.0014370198 7.376088e-05 -0.001035704
0003f0 f0 14 34 ba a1 c3 0b bb 37 2d 76 ba c9 6d c8 ba
       -0.0006869575 -0.002132632 -0.0009390893 -0.0015291508
