{{cookiecutter.project_slug}}/exp1/lightning_logs/version_39/checkpoints/epoch=99-step=100.ckpt (torch, 42138 bytes, 18 tensors)

model.0.weight f4 [8, 1, 3, 3]
0	0xbceff04f	-0.029289393
1	0xbd5b0e67	-0.053480532
2	0xbe80fe38	-0.25193954
3	0x3e8da26f	0.2766299
4	0x3e1d9188	0.15387547
5	0xbe11cd13	-0.14238386
6	0xbc62603a	-0.0138168875
7	0xbe3142dc	-0.17310661
8	0x3c50a2be	0.012734113
9	0xbe4c4a7d	-0.1995029
10	0x3cae8fdc	0.021308832
11	0xba989e69	-0.001164389
12	0xbeb73cd5	-0.357886
13	0x3e66239a	0.22474518
14	0xbe670c63	-0.22563319
15	0xbe6404ef	-0.22267507
16	0xbe13dab1	-0.14438893
17	0x3debab70	0.115073085
18	0x3e059d5d	0.1304831
19	0xbe69e760	-0.22842169
20	0xbe8593e4	-0.26089394
21	0x3e9c1e85	0.30492035
22	0x3db1b169	0.086764164
23	0x3e77f4e5	0.24214514
24	0x3e82a787	0.25518438
25	0xbd88617e	-0.0665922
26	0x3e0a158f	0.13484786
27	0x3e9f5d87	0.31126043
28	0x3e13d1c1	0.14435484
29	0xbd92cf8a	-0.07168491
30	0xbe154eb0	-0.14580798
31	0x3c8e9775	0.017406205
32	0x3e187fe2	0.14892533
33	0xbe9274eb	-0.28604826
34	0x3dac8d00	0.08425331
35	0xbe8ec0d3	-0.27881488
36	0x3dac5149	0.084139414
37	0xbe5bcbf5	-0.21464522
38	0x3e423ad1	0.18967749
39	0x3dd987e7	0.106216244
40	0x3e949055	0.29016367
41	0xbdc3f061	-0.09567333
42	0xbe1e2080	-0.15442085
43	0xbe98aad5	-0.29817834
44	0x3df6a64f	0.120434396
45	0xbe91bc43	-0.28463945
46	0x3e331c9b	0.17491381
47	0xbd5619cb	-0.05227069
48	0x3e593543	0.21211724
49	0xbeb3bb28	-0.35103726
50	0xbeb09115	-0.3448569
51	0x3e972c69	0.2952607
52	0x3ca4f94c	0.020138405
53	0xbdff69ea	-0.124713734
54	0x3e07703c	0.13226408
55	0xbe899dc6	-0.26878184
56	0x3d8441a6	0.06457834
57	0x3d8fda4a	0.07024057
58	0x3e7b3ff9	0.24536122
59	0x3e54da24	0.20786339
60	0x3dd77b3c	0.10521552
61	0xbe984d13	-0.29746303
62	0x3d50ae47	0.050947454
63	0x3e79a94e	0.24380991
64	0x387e82b0	6.068003e-05
65	0x3e549ac7	0.20762168
66	0x3e8b3a4a	0.2719291
67	0x3dc2e40a	0.09516151
68	0xbe074e9f	-0.13213585
69	0x3e920c7a	0.28525144
70	0xbe94965f	-0.29020974
71	0xbe8f5a3a	-0.27998525

model.0.bias f4 [8]
0	0x3e89905e	0.26867956
1	0xbdd73a77	-0.10509198
2	0x3e254249	0.16138567
3	0xbe195d89	-0.14977087
4	0x3d2f6cab	0.042828243
5	0x3ea236a0	0.316823
6	0xbe8093a2	-0.25112635
7	0x3ea3e7e4	0.32012856

model.3.weight f4 [32, 8, 3, 3]
0	0x3db0a2a6	0.08624773
1	0x3db0a93d	0.0862603
2	0x3d9675b8	0.07346672
3	0x3d1a0ec1	0.037611727
4	0x3d8b56c7	0.06803661
5	0x3d2f6ea1	0.042830113
6	0x3dc0c728	0.09412986
7	0x3dce0972	0.10060395
8	0x3d9b57e3	0.075851224
9	0x3d13cfaa	0.036086716
10	0x3da44f42	0.0802293
11	0x3e08764e	0.1332638
12	0xbd8a3ead	-0.06750236
13	0xbe01c658	-0.12673318
14	0xbe30e1ca	-0.17273632
15	0xbe07ff01	-0.1328087
16	0x3c43411c	0.011917379
17	0x3d24edd8	0.040265888
18	0xbcd3ca2c	-0.025853239
19	0xbd81ce34	-0.06338158
20	0xbd99036c	-0.07471356
21	0xbca1cf7b	-0.019752255
22	0xbd943244	-0.0723615
23	0xbcecd50c	-0.028910182
24	0x3c41c099	0.011825704
25	0xbd8e20a2	-0.06939818
26	0x3d8b06f9	0.06788439
27	0x3c908164	0.017639823
28	0xbdce6f43	-0.10079815
29	0x3d4ac7dc	0.049507007
30	0x3d9311bf	0.07181119
31	0x3dd9fe73	0.106442355
32	0xbd808292	-0.06274904
33	0x3df18bb5	0.11794225
34	0xbcc389d0	-0.023869425
35	0x3bd4e596	0.0064970953
36	0xbe044fad	-0.12921019
37	0xbd0c5b05	-0.03426649
38	0x3df7394f	0.120714776
39	0xbd8485b0	-0.06470811
40	0x3d222c89	0.039593253
41	0xbdd12a20	-0.10213113
42	0xbd05cd77	-0.03266665
43	0x3d9fada2	0.0779679
44	0xbcc8e517	-0.024523301
45	0xbd1e3e9f	-0.03863394
46	0x3d36528a	0.04451231
47	0x3d97b902	0.07408334
48	0x3d6de795	0.058082182
49	0x3d2bf137	0.041978087
50	0xbdda3d99	-0.1065628
51	0x3e1a72b0	0.15082812
52	0x3cbe46fd	0.02322721
53	0x3de380ff	0.111085884
54	0x3ca75eb6	0.020430904
55	0x3dfa5e5c	0.12225029
56	0x3da442fc	0.08020589
57	0xbdde244e	-0.10846768
58	0x3ddc48e0	0.10756087
59	0x3cd1f9ae	0.025631752
60	0xbc3192ba	-0.010838205
61	0x3d464cfd	0.048413265
62	0x3e07dd56	0.13268027
63	0xbd13b283	-0.036058914
64	0x3df9624f	0.12176954
65	0x3d23d586	0.039998554
66	0xbcf81233	-0.030282116
67	0x3de119fe	0.10991286
68	0x3de23960	0.110461
69	0xbca4fce5	-0.02014012
70	0xbd526a0b	-0.05137066
71	0x3c0141ba	0.007889206
72	0xbc69cf10	-0.014270559
73	0xbd29f5d8	-0.04149422
74	0x3e1f40c8	0.15552056
75	0x3d9a5308	0.07535368
76	0xbd9230ca	-0.07138212
77	0xbdb8da92	-0.09026064
78	0x3d06cc74	0.032909825
79	0x3d2d23d1	0.042270485
80	0xbb9579df	-0.0045616473
81	0xbd129ac6	-0.035792135
82	0x3cf0c7df	0.029392181
83	0x3d94a1fe	0.0725746
84	0x3cdc2230	0.02687177
85	0xbe077216	-0.13227114
86	0x3cad5e90	0.021163255
87	0x3d7376bf	0.059439417
88	0xbd1b04ac	-0.037846252
89	0x3e012363	0.12611155
90	0x3c5805b5	0.013184954
91	0xbe06af65	-0.13152845
92	0xbcccdc67	-0.02500744
93	0xbd4cb6ba	-0.04997895
94	0xbc33580c	-0.010946285
95	0xbce1990a	-0.027538795
96	0x3dacffad	0.08447204
97	0xbe01a233	-0.1265953
98	0x3da0dc75	0.07854549
99	0xbdba4f87	-0.090972
100	0x3dbb1444	0.09134725
101	0x3dd66b15	0.10469643
102	0x3d306234	0.043062404
103	0x3cd24d84	0.025671728
104	0xbd1d603b	-0.03842185
105	0xbd2fc44f	-0.042911824
106	0xbe263497	-0.16230999
107	0x3d0c830c	0.034304664
108	0xbc8919f1	-0.016736003
109	0x3d56ef2a	0.05247418
110	0xbd954b41	-0.07289744
111	0x3dd6eaa4	0.10493973
112	0xbda00fce	-0.078155145
113	0x3e21853b	0.1577348
114	0x3d955dfa	0.07293315
115	0xbc1e0cbc	-0.009646591
116	0x3d773c12	0.060360022
117	0xbd83e302	-0.06439783
118	0xbc987384	-0.01860977
119	0xbd88aa04	-0.06673053
120	0xbd96be39	-0.07360501
121	0xbde4a5ab	-0.11164411
122	0xbe13cb65	-0.14433058
123	0xbda011ac	-0.07815871
124	0x3d48a7e8	0.048988253
125	0xbd69c4c1	-0.057072405
126	0xbdce8dd4	-0.10085645
127	0x3cf94fff	0.030433653
128	0xbdd75bcc	-0.10515556
129	0xbde73316	-0.11289041
130	0xbdea16a9	-0.11430103
131	0xbce83597	-0.028345866
132	0xbe0bb7a3	-0.1364427
133	0x3d4ab783	0.049491417
134	0x3ca8a32d	0.02058562
135	0xbdc72251	-0.09723342
136	0x3cc9016e	0.024536815
137	0x3c60cc20	0.013720542
138	0xbde0b420	-0.10971856
139	0xbde56389	-0.112006254
140	0xbd5456e8	-0.051840693
141	0xbd36b1ea	-0.044603266
142	0x3df2e4d3	0.11860051
143	0xbdf44269	-0.11926729
144	0xbd7391a6	-0.059465073
145	0xbd870127	-0.06592017
146	0xbd9b0718	-0.075697124
147	0xbdaf6c7c	-0.085656136
148	0x3cd2ade1	0.025717678
149	0xbd46ae99	-0.048506353
150	0xbd1aaef9	-0.037764523
151	0xbcdf192d	-0.027233684
152	0xbddcc2c4	-0.10779336
153	0xbda04da5	-0.078273095
154	0x3db15867	0.086594395
155	0xbd6e7cdc	-0.058224544
156	0xbda1fd5a	-0.07909651
157	0x3e090d7c	0.1338405
158	0x3e1cb1ee	0.1530225
159	0x3d44c3e1	0.048038367
160	0x3d9c8915	0.07643334
161	0x3db37ecc	0.08764419
162	0x3dba13dd	0.0908582
163	0xbdc72913	-0.09724631
164	0x3cfffa76	0.031247359
165	0x3c1321dd	0.008980242
166	0x3db43d78	0.08800787
167	0xbd199ab6	-0.03750106
168	0x3d3a84d0	0.045536816
169	0x3ddb5109	0.107088156
170	0x3d2d83ad	0.042361904
171	0xbbc53c39	-0.006019142
172	0xbdd5e593	-0.104441784
173	0x3dc5e49b	0.09662744
174	0x3c337505	0.010953193
175	0xbddcf531	-0.10788954
176	0xbd39c4a5	-0.04535355
177	0x3d5205e9	0.051275168
178	0xbd1e30ba	-0.038620688
179	0x3cea45b2	0.028597686
180	0xbcc89d82	-0.024489168
181	0x3de4b9a8	0.111682236
182	0xbc8c0f7e	-0.017097231
183	0x3dc41eb6	0.0957617
184	0x3b8855ba	0.00416061
185	0xbda02036	-0.07818644
186	0xbde3694a	-0.11104067
187	0xbe0081e7	-0.12549554
188	0xbcfa310a	-0.030540962
189	0x3ce1c16c	0.027558051
190	0x3e09ef44	0.13470179
191	0x3d774052	0.060364075
192	0x3c810aa8	0.015752152
193	0x3dc6f265	0.09714202
194	0x3c78885d	0.01516923
195	0x3d60bfca	0.054870404
196	0x3e26db4e	0.16294596
197	0xbcd40d35	-0.025885204
198	0x3d1c6b7c	0.038188443
199	0xbdba79ca	-0.09105261
200	0x3dc0843b	0.09400221
201	0x3cd023ca	0.02540769
202	0xbd8ea654	-0.06965318
203	0xbd5f6c2d	-0.054546524
204	0xbbcad482	-0.0061898837
205	0x3dc135e9	0.09434111
206	0x3dd6df40	0.104918
207	0xbdf19592	-0.117961064
208	0x3ca4225b	0.020035913
209	0x3d5cd3ab	0.0539128
210	0x3b977664	0.0046222676
211	0xbd9c9371	-0.0764531
212	0x3b2b51e7	0.0026141347
213	0xbd401f7c	-0.046905026
214	0x3decde0a	0.11565788
215	0x3d50d45c	0.05098377
216	0x3c878369	0.016542153
217	0x3dca7fad	0.098876335
218	0x3d63d61a	0.055624105
219	0xbd3fcebe	-0.046828024
220	0xbba79b13	-0.005114922
221	0x3df9cfdc	0.12197849
222	0x3d087296	0.033312403
223	0xbdc7f543	-0.09763577
224	0x3d860577	0.06544011
225	0xbca95a89	-0.020673053
226	0xbd437a3b	-0.04772399
227	0x3c8c8b94	0.0171564
228	0x3d237a28	0.03991142
229	0xbdbf85b0	-0.09351671
230	0xbcbd3814	-0.02309803
231	0xbb9acdff	-0.0047242637
232	0x3cb5853f	0.022158263
233	0x3cb91cc6	0.022596728
234	0x3dca57c6	0.09880023
235	0xbc9fdb3a	-0.019513715
236	0xbbe1a12e	-0.006885669
237	0x3dd44c14	0.10366073
238	0xbd3d3ffa	-0.04620359
239	0xbd5c41eb	-0.0537738
240	0xbcf24d47	-0.029577864
241	0x3d95d8d5	0.07316748
242	0xbd41d5ea	-0.047323145
243	0x3dbff1f6	0.09372322
244	0x3dc8d376	0.09805958
245	0xbd6e2d6a	-0.05814878
246	0xbd859ba0	-0.06523824
247	0x3d7e0f13	0.062026095
248	0xbdb6128c	-0.08890256
249	0xbdae42d2	-0.08508839
250	0x3d83e0bf	0.06439351
251	0xbdb75396	-0.089514896
252	0xbdd5ed88	-0.10445696
253	0xbd9b6c8f	-0.07589065
254	0xbd4dae0c	-0.050214812
255	0x3cf69416	0.03009991

model.3.bias f4 [32]
0	0xbd0032ba	-0.031298377
1	0x3de012a5	0.10941056
2	0x3d7788f4	0.060433343
3	0x3e1441be	0.14478204
4	0x3d9bc0d2	0.07605137
5	0x3baacdf9	0.005212542
6	0x3d8eef74	0.06979266
7	0xbdb9e516	-0.09076898
8	0x3dc86f6f	0.09786879
9	0x3caa4149	0.020783084
10	0x3d8031aa	0.06259473
11	0x3cd5c30f	0.026093988
12	0xbc909a7f	-0.017651794
13	0xbcb22da0	-0.021750271
14	0xbcfab6fb	-0.03060483
15	0x3d9c5fd0	0.07635462
16	0xbd9c7b28	-0.07640678
17	0x3d209077	0.039200272
18	0x3c8e477c	0.01736807
19	0x3d314575	0.04327913
20	0x3d2c24e6	0.042027377
21	0xbdc8152c	-0.09769663
22	0x3dde6ca3	0.108605646
23	0x3cd36e07	0.025809301
24	0xbda61b14	-0.081106335
25	0x3df1b7c4	0.11802629
26	0xbd703798	-0.05864677
27	0xbc98971a	-0.018626738
28	0x3d7e2e0d	0.062055636
29	0xbdb0d9f9	-0.08635325
30	0x3d55ef17	0.052229967
31	0xbdad3c89	-0.08458812

model.7.weight f4 [10, 32]
0	0xbd9ab25d	-0.07553551
1	0xbc714e18	-0.014728092
2	0x3e1e1dc2	0.15441039
3	0x3d5e5f0e	0.05428987
4	0x3db4b70c	0.08823976
5	0xbddf7138	-0.10910267
6	0xbe213f2e	-0.15746757
7	0x3e035f03	0.12829213
8	0x3cd561e4	0.026047654
9	0xbe518e0d	-0.20464344
10	0xbc2c3e8c	-0.010512959
11	0xbdc8b8c8	-0.09800869
12	0x3c7146b6	0.014726331
13	0x3e1653e8	0.14680445
14	0xbca34a4c	-0.019932888
15	0x3d2e5a45	0.042566556
16	0x3e0e16a4	0.13875824
17	0xbcd18864	-0.025577731
18	0xbe1d2ed8	-0.153499
19	0x3da74663	0.08167722
20	0xbd1d4d3e	-0.038403742
21	0x3dba4b6a	0.09096415
22	0xbdee921b	-0.11648961
23	0xbde3a62e	-0.11115681
24	0x3e16b3e7	0.14717065
25	0xbe2b0664	-0.16701657
26	0x3c561fe4	0.013069127
27	0xbe2d9bf6	-0.16954026
28	0xbd391c34	-0.045192912
29	0x3b74c1ff	0.0037347076
30	0xbd54ccfc	-0.0519533
31	0x3d67e979	0.05661914
32	0x3dbe5f3b	0.092955075
33	0x3e2b15cc	0.16707534
34	0x3dc98845	0.098404445
35	0x3e334b85	0.17509277
36	0x3daed2c0	0.08536291
37	0xbdcde1f4	-0.10052863
38	0xbd672481	-0.056431297
39	0xbdd9bb16	-0.10631387
40	0x3d584fe6	0.052810572
41	0xbd990a8c	-0.07472715
42	0x3dcf7e8a	0.10131557
43	0x3dbbc1c3	0.091678165
44	0x3e24cd16	0.16093859
45	0xbdcfb528	-0.10141975
46	0x3de8ba04	0.11363605
47	0xbcafee0b	-0.021475812
48	0xbd9abd92	-0.07555689
49	0xbdd94944	-0.106096774
50	0xbe1bdfa2	-0.15222028
51	0xbcf5b9bf	-0.029995797
52	0xbbc1bf94	-0.0059127305
53	0xbd2d0523	-0.042241227
54	0x3d7cd45c	0.06172596
55	0xbde50587	-0.11182695
56	0xbdf1255e	-0.11774705
57	0xbd3eff12	-0.046629973
58	0x3dbc7162	0.092013136
59	0x3d002ebf	0.03129458
60	0xbca13c9e	-0.019682225
61	0xbe0685a8	-0.13136923
62	0x3dd6261e	0.10456489
63	0xbe261bee	-0.16221592
64	0xbdfd2416	-0.123603985
65	0x3d89a075	0.06720058
66	0x3dfd696d	0.12373624
67	0xbdb5ef96	-0.08883588
68	0x3db213ea	0.086952046
69	0xbdba280f	-0.09089672
70	0xbca29622	-0.01984698
71	0x3dc1cfb6	0.09463446
72	0xbe0442d1	-0.12916113
73	0xbe0856f7	-0.13314424
74	0x3cd450bd	0.025917405
75	0x3e306348	0.17225373
76	0xbe2907c7	-0.16506873
77	0xbdedb96f	-0.11607634
78	0x3e1879c5	0.14890201
79	0x3decf1c2	0.11569549
80	0x3caaa128	0.020828798
81	0x3e07ab81	0.13249017
82	0xbde67cf7	-0.11254304
83	0xbe29cefe	-0.16582868
84	0x3e030882	0.12796214
85	0xbcd2fbd3	-0.025754845
86	0xbe20f26e	-0.1571748
87	0xbddf8a2c	-0.10915026
88	0xbe155212	-0.14582089
89	0xbc4c981a	-0.012487436
90	0xbe07b7ba	-0.1325368
91	0xbafb58c8	-0.0019176239
92	0x3d981851	0.07426513
93	0xbda81581	-0.082072265
94	0xbc81c2a9	-0.015839892
95	0xbd8869a3	-0.066607736
96	0xbda91765	-0.08256415
97	0xbd67119a	-0.05641327
98	0xbcffd96f	-0.03123161
99	0xbdf1a9af	-0.11799943
100	0x3d9fd248	0.0780378
101	0xbdd17629	-0.102276154
102	0xbdf5d754	-0.12003961
103	0x3d1bbddd	0.038022865
104	0x3d950665	0.0727661
105	0x3d7e26a6	0.062048577
106	0x3d8345c5	0.06409792
107	0xbdedb504	-0.116067916
108	0xbda3c11c	-0.07995817
109	0x3db3c582	0.08777906
110	0xbd2f4da8	-0.04279867
111	0xbd8f2608	-0.06989676
112	0xbd3f9e40	-0.04678178
113	0x3dcb4e5f	0.099270575
114	0x3dc266d6	0.09492271
115	0x3d90b0c9	0.07064969
116	0x3dbf2710	0.093336225
117	0x3c45523a	0.01204353
118	0xbc9d3b5d	-0.019193346
119	0x3e18f9fe	0.14939114
120	0xbe0564ee	-0.13026783
121	0xbe034447	-0.12819014
122	0x3da438fa	0.0801868
123	0xbd9b182c	-0.0757297
124	0xbd90a26e	-0.07062231
125	0xbd83435b	-0.064093314
126	0x3c545e68	0.012961961
127	0x3ddb6eb5	0.10714475
128	0xbd5836fe	-0.05278682
129	0x3daf5677	0.08561414
130	0x3e03d28e	0.12873289
131	0xbe0e84cf	-0.1391785
132	0xbda305cf	-0.07960092
133	0xbe35959a	-0.1773285
134	0xbd73e496	-0.05954417
135	0x3c41d118	0.011829637
136	0x3c5c8e91	0.013461725
137	0x3e0179aa	0.12644067
138	0x3e08dee3	0.13366275
139	0xbe2e2da0	-0.17009592
140	0x3e02e816	0.12783846
141	0xbdf736aa	-0.12070973
142	0xbd7aa210	-0.06118971
143	0x3c914d75	0.01773713
144	0x3e29726d	0.16547556
145	0xbe31c771	-0.17361237
146	0x3c83d5ab	0.016093096
147	0x3c5b4e23	0.013385328
148	0x3e03ddcf	0.12877582
149	0x3ca0a2a1	0.019608798
150	0x3e1600f8	0.14648807
151	0xbdb1d55f	-0.086832754
152	0x3dbe4f0d	0.092924215
153	0xbd88426b	-0.06653293
154	0xbd9c7346	-0.07639174
155	0xbde5574f	-0.111982934
156	0xbe3f43b8	-0.18678176
157	0x3db95d9d	0.090510584
158	0x3e124ea3	0.1428781
159	0x3d81fc2d	0.06346927
160	0xbe2082d0	-0.15674901
161	0xbd55d6d1	-0.052206818
162	0x3db69822	0.08915736
163	0x3d1ff0b8	0.039047927
164	0xbd4a39be	-0.049371473
165	0xbcd202be	-0.025636073
166	0xbdee595f	-0.1163814
167	0x3c1f68bd	0.009729561
168	0xbd041dba	-0.032254912
169	0x3e212914	0.15738326
170	0xbd9ea0f5	-0.07745544
171	0x3e288949	0.1645862
172	0xbcb8ba51	-0.02254978
173	0x3d813139	0.063082166
174	0xbe23f8ab	-0.16012828
175	0x3d26050d	0.04053216
176	0x3b15aefa	0.002283989
177	0xbe17d2eb	-0.14826553
178	0x3e2e3bd0	0.17015004
179	0xbe1120be	-0.14172646
180	0xbd01cd94	-0.031690195
181	0x3e53b509	0.20674528
182	0x3dbb4efe	0.09145926
183	0x3c45f784	0.012082938
184	0x3d76d02d	0.060257126
185	0x3e191245	0.14948376
186	0x3d922cd9	0.0713746
187	0x3d48512b	0.048905533
188	0x3cb76bb4	0.022390224
189	0x3e20ca4b	0.15702169
190	0xbdb21304	-0.08695033
191	0xbd8801f9	-0.06641001
192	0xbd55037a	-0.05200527
193	0xbd5d5f47	-0.05404594
194	0xbe0c1c53	-0.1368268
195	0x3dc8d5e8	0.098064244
196	0x3cbe4be0	0.02322954
197	0x3e2a8c5d	0.16655107
198	0xbdf8647c	-0.12128541
199	0xbd9f26bf	-0.07771062
200	0x3e1cc057	0.15307747
201	0xbe0dcba3	-0.13847212
202	0x3d2ba79f	0.041907903
203	0xbde683ee	-0.11255632
204	0x3e2aec27	0.16691647
205	0x3d286763	0.041114222
206	0x3ddb2954	0.10701242
207	0x3e2fe62b	0.17177646
208	0x3e324e47	0.17412673
209	0xbdbefc93	-0.093255185
210	0xbd7b7dda	-0.06139932
211	0x3cd4d9ad	0.025982702
212	0x3db463ef	0.08808123
213	0xbd570df7	-0.052503552
214	0x3daa8b54	0.08327356
215	0xbe214269	-0.1574799
216	0x3d9ab4b4	0.07553998
217	0xbdbda8a1	-0.09260679
218	0x3d94cb81	0.07265378
219	0xbe1f1268	-0.15534365
220	0xbe0bf157	-0.13666283
221	0xbd9bac72	-0.07601251
222	0x3d43be3a	0.047788836
223	0xbcc76f91	-0.024345191
224	0x3dd7e3e7	0.10541516
225	0x3dfcb936	0.12340014
226	0xbdffb456	-0.12485568
227	0xbd831d00	-0.06402016
228	0x3daf3bc1	0.08556319
229	0x3df291d4	0.11844221
230	0x3e211921	0.15732242
231	0x3dc05331	0.093908675
232	0x3df36bf8	0.11885828
233	0x3e112481	0.14174081
234	0xbcb69259	-0.02228658
235	0x3dc9eb4e	0.09859334
236	0xbe2d7c9a	-0.16942063
237	0xbddc1665	-0.10746459
238	0xbd8166b4	-0.06318417
239	0xbd6bd22b	-0.05757348
240	0xbd83b12d	-0.06430278
241	0x3b9297c3	0.004473658
242	0xbe17ae9f	-0.14812706
243	0xbdca1052	-0.09866394
244	0xbde9a2a4	-0.11407974
245	0xbe48ce63	-0.1960998
246	0x3da96f7a	0.082732156
247	0x3d97adcd	0.07406197
248	0x3e07597c	0.1321773
249	0x3e26ca8c	0.16288203
250	0x3d9fea83	0.078084014
251	0x3b009016	0.0019617132
252	0xbd8c6c93	-0.068566464
253	0x3cda0732	0.02661476
254	0xbe598c1b	-0.21244852
255	0x3e0a3e23	0.13500266

model.7.bias f4 [10]
0	0xbd07d80e	-0.03316503
1	0xbc382bd2	-0.011240916
2	0xbdff0fbe	-0.124541745
3	0xbe0f7726	-0.14010295
4	0x3d3965cb	0.045263093
5	0x3dbfc733	0.09364166
6	0xbd802ec1	-0.062589176
7	0xbe40de2a	-0.18834749
8	0x3dd98e39	0.1062283
9	0xbd50f0cb	-0.051010888

exp_avg f4 [8, 1, 3, 3]
0	0xbe952690	-0.29130983
1	0xbda015a8	-0.078166306
2	0x3d00b088	0.031418353
3	0xbe53604a	-0.206422
4	0xbc86b403	-0.016443258
5	0x3d6fdd3a	0.058560587
6	0xbdea126c	-0.11429295
7	0x3ca320f7	0.01991318
8	0x3d91ff63	0.07128789
9	0x3ae9aa40	0.0017827228
10	0xbc25c4a6	-0.010117685
11	0xbbfcd0b7	-0.0077153104
12	0x39e0cb41	0.00042876045
13	0xbbb38792	-0.0054788077
14	0xbc832a10	-0.016011268
15	0xba9b17f8	-0.0011832705
16	0xbc8e7b6e	-0.01739284
17	0xbe98fe1a	-0.29881364
18	0xbde76a27	-0.11299544
19	0xbd8649f4	-0.06557074
20	0x3bf1b39e	0.0073761484
21	0xbe689ba6	-0.22715625
22	0xbe5054c2	-0.20344833
23	0xbdd6ad31	-0.104822524
24	0xbe909a1d	-0.2824258
25	0xbe759e51	-0.23986174
26	0xbe2d2c2e	-0.16911384
27	0xbdd8f17f	-0.10592937
28	0xbe0b79db	-0.13620703
29	0xbe12244a	-0.14271656
30	0x3cbed25e	0.02329367
31	0xbce5ee84	-0.028067835
32	0xbd8d261b	-0.06892034
33	0x3d1bccb1	0.038037006
34	0x3d886c70	0.06661308
35	0xbb11bc9d	-0.0022237666
36	0xbd6068e5	-0.054787535
37	0xbdaa5948	-0.0831781
38	0xbe0de312	-0.13856152
39	0xbdd5e889	-0.10444743
40	0xbd133ff9	-0.03594968
41	0xbd4bcaad	-0.049753834
42	0x3c621986	0.013800031
43	0x3d080918	0.033211797
44	0xbd82052e	-0.06348644
45	0xbe293f6a	-0.16528097
46	0xbb9977db	-0.0046834773
47	0x3d69dba0	0.057094216
48	0xbe2d1aa4	-0.16904694
49	0x3c4b208e	0.012397898
50	0x3d0f0d47	0.03492477
51	0xbe71ff73	-0.23632602
52	0xbd99404d	-0.074829675
53	0xbc726cd6	-0.014796456
54	0x3ddba2dd	0.10724423
55	0xbd218995	-0.03943785
56	0xbe32e0e4	-0.17468601
57	0xbbb55830	-0.0055341944
58	0xbdc6a07b	-0.09698578
59	0xbe61d74f	-0.2205479
60	0xbd464758	-0.048407882
61	0xbd56a80f	-0.052406367
62	0xbdf0242e	-0.11725651
63	0xbe79add5	-0.24382718
64	0xbe70a5f4	-0.23500806
65	0xbde462a7	-0.11151629
66	0xbe5a4c67	-0.21318208
67	0xbd3a6fe4	-0.045516863
68	0x3d6f259f	0.058385488
69	0xbdaca6c8	-0.084302485
70	0x3da4d0f5	0.08047668
71	0x3ddfbfdc	0.10925266

exp_avg_sq f4 [8, 1, 3, 3]
0	0x3d02fd0b	0.0319796
1	0x3c4452a0	0.01198259
2	0x3ac2405b	0.0014820205
3	0x3d463840	0.048393488
4	0x3c7a884b	0.015291284
5	0x3b1ce1ee	0.0023938376
6	0x3ce5bc76	0.028043967
7	0x3bfd341b	0.0077271587
8	0x3c13485c	0.00898942
9	0x3503ae8e	4.9055313e-07
10	0x38e29b7f	0.00010805483
11	0x3a52770c	0.00080286036
12	0x323481b6	1.0506872e-08
13	0x3753dcbc	1.2627974e-05
14	0x37a23bfd	1.933984e-05
15	0x331ef74e	3.7012164e-08
16	0x373410bd	1.0732733e-05
17	0x3b872e78	0.0041254126
18	0x3d63349a	0.055470087
19	0x3cf803b7	0.030275209
20	0x3d0879ec	0.0333194
21	0x3dc60dad	0.09670577
22	0x3da66140	0.08124018
23	0x3dbbe8bb	0.09175249
24	0x3dfbb676	0.12290661
25	0x3dd0435c	0.10169098
26	0x3dd745c4	0.105113536
27	0x3d453d47	0.04815414
28	0x3d011a64	0.03151931
29	0x3c81c68a	0.015841741
30	0x3c94f066	0.018181037
31	0x3c83558f	0.016032008
32	0x3c3910c1	0.011295498
33	0x3b927d98	0.0044705383
34	0x3c0bfb07	0.008543736
35	0x3b76c8d8	0.0037656333
36	0x3c9d0229	0.01916607
37	0x3c5c2423	0.01343635
38	0x3d1ed25e	0.03877484
39	0x3c2c0b71	0.010500775
40	0x3c7820e6	0.015144562
41	0x3d02a90c	0.031899497
42	0x3aa307e9	0.001243827
43	0x3b5357d9	0.0032248406
44	0x3cfee7a7	0.03111632
45	0x3c9121b5	0.017716268
46	0x3c74d22f	0.01494269
47	0x3babe5a5	0.0052458816
48	0x3cf08227	0.029358936
49	0x3bd2cc6a	0.0064330595
50	0x3a110e64	0.00055334554
51	0x3d32f45d	0.043690074
52	0x3c36ea8b	0.011164318
53	0x3af5bd70	0.0018748473
54	0x3d735c66	0.05941429
55	0x3d14e361	0.036349658
56	0x3d59aba3	0.0531422
57	0x3d90869a	0.07056923
58	0x3d977a89	0.073964186
59	0x3daa3281	0.08310414
60	0x3d8bbeb1	0.06823481
61	0x3d43e737	0.047827926
62	0x3d7db734	0.061942294
63	0x3da20e3d	0.07912872
64	0x3d9fdaa5	0.07805375
65	0x3d68f5f5	0.056875188
66	0x3db606c0	0.08888006
67	0x3d71d8ed	0.059044767
68	0x3cdce3ce	0.026964094
69	0x3d32901b	0.04359446
70	0x3c8c7929	0.017147617
71	0x3c363e91	0.011123315

exp_avg f4 [8]
0	0xbc201418	-0.009770416
1	0xbb1547a6	-0.0022778301
2	0x3b4e13d5	0.0031444926
3	0xb9e1dd73	-0.00043080337
4	0x3b1aef9d	0.0023641356
5	0xbc173069	-0.0092278505
6	0xba383759	-0.00070272904
7	0xbaf3de3c	-0.001860566

exp_avg_sq f4 [8]
0	0x37a2fac5	1.9428679e-05
1	0x34d8bcb0	4.0370423e-07
2	0x3820a994	3.8304905e-05
3	0x35ad6d49	1.2921311e-06
4	0x3806a530	3.2101932e-05
5	0x382e6edc	4.158808e-05
6	0x36930429	4.3814257e-06
7	0x3726fac6	9.952759e-06

exp_avg f4 [32, 8, 3, 3]
0	0x3b98df8b	0.0046653203
1	0xbcbc1a17	-0.02296166
2	0x3b166bdf	0.002295248
3	0xbc8c0fed	-0.017097438
4	0xbd043373	-0.03227563
5	0x3ca72781	0.02040458
6	0xbd3490fa	-0.044083573
7	0xbcbfae15	-0.023398438
8	0xbb7c4781	-0.0038494768
9	0x3b8a9fda	0.0042304816
10	0xba617eab	-0.0008601944
11	0xb93c3f7c	-0.00017952727
12	0x3ae1dd71	0.0017232132
13	0x3b86cc6b	0.004113724
14	0x3ab9488d	0.0014136002
15	0x3b16d8df	0.002301745
16	0x3afe0d12	0.0019382557
17	0xbad77d78	-0.0016440591
18	0x3c407f73	0.011749136
19	0xbc66f490	-0.014096394
20	0x3cbf10e7	0.02332349
21	0xbd0e1fdf	-0.034698363
22	0xbbc90f6b	-0.006135871
23	0x3bf231b5	0.0073911794
24	0xbda2a5cf	-0.07941782
25	0xbcec5c8f	-0.02885273
26	0x3cec2945	0.028828273
27	0x3d191c73	0.037380647
28	0x3c6e0a35	0.014528801
29	0x3d2f72ad	0.042833973
30	0x3d24c390	0.040225565
31	0x3ccd4014	0.025054969
32	0x3d116d78	0.03550479
33	0xbb95cb8f	-0.004571385
34	0xbc413701	-0.011792899
35	0xbc7edd57	-0.015555701
36	0x3ceee184	0.029160269
37	0x3bf52471	0.007481151
38	0x3abb282d	0.0014278941
39	0x3cb4a25f	0.02205008
40	0x3cdd77cd	0.027034665
41	0xbbc1605e	-0.0059013804
42	0xbb99cb64	-0.0046934355
43	0xbc01dfea	-0.00792692
44	0xbd33d1f6	-0.043901406
45	0x3c503015	0.012706776
46	0x3c6dd2aa	0.014515558
47	0x3c466a70	0.012110338
48	0xbc96bd63	-0.018400853
49	0x3b99c466	0.004692602
50	0x3cb3547b	0.02189087
51	0xbd01a4be	-0.03165125
52	0xbc21a62c	-0.009866279
53	0xbb2c7011	-0.0026311914
54	0x3c2350a5	0.009967958
55	0x3c38d017	0.011280081
56	0xbc52736b	-0.012844901
57	0xbc6af31c	-0.014340188
58	0x3c25bc38	0.010115676
59	0xbd489971	-0.048974458
60	0xbd1f5fc6	-0.038909696
61	0xbb9d4b46	-0.004800233
62	0xbd02c956	-0.03193029
63	0xbd330d0e	-0.04371362
64	0xbdbc9275	-0.09207622
65	0x3d0a61d0	0.033784688
66	0xbdbf3486	-0.0933619
67	0xbd3cff47	-0.04614189
68	0x3d1e22df	0.038607474
69	0xbde1ca76	-0.110249445
70	0xbd7176c6	-0.05895116
71	0xbb78d895	-0.003797089
72	0xb9320029	-0.00016975462
73	0xb91edd4c	-0.00015150494
74	0xbc82cd3c	-0.015967004
75	0xb93e0a9d	-0.00018123766
76	0xb8b3dfe3	-8.577087e-05
77	0xba8bcf21	-0.0010666588
78	0xba4faa2f	-0.00079217827
79	0xbbb739c8	-0.005591605
80	0xb9bd18e4	-0.00036067434
81	0x38612c55	5.3685468e-05
82	0xba447996	-0.00074949244
83	0xb8ff50eb	-0.0001217442
84	0x3880d76d	6.143642e-05
85	0x3a999729	0.0011718023
86	0xbbd7f1ad	-0.0065900893
87	0xba8605b0	-0.0010225084
88	0xbaf782a6	-0.0018883541
89	0xbbb6e670	-0.0055816695
90	0x39b9bc30	0.0003542616
91	0x3b6e2339	0.0036336912
92	0xbb7566a6	-0.0037445216
93	0xb8f2f3e5	-0.00011584888
94	0x3b2d51b8	0.0026446413
95	0xbc82d22e	-0.015969362
96	0x39b99a61	0.0003540097
97	0x3bbd7fc8	0.005783055
98	0xbc1a7181	-0.0094264755
99	0x3ba9915a	0.005174798
100	0xbbfdaa54	-0.007741252
101	0xbba5560f	-0.0050456594
102	0x334597ac	4.600558e-08
103	0xb3a0688e	-7.469599e-08
104	0xba00676a	-0.00048982224
105	0xb324e94c	-3.8396408e-08
106	0x3aaa2a1f	0.0012982524
107	0x3ba90be7	0.0051588896
108	0xbb242ba3	-0.0025050424
109	0xbb3c8469	-0.0028765446
110	0x39a133da	0.00030746945
111	0x38226d24	3.8725455e-05
112	0x3ab9c243	0.0014172274
113	0xbc8ef378	-0.01745008
114	0x38254d88	3.9411272e-05
115	0x3a2e00dd	0.0006637702
116	0xbc6dc5e8	-0.014512517
117	0xbaaec7c6	-0.0013334684
118	0xbb4e8008	-0.0031509418
119	0x387007bd	5.7227666e-05
120	0xb9a56c34	-0.0003155187
121	0xb95953b3	-0.00020725913
122	0x3a4ad851	0.0007737922
123	0xbbde8b1c	-0.0067914855
124	0xbc923ba7	-0.01785071
125	0xbb1e68a0	-0.0024171248
126	0xbb1db899	-0.0024066328
127	0xbc043d65	-0.008071278
128	0x3b2d6d2b	0.0026462774
129	0x36b745e0	5.4619595e-06
130	0x3a476023	0.0007605573
131	0xbcbbdc1d	-0.022932107
132	0xba107ef3	-0.0005512081
133	0x3b6c3de7	0.003604764
134	0xbcb6fa22	-0.02233607
135	0x38530d8b	5.0318933e-05
136	0xbbcde3f6	-0.0062832786
137	0x3c28f58d	0.01031245
138	0xb9a66eee	-0.00031744636
139	0x390ac350	0.00013233465
140	0x3b1ca42b	0.0023901563
141	0xbb803f2d	-0.003913781
142	0xbcad134d	-0.021127367
143	0xbb0eae84	-0.00217715
144	0xbca819f8	-0.020520195
145	0xbc214ac5	-0.009844487
146	0xbbf16006	-0.007366183
147	0xbc0027e5	-0.007822012
148	0xbce1dba5	-0.027570555
149	0xbb009bea	-0.0019624182
150	0xbcacf179	-0.021111237
151	0xbd505991	-0.050866667
152	0xbb19599f	-0.0023399366
153	0xbac11718	-0.0014731614
154	0xba5ee7b1	-0.00085031526
155	0x3ba98178	0.0051729046
156	0xbbb153a0	-0.00541158
157	0xbafa3948	-0.0019090557
158	0xbb1676d1	-0.0022959004
159	0xbb5be4cf	-0.0033553129
160	0xbbb31af9	-0.005465862
161	0xbb6690b2	-0.003518146
162	0x3cf70393	0.030153072
163	0xbc0b1a6d	-0.008490187
164	0xbc841bfb	-0.016126623
165	0x3db752ef	0.08951365
166	0x3d0a25bd	0.033727396
167	0x3d191278	0.03737113
168	0x3bda0daf	0.0066544632
169	0xbd5ef612	-0.05443389
170	0x3d4f0637	0.050543036
171	0xbc3f9370	-0.011692867
172	0xbbb80085	-0.0056152963
173	0x3ce54dab	0.027991137
174	0x3c307247	0.010769433
175	0x3b8b483f	0.0042505558
176	0xbc1d661f	-0.009606867
177	0x3cea5a98	0.028607652
178	0x3cac84b4	0.021059372
179	0x3cddcddf	0.027075706
180	0xbb81cdf7	-0.0039613205
181	0x3c21b574	0.009869922
182	0x399fe993	0.0003050087
183	0x3cdb1a42	0.02674592
184	0xbb11f687	-0.0022272186
185	0xbc522bde	-0.012827842
186	0x3c807076	0.015678626
187	0x3c6995ad	0.014256877
188	0x3b7f1796	0.003892397
189	0xbd26c41f	-0.04071438
190	0xbcf3db84	-0.02976776
191	0x3ab2f60f	0.0013653653
192	0xbc5d610c	-0.013511907
193	0xbd3553a6	-0.044269226
194	0x3c1d4abd	0.0096003385
195	0xbc44c38a	-0.012009511
196	0xbdf2e5d5	-0.11860243
197	0x3c25066c	0.010072332
198	0x3ae0d59d	0.0017153505
199	0xbc94f8ee	-0.018185105
200	0xbd37714d	-0.044785786
201	0x3cc5bd45	0.024138102
202	0x3b5716e6	0.0032820045
203	0x3a629779	0.0008643787
204	0x3cb4000f	0.021972684
205	0xbbe85194	-0.007089803
206	0x3c56897b	0.013094301
207	0xbcb5a1f4	-0.022171952
208	0x3abfb128	0.001462494
209	0x3ab2ba1a	0.0013635785
210	0x3d750a1d	0.059824098
211	0xbda52011	-0.08062757
212	0x3c78279b	0.015146161
213	0x3d493475	0.049122293
214	0xbda3c0ff	-0.079957955
215	0x3ddff53a	0.10935445
216	0x3b907a0b	0.00440908
217	0xbcd3e54a	-0.02586617
218	0xbc4351c8	-0.011921354
219	0x3cf8c051	0.030365141
220	0xbceabc1e	-0.028654154
221	0xbb8898f5	-0.0041686245
222	0xbc0cba77	-0.008589379
223	0x3ba38c8d	0.00499112
224	0xbcf7c17d	-0.03024363
225	0x3b195d36	0.0023401505
226	0x3a8ba7d3	0.0010654874
227	0x3b61a972	0.0034433273
228	0x3a437d3e	0.0007457322
229	0x3ba39c70	0.004993014
230	0x3b9335fe	0.0044925204
231	0x3b8ece27	0.0043580714
232	0x3b4f7ca6	0.003165999
233	0x3b129d60	0.0022371635
234	0x3cf2d1c0	0.029641032
235	0x3d088598	0.03333053
236	0x3ddb2c3a	0.10701795
237	0x3d60361a	0.054739095
238	0xbc1324d3	-0.008980948
239	0x3d0befb3	0.034164142
240	0x3d85e8f6	0.065385744
241	0x3ccccbc5	0.024999509
242	0x3d9e358a	0.077250555
243	0xbc4ec2c1	-0.012619675
244	0x3b0bf864	0.002135777
245	0x3d01ead3	0.031718086
246	0x3cdf74b2	0.027277324
247	0x3cfdf6ec	0.03100153
248	0x3d65260a	0.05594448
249	0xbcc34bc0	-0.023839831
250	0xbb4bbd68	-0.0031088237
251	0xbaf8b591	-0.001897501
252	0x3cbb7564	0.022883125
253	0x3c997a94	0.018735208
254	0x3cf9ff58	0.030517265
255	0x3d0605d3	0.0327204

exp_avg_sq f4 [32, 8, 3, 3]
0	0x39d02ce0	0.00039706286
1	0x3a9e55fe	0.0012080071
2	0x3aaf087d	0.001335397
3	0x39a9d65d	0.00032393905
4	0x3a982cb3	0.0011610001
5	0x3a5b8a21	0.000837477
6	0x3a920035	0.0011138978
7	0x39ef7bdd	0.00045677918
8	0x3a74a820	0.0009332914
9	0x3570a48c	8.9646414e-07
10	0x34d1cba6	3.9077457e-07
11	0x3454a6aa	1.980467e-07
12	0x3516180a	5.5914336e-07
13	0x35b5a11a	1.3532438e-06
14	0x3550d146	7.779057e-07
15	0x35b681b9	1.3597811e-06
16	0x352d6711	6.4597504e-07
17	0x35079540	5.0508606e-07
18	0x3cd20740	0.025638223
19	0x3d04e109	0.032441173
20	0x3cf9446f	0.03042814
21	0x3c31ced2	0.010852532
22	0x3c807f59	0.015685724
23	0x3c9d2fbc	0.0191878
24	0x3c45f684	0.0120827
25	0x3c826988	0.015919462
26	0x3d03abf2	0.0321464
27	0x3b211e04	0.002458454
28	0x3b17f5e9	0.0023187345
29	0x3b941ca0	0.004520014
30	0x3b9a5d84	0.004710855
31	0x3bbd5ba7	0.005778748
32	0x3b87cfb8	0.004144635
33	0x3aff46b1	0.0019476024
34	0x3b035858	0.002004167
35	0x3aa79f32	0.0012788533
36	0x3a3d395d	0.00072183256
37	0x3a7e4541	0.00096996507
38	0x3a986e73	0.0011629596
39	0x3ab2c9e9	0.0013640496
40	0x3acefe1b	0.0015792282
41	0x3a369542	0.000696499
42	0x39df39b8	0.00042576878
43	0x3a5500d4	0.00081254286
44	0x3a44d15a	0.00075080025
45	0x399f3164	0.00030363642
46	0x3a8002b8	0.0009766435
47	0x3aca656c	0.0015441603
48	0x392d68ef	0.00016537656
49	0x39e531f7	0.0004371551
50	0x3a92ed1a	0.0011209578
51	0x3a9d5ab4	0.0012005181
52	0x39a74fc7	0.0003191216
53	0x3a9f85fb	0.0012170667
54	0x3bf8c7b3	0.0075921654
55	0x3c2ef269	0.010677912
56	0x3c269b5a	0.010168875
57	0x3bc05169	0.00586908
58	0x3be88e84	0.0070970673
59	0x3bd2273f	0.00641337
60	0x3b5f2fd5	0.003405561
61	0x3baad6ef	0.0052136104
62	0x3bf45d52	0.0074574137
63	0x3c8099f1	0.015698405
64	0x3d25ee12	0.040510245
65	0x3d38de65	0.045133967
66	0x3cec5c7c	0.028852694
67	0x3d136590	0.03598553
68	0x3d02b04a	0.031906404
69	0x3cbd9a9f	0.023145018
70	0x3c485550	0.012227371
71	0x3cb46481	0.02202058
72	0x34081956	1.2675204e-07
73	0x33cc1c06	9.504588e-08
74	0x388adea3	6.621822e-05
75	0x34c2eb3b	3.630647e-07
76	0x34a6e38e	3.1085477e-07
77	0x3635afb4	2.7073374e-06
78	0x382f5e62	4.1811152e-05
79	0x38d4d03f	0.000101477366
80	0x383b476d	4.4650795e-05
81	0x32de44da	2.5875512e-08
82	0x344a6fbf	1.8853369e-07
83	0x33023619	3.0317185e-08
84	0x315c7402	3.2080156e-09
85	0x33b66a06	8.494321e-08
86	0x365c4681	3.2823593e-06
87	0x3394f2c5	6.9359466e-08
88	0x3523b735	6.0988833e-07
89	0x3604469e	1.9710637e-06
90	0x362b763a	2.5549803e-06
91	0x37baf762	2.2288124e-05
92	0x39cd6ae5	0.0003918029
93	0x36883806	4.059638e-06
94	0x36dcbb84	6.5783406e-06
95	0x3999675e	0.0002925945
96	0x3b81fad2	0.0039666677
97	0x3ba27658	0.0049579553
98	0x3c278cab	0.010226409
99	0x390d29b0	0.00013462338
100	0x3a43ab6b	0.0007464203
101	0x3b04446b	0.0020182382
102	0x32b724b4	2.1320695e-08
103	0x33db68c2	1.02170375e-07
104	0x374e972f	1.2313757e-05
105	0x3246f408	1.1580603e-08
106	0x348ffcce	2.6819765e-07
107	0x372a27a8	1.0142023e-05
108	0x383e3126	4.5345303e-05
109	0x394c9bf6	0.00019513056
110	0x399fb806	0.0003046395
111	0x33e84b89	1.08170816e-07
112	0x364a36d7	3.0132267e-06
113	0x38ab7ba5	8.176946e-05
114	0x35e96886	1.7390273e-06
115	0x37b06f99	2.1032802e-05
116	0x3951157f	0.00019939801
117	0x35d892c3	1.6135967e-06
118	0x3724de56	9.826928e-06
119	0x36868543	4.009025e-06
120	0x3653e3be	3.1574014e-06
121	0x35865285	1.0007794e-06
122	0x35e4c3ae	1.7044274e-06
123	0x39382dd2	0.00017564677
124	0x39fe0121	0.00048447496
125	0x390754fd	0.00012906264
126	0x37c36563	2.3293023e-05
127	0x3986ccfc	0.00025711197
128	0x3a35a9f2	0.0006929926
129	0x3482c645	2.4358647e-07
130	0x353cd4d1	7.0345146e-07
131	0x389938b3	7.3061696e-05
132	0x39a7ec0e	0.00032028597
133	0x3a0a8676	0.00052843185
134	0x3ae15c75	0.0017193692
135	0x39b8af65	0.00035225894
136	0x3ae81ae1	0.0017708206
137	0x3b7f1cb3	0.0038927018
138	0x367249e4	3.610382e-06
139	0x367af03c	3.7392738e-06
140	0x38856f1b	6.362629e-05
141	0x3888395a	6.495668e-05
142	0x39fcaa24	0.0004819195
143	0x395aa65c	0.00020852074
144	0x3a1b5faf	0.0005927039
145	0x3a0f0947	0.00054563995
146	0x3aa012d1	0.0012212639
147	0x3a89f510	0.0010525305
148	0x3aed8b83	0.0018123243
149	0x3b01d1f2	0.0019808975
150	0x3ac75747	0.0015208506
151	0x3b805f46	0.0039176075
152	0x3b5d5796	0.003377413
153	0x358166d0	9.641171e-07
154	0x3597ae9f	1.1301198e-06
155	0x3659b452	3.244048e-06
156	0x361b4d88	2.314193e-06
157	0x360a4280	2.060231e-06
158	0x35064d97	5.00318e-07
159	0x35c88824	1.4940783e-06
160	0x35ebac4b	1.7559008e-06
161	0x3549672f	7.5028487e-07
162	0x3ce52ba6	0.027974915
163	0x3cd7165f	0.026255785
164	0x3d1ee815	0.03879555
165	0x3d86d75c	0.06584045
166	0x3d9f9940	0.07792902
167	0x3d9b1a41	0.07573367
168	0x3db8e9f6	0.090289995
169	0x3de20001	0.11035157
170	0x3dc64367	0.09680825
171	0x3a811b21	0.0009850004
172	0x3adf23aa	0.0017024179
173	0x3bc46919	0.005993974
174	0x3b0262f0	0.0019895397
175	0x3aefe480	0.0018302351
176	0x3b0cd309	0.0021488091
177	0x3bcd92b6	0.006273593
178	0x3c053a7f	0.008131622
179	0x3c30ce79	0.010791414
180	0x3a0100c6	0.0004921075
181	0x3a7fce26	0.00097581965
182	0x3add0a39	0.0016864009
183	0x3abeb806	0.0014550693
184	0x3a61039a	0.00085836055
185	0x3a4dca4c	0.0007850274
186	0x3b14fba2	0.0022732993
187	0x3b151e84	0.0022753784
188	0x3b4fda15	0.003171568
189	0x3acc1687	0.0015570679
190	0x3ad19a71	0.0015991462
191	0x3ae8f492	0.0017773083
192	0x3ae7b225	0.0017676993
193	0x3b66087a	0.0035100267
194	0x3b74b9d9	0.003734222
195	0x3ab01a3b	0.0013435552
196	0x3bd27853	0.006423035
197	0x3b5404c1	0.0032351466
198	0x3bcb7252	0.0062086964
199	0x3bfed2f7	0.007776614
200	0x3c55acc7	0.013041682
201	0x3c6031bb	0.013683732
202	0x3c759123	0.014988217
203	0x3c866389	0.016404884
204	0x3cd3ab81	0.025838615
205	0x3d00ceac	0.031447098
206	0x3ce8cf30	0.028419107
207	0x3c9907a7	0.018680407
208	0x3d0699cb	0.032861512
209	0x3d66019e	0.056153886
210	0x3d0831f1	0.033250753
211	0x3d3bfb17	0.045893755
212	0x3d8ff742	0.070295826
213	0x3d7998a3	0.06093658
214	0x3dfe2f9d	0.12411425
215	0x3dfb5781	0.122725494
216	0x3b2bce83	0.002621562
217	0x3b90f0f4	0.004423255
218	0x3b058622	0.002037414
219	0x3b51a3b2	0.003198844
220	0x3b2e77a1	0.0026621597
221	0x3a2352bf	0.00062302867
222	0x3b9ba0de	0.0047494015
223	0x3aa6bdd0	0.0012721363
224	0x3a32a2f7	0.0006814445
225	0x34ef8196	4.4611505e-07
226	0x34994044	2.854523e-07
227	0x35491b5f	7.4918165e-07
228	0x33c2b65a	9.0669985e-08
229	0x3609087b	2.0419527e-06
230	0x35bb8caa	1.3973524e-06
231	0x35a75a26	1.2468706e-06
232	0x359de024	1.1762645e-06
233	0x359da01f	1.1744013e-06
234	0x3e009a7c	0.12558931
235	0x3dcd1389	0.10013492
236	0x3d8ad8e7	0.06779652
237	0x3d99e1b4	0.075137526
238	0x3d0914ab	0.033466976
239	0x3c8bb564	0.017054267
240	0x3d99bb2a	0.07506402
241	0x3d16f924	0.036858693
242	0x3cbc9e40	0.023024678
243	0x3c258b80	0.01010406
244	0x3c4b8d76	0.012423864
245	0x3c39373e	0.011304675
246	0x3c81ed9f	0.015860377
247	0x3ca0b78a	0.019618768
248	0x3c335523	0.010945591
249	0x3c32e32c	0.01091842
250	0x3b84aa0e	0.0040485924
251	0x3a679ce8	0.00088353315
252	0x3b225d54	0.0024774866
253	0x3b489597	0.003060674
254	0x3b7078b0	0.003669303
255	0x3b56ee59	0.0032795875

exp_avg f4 [32]
0	0xbb9c2f49	-0.004766379
1	0xba30448e	-0.00067240826
2	0xbb6234f3	-0.0034516423
3	0xbbf59a1e	-0.007495179
4	0xb981f345	-0.00024786047
5	0x38a4cc4b	7.858182e-05
6	0xba179443	-0.00057822856
7	0x39637cd9	0.00021694916
8	0xb9a8a0f7	-0.00032163385
9	0x39a514b3	0.00031486675
10	0xbb1399cc	-0.002252209
11	0xbbf32754	-0.0074204598
12	0xbbc609a6	-0.0060436307
13	0x39c12441	0.0003683884
14	0x399d71bc	0.00030030112
15	0x3acb68a5	0.0015518857
16	0xba998360	-0.0011712126
17	0x3b660960	0.0035100803
18	0x3b4c00ae	0.0031128335
19	0x3b42bc7f	0.0029714403
20	0x3b2584db	0.002525619
21	0x383bc5e1	4.4768563e-05
22	0xba9734a0	-0.0011536069
23	0xb8b5facd	-8.677468e-05
24	0x3a571e1e	0.0008206087
25	0xbac70325	-0.0015183432
26	0xba044662	-0.0005045888
27	0xbbbae443	-0.0057034804
28	0xba948182	-0.00113301
29	0x3b45319d	0.0030089386
30	0xbb2b422e	-0.0026131975
31	0x39b4c2a8	0.00034477306

exp_avg_sq f4 [32]
0	0x37e99d09	2.784889e-05
1	0x3647656b	2.9712344e-06
2	0x384129ba	4.6053647e-05
3	0x388c5916	6.692314e-05
4	0x36c5823d	5.8862192e-06
5	0x3650fd34	3.11418e-06
6	0x371f571a	9.497418e-06
7	0x36a7d0a5	5.0012773e-06
8	0x376115cb	1.3416119e-05
9	0x36b3e74d	5.3615427e-06
10	0x3736d975	1.0898676e-05
11	0x38810566	6.152205e-05
12	0x38478ce7	4.7576523e-05
13	0x3827fa05	4.004875e-05
14	0x366cdf25	3.5296628e-06
15	0x3696ab6c	4.4903045e-06
16	0x37cccc6d	2.4413888e-05
17	0x383731c4	4.3676948e-05
18	0x3891684c	6.9335656e-05
19	0x37dd0fd5	2.6352625e-05
20	0x37d1acb8	2.499517e-05
21	0x34da7798	4.069268e-07
22	0x3714bee6	8.865934e-06
23	0x387e8fcf	6.069225e-05
24	0x38c6698e	9.461037e-05
25	0x3697fe8c	4.529784e-06
26	0x36847887	3.947938e-06
27	0x37ca0071	2.4080482e-05
28	0x377ef283	1.5196044e-05
29	0x386ada3d	5.5993198e-05
30	0x37193f11	9.134194e-06
31	0x37d6261c	2.5528534e-05

exp_avg f4 [10, 32]
0	0xbd7a290c	-0.0610743
1	0x3c927b9b	0.017881205
2	0xbc42fd8a	-0.011901269
3	0xbd0b4fef	-0.034011777
4	0xbb55c026	-0.003261575
5	0xbca52ecc	-0.020163916
6	0x3d81c85d	0.063370444
7	0x3b75fc8d	0.0037534565
8	0xbc7763b6	-0.0150994565
9	0x3d998848	0.07496697
10	0xbc4727b3	-0.012155461
11	0xbb30b163	-0.00269612
12	0xbd49b3d2	-0.049243756
13	0xbd0864ce	-0.03329926
14	0x3c55eb97	0.013056657
15	0xbb83c8ff	-0.0040217633
16	0xbd0215e6	-0.031759165
17	0xbda3ac85	-0.0799189
18	0xbc82ec2e	-0.01598176
19	0x3cee1f27	0.029067589
20	0xbd23e7c1	-0.04001594
21	0xbd0b533a	-0.034014918
22	0xbc877ec1	-0.016539933
23	0x3c80ad76	0.015707713
24	0xbde4495d	-0.111468054
25	0x3cc67e23	0.024230069
26	0xbaded8d9	-0.0017001881
27	0x3ce48c2d	0.027898872
28	0xbdb21f38	-0.08697361
29	0xbc52f661	-0.012876124
30	0xbb6d0b6d	-0.003617014
31	0xbbabc74c	-0.005242264
32	0xbdd4184d	-0.103561975
33	0xbd364278	-0.044496983
34	0xbdc76c20	-0.0973742
35	0xbdf1d56a	-0.118082836
36	0xbd7485a4	-0.059697762
37	0x3d032584	0.0320182
38	0xbd7d4fcd	-0.061843682
39	0x3d003ca7	0.031307843
40	0xbcf3f0d3	-0.02977792
41	0x3c2bf464	0.010495279
42	0xbd6c82e4	-0.057742015
43	0xbc658126	-0.014007842
44	0xbd34a3f1	-0.04410166
45	0xbcb5ba6f	-0.022183625
46	0xbd848b60	-0.06471896
47	0x3e0e1e10	0.13878655
48	0x3d4810cf	0.048844155
49	0xbd98afe7	-0.07455426
50	0x3d402822	0.046913274
51	0xbdb5991e	-0.088670954
52	0x3e21f059	0.15814342
53	0x3dfcfbb8	0.12352699
54	0x3c4aeb87	0.012385256
55	0x3ca3ab83	0.019979244
56	0x3d17ca6d	0.037058283
57	0x3cc187ac	0.023624264
58	0xbdb75998	-0.089526355
59	0xbe31deaa	-0.17370096
60	0xbd3410f8	-0.043961495
61	0x3d912714	0.07087532
62	0xbd52b857	-0.05144533
63	0x3cffd972	0.031231616
64	0x3ce91f6b	0.028457364
65	0xbbc177c9	-0.005904172
66	0xbd03dfad	-0.032195736
67	0x3c12c702	0.00895858
68	0x3c748098	0.014923237
69	0xbc93d53c	-0.018046014
70	0xbd5428a0	-0.051796556
71	0xbd15e45e	-0.03659474
72	0x3d1ce5e6	0.038305186
73	0x3c9e22b2	0.019303653
74	0x3c466805	0.012109761
75	0xbd158301	-0.03650189
76	0x3cfe6d26	0.031057905
77	0x3c94bbeb	0.018156013
78	0x3b8056bd	0.00391659
79	0xbda8bab3	-0.08238735
80	0xbcb2ed27	-0.021841599
81	0xbcc02ffa	-0.023460377
82	0xbd21bc40	-0.03948617
83	0x3d88a64f	0.06672346
84	0xbd528853	-0.05139954
85	0xbd02df96	-0.03195151
86	0xbb1224b1	-0.0022299702
87	0x3b4e52b9	0.0031482412
88	0x3b58a00f	0.0033054387
89	0x3b136e83	0.002249629
90	0x3d563ea6	0.05230584
91	0xbd0e9617	-0.034811106
92	0xbceab3c8	-0.02865018
93	0xbc4bde7d	-0.012443182
94	0x3c46f48f	0.012143268
95	0xbcd28b6e	-0.02570125
96	0x3e131d28	0.14366591
97	0x3b1eece2	0.002425008
98	0xbda3780e	-0.07981883
99	0x3ccc7959	0.024960207
100	0x3c2bb06b	0.010479073
101	0x3c8fbb20	0.017545283
102	0x3d49005f	0.04907262
103	0xbd540c61	-0.051769618
104	0xbd8cc666	-0.06873779
105	0xbd61481c	-0.05500041
106	0x3de9ef34	0.114225775
107	0x3d10a3b1	0.03531236
108	0x3db436e5	0.08799533
109	0xbda36f7e	-0.0798025
110	0x3bc808ba	0.006104556
111	0x3db38fc7	0.08767658
112	0x3d4d054f	0.05005389
113	0xbe1053cc	-0.14094466
114	0x3cfeaeac	0.03108915
115	0xbd38c9a6	-0.045114182
116	0xbd1321e3	-0.03592099
117	0x3c9e627e	0.019334074
118	0x3c55dafb	0.013052697
119	0xbe0e05c7	-0.13869391
120	0x3de09672	0.10966195
121	0x3bdb1e2a	0.0066869454
122	0xbcb56bc1	-0.022146108
123	0x3db31861	0.08744884
124	0xbd124d98	-0.03571853
125	0x3cff13b4	0.031137325
126	0x3d2a1ff7	0.04153439
127	0x3d3b7b4f	0.045771893
128	0xbdcdd8ee	-0.10051142
129	0xbbf2dc3d	-0.0074115084
130	0x3d493972	0.04912705
131	0xbc98a5cb	-0.018633744
132	0x3ce2df8a	0.027694482
133	0x3d03f3a9	0.032214794
134	0x3c56b23c	0.013104018
135	0x3d5d6684	0.054052845
136	0xbaac9456	-0.0013166766
137	0xbcf4e92d	-0.029896343
138	0xbe5452b1	-0.2073467
139	0x3bcf2784	0.0063218493
140	0xbe189cf1	-0.14903618
141	0x3da9fe29	0.0830043
142	0xbc0f3d59	-0.008742654
143	0x3e1924b3	0.14955406
144	0xbd84cdb9	-0.06484551
145	0x3e351c49	0.17686571
146	0x3cdc2337	0.02687226
147	0xbdbb244d	-0.09137783
148	0x3dde58d4	0.10856786
149	0xbced21b0	-0.028946728
150	0x3ad829f5	0.0016491996
151	0x3bca3bd0	0.006171681
152	0x3d816a2a	0.06319077
153	0xbbcb3802	-0.006201745
154	0x3d2550c5	0.04036023
155	0xbccefe44	-0.025267728
156	0x3e6afbe7	0.22947656
157	0xbd0922b3	-0.033480357
158	0xbd80abec	-0.062827915
159	0xbcb90ca8	-0.022589043
160	0x3d0b1e74	0.03396459
161	0x3b2f9158	0.0026789512
162	0x3d7601f8	0.06006047
163	0x3d34cf60	0.04414308
164	0xbb37ea7f	-0.0028063355
165	0xbce191c6	-0.02753533
166	0x3d4cc4be	0.049992315
167	0x3cda1b5a	0.02662437
168	0x3dd32ca3	0.10311248
169	0xbd737aec	-0.0594434
170	0x3cd4b374	0.025964476
171	0xbd083a54	-0.03325875
172	0x3db56b72	0.08858384
173	0x3baa81d2	0.005203464
174	0x3c426ef9	0.011867278
175	0xbcbc2b32	-0.022969816
176	0x3d581325	0.052752633
177	0x3e12a8d1	0.14322211
178	0xbd040815	-0.03223427
179	0x3d07097c	0.03296803
180	0x3d830160	0.06396747
181	0xbdc70fac	-0.09719786
182	0xbcb1d481	-0.021707775
183	0xbc22290a	-0.00989748
184	0xbbf49f20	-0.0074652582
185	0xbd5ecacd	-0.054392625
186	0xbd45717e	-0.048203938
187	0x3d312601	0.043249134
188	0x3d176761	0.036963824
189	0xbc859de5	-0.016310642
190	0xbc26600c	-0.010154735
191	0x3a73556c	0.0009282443
192	0x3bdd1a66	0.0067475317
193	0x3be89b8d	0.007098621
194	0x3d878107	0.06616407
195	0x3cd4557a	0.025919665
196	0x3c896184	0.016770132
197	0xbd6ffe3f	-0.058592077
198	0x3be6c84f	0.0070429216
199	0x3cbd777b	0.023128262
200	0x3b016896	0.0019746176
201	0x3da91aa2	0.08257033
202	0x3d21ffef	0.039550718
203	0xbc40b946	-0.011762923
204	0xbc165abd	-0.009176907
205	0xbab3a58b	-0.0013705952
206	0x3ca559de	0.020184454
207	0xbdb0e93f	-0.08638238
208	0xbd591c15	-0.053005297
209	0xbb946b6f	-0.0045294086
210	0xbbc8a5e4	-0.0061232913
211	0x3d01da5f	0.031702396
212	0xbde817ba	-0.113326505
213	0xbce266fb	-0.027636996
214	0xbc94165c	-0.018077068
215	0x3da0d08d	0.07852278
216	0x3c8fc325	0.017549107
217	0x3ce9d511	0.02854398
218	0x3d826f13	0.06368842
219	0x3c881552	0.016611729
220	0x3d0c52b8	0.034258574
221	0x3bc6bd70	0.006065063
222	0x3d44ccab	0.04804675
223	0xbc47cfef	-0.012195571
224	0x3c07d1d2	0.008289771
225	0x3bb7f496	0.0056138737
226	0x3c913b28	0.017728403
227	0xbc01a2d5	-0.007912357
228	0xbbfa43cb	-0.007637476
229	0xbc28a69c	-0.010293629
230	0xbd7f67a2	-0.06235469
231	0xbd507b8b	-0.05089907
232	0xbd512c8d	-0.051067878
233	0xba2b15d7	-0.0006526387
234	0x3c93577f	0.017986057
235	0x3c198925	0.009371077
236	0x3bcbeb8f	0.006223149
237	0x3c1bd60b	0.009511481
238	0x3c18947c	0.009312745
239	0xbcd101b3	-0.025513506
240	0xbbf7d726	-0.0075634895
241	0xbce26873	-0.027637696
242	0x3abcf048	0.0014414871
243	0x3d33c029	0.04388443
244	0xbc78e7a0	-0.015191942
245	0x3cef610d	0.029221082
246	0x3b70c7cc	0.0036740182
247	0x3bbe0353	0.005798736
248	0xbd886135	-0.06659166
249	0xbccdaa7b	-0.025105705
250	0xba9d7a86	-0.0012014664
251	0x3c04ea6f	0.008112534
252	0xbd28d8c2	-0.04122234
253	0xbc2435fc	-0.0100226365
254	0x3d1311cb	0.03590564
255	0xbd805b83	-0.062674545
