{{cookiecutter.project_slug}}/exp1/lightning_logs/version_40/checkpoints/epoch=99-step=100.ckpt (torch, 42138 bytes, 18 tensors)

model.0.weight f4 [8, 1, 3, 3]
-0.12122962 -0.3197024 -0.037225414 0.033110913 -0.13548957 0.33808196 0.12992771 -0.23515627
-0.025069483 -0.00061851484 -0.00799948 0.111311205 0.12665819 0.013941336 -0.11956931 0.2677657
-0.021649381 0.23973043 0.015694175 0.20789349 0.1147377 0.19750065 -0.3270875 -0.02401484
-0.06654023 -0.2647153 -0.28247136 0.07338124 0.116228335 0.013434556 0.051207118 0.18824318
0.11015489 0.0745401 -0.09067287 -0.0075896354 -0.08126786 0.21625018 0.18160279 0.1861719
0.04368588 0.19852285 -0.2139775 0.08174803 -0.049907226 0.07841483 0.21210752 -0.33445495
-0.007836228 -0.05221556 -0.34655625 0.22351763 0.09432718 0.17101431 0.29069322 0.22368029
0.16656715 0.2393041 0.30607048 0.055621818 -0.28508398 0.03684588 0.12777804 0.26254582
0.18672279 0.27337494 -0.13325524 0.1913577 -0.22736154 0.2817269 0.09664342 -0.29270408
00000000: 3c47 f8bd 08b0 a3be ad79 18bd 4f9f 073d
00000010: c7bd 0abe 1419 ad3e c50b 053e cecc 70be
00000020: 845e cdbc d423 22ba 4010 03bc 21f7 e33d
00000030: afb2 013e 346a 643c c1e0 f4bd 9618 893e
00000040: 0b5a b1bc e57b 753e 1291 803c 08e2 543e
00000050: 99fb ea3d 9c3d 4a3e 0378 a7be c5ba c4bc
00000060: 3e46 88bd c488 87be 16a0 90be e748 963d
00000070: 1f09 ee3d 9d1c 5c3c 8ebe 513d d2c2 403e
00000080: e398 e13d 7ba8 983d b3b2 b9bd 7ab2 f8bb
00000090: c46f a6bd b070 5d3e 15f6 393e d9a3 3e3e
000000a0: f7ef 323d 9349 4b3e eb1c 5bbe 836b a73d
000000b0: 856b 4cbd f497 a03d b732 593e ae3d abbe
000000c0: 8663 00bc fcdf 55bd d26f b1be cee1 643e
000000d0: 9c2e c13d 601e 2f3e bed5 943e 720c 653e
000000e0: 9490 2a3e 220c 753e 45b5 9c3e b4d3 633d
000000f0: 87f6 91be b5eb 163d 3fd8 023e 686c 863e
00000100: 4234 3f3e cdf7 8b3e 1074 08be 46f3 433e
00000110: 77d1 68be 823e 903e fcec c53d 4fdd 95be

model.0.bias f4 [8]
-0.09655966 0.03852064 -0.13158998 0.039240267 -0.28911233 0.08386141 0.029586457 0.015249339
00000000: 12c1 c5bd d2c7 1d3d 86bf 06be 67ba 203d
00000010: 8806 94be 88bf ab3d 4c5f f23c 5dd8 793c

model.3.weight f4 [32, 8, 3, 3]
0.027673563 0.09301217 -0.03788831 0.03110979 -0.060753584 -0.053050753 0.10093101 0.08065756
0.13611689 0.08021294 -0.075037494 -0.045727555 -0.051724095 -0.118120536 0.09582122 -0.016375182
-0.011065474 0.09206317 -0.026290705 -0.023087509 0.08043399 0.11345496 -0.13583988 0.07364231
-0.061216366 0.05980883 0.07481858 -0.026087914 0.029684281 -0.03200539 -0.018927617 0.07430522
0.019858828 -0.13097061 0.105806544 -0.055309363 0.018066686 0.10002912 -0.034993667 0.01396907
-0.0031277658 -0.057161663 0.08606213 -0.117183164 0.023933837 -0.07217845 0.011824576 0.037935406
-0.026658174 -0.0438286 0.10314903 -0.027446272 0.056804664 -0.005130414 -0.030322647 0.019059956
-0.056173623 -0.030893952 -0.11829793 -0.07495033 -0.029844359 -0.037910294 -0.10059482 -0.05434816
0.10406655 0.093069494 -0.07424724 -0.08243261 0.106692106 -0.06376903 -0.08731597 -0.03467485
0.07082554 0.08736342 -0.035304334 0.055254072 0.13501783 -0.04167358 -0.07463204 0.12398633
-0.0891268 -0.0670943 0.034262575 -0.0013478566 0.015110401 0.06036599 0.018997373 0.083221346
0.08411443 0.024917208 -0.0106892185 0.06948068 0.03327641 0.12850724 0.023608524 0.11209076
-0.020667601 -0.017087523 -0.0210296 -0.02788628 -0.01976333 -0.032053772 0.08876706 -0.064514525
0.015542854 0.007130245 -0.09011127 0.07775023 -0.029539786 -0.008904252 -0.110997975 0.024390295
0.10768329 0.11708259 0.089457914 -0.07903896 -0.006019346 0.1003503 -0.016864326 0.007617549
0.09531798 -0.0041352697 -0.04115526 0.008322919 -0.0755094 0.054634597 -0.103484236 0.0015153656
0.08183156 0.025594855 -0.0049097226 0.09353569 0.015310952 -0.0510183 0.043875825 0.06184455
-0.107836284 0.082034595 -0.038294677 -0.08852155 0.034776762 0.088669546 0.10511632 -0.03707558
0.13674402 -0.08085128 -0.081780866 -0.07704955 0.1349492 0.043307986 -0.09208103 0.06920576
0.0664917 -0.03927852 0.057640065 0.022074174 -0.06501118 0.09029311 0.13929288 -0.054167695
0.022472432 -0.12143263 0.01782359 0.035934363 0.09160823 0.005444308 0.1638314 -0.06416141
-0.056992605 0.014154054 0.095054455 -0.07398349 0.027227698 0.10295469 0.057855032 -0.0131403655
0.14774236 0.0075560827 -0.10451419 0.08812413 0.020177288 0.10628533 -0.13057889 0.068234496
-0.047267057 -0.09619468 0.08516171 -0.09133955 0.06621589 -0.044064965 0.08976036 0.07128927
-0.02035305 0.1356662 -0.01910453 0.085216716 0.037497036 -0.076237455 -0.122010864 -0.030317152
0.021174923 -0.09992237 -0.03990937 -0.022894759 -0.02329325 -0.029715167 -0.087769665 -0.030719459
0.014680588 -0.10804716 0.021050775 0.14487016 -0.034303717 -0.0821994 -0.018610012 -0.033410788
0.08798348 -0.017054508 -0.060498923 0.036171082 0.0026666948 0.024060844 0.021595117 -0.03067265
-0.040020432 0.05166249 0.0599062 0.06709428 -0.08087481 0.01984345 -0.04555842 -0.09999134
-0.069378555 0.010523537 0.06128805 0.047392465 -0.0035163383 -0.081234194 0.05911398 0.0015591684
-0.011691188 -0.042996515 -0.05166971 0.07462062 0.07616541 -0.089968875 0.09597674 -0.01766851
-0.11937722 -0.052106753 -0.025518324 -0.010667683 0.03620238 -0.09437121 0.011477144 0.074785076
00000000: abb3 e23c 2a7d be3d c630 1bbd f5d9 fe3c
00000010: c0d8 78bd bf4b 59bd ebb4 ce3d ca2f a53d
00000020: 3a62 0b3e af46 a43d 42ad 99bd d14c 3bbd
00000030: a5dc 53bd 2ee9 f1bd ea3d c43d 3f25 86bc
00000040: f64b 35bc 9e8b bc3d 9b5f d7bc 0422 bdbc
00000050: 93ba a43d 135b e83d 9c19 0bbe c8d1 963d
00000060: 03be 7abd 1bfa 743d 7c3a 993d 52b6 d5bc
00000070: 732c f33c 1518 03bd 170e 9bbc 562d 983d
00000080: fbae a23c 291d 06be 1ab1 d83d 128c 62bd
00000090: 9600 943c 11dc cc3d 8555 0fbd 87de 643c
000000a0: 34fb 4cbb 5922 6abd 5841 b03d bafd efbd
000000b0: e510 c43c 4cd2 93bd debb 413c 2862 1b3d
000000c0: 3e62 dabc 9e85 33bd cc3f d33d 01d7 e0bc
000000d0: 02ac 683d 081d a8bb 3367 f8bc a023 9c3c
000000e0: 5016 66bd 5015 fdbc 2f46 f2bd 8f7f 99bd
000000f0: 287c f4bc d347 1bbd a804 cebd 2d9c 5ebd
00000100: d820 d53d 389b be3d f00e 98bd 6ed2 a8bd
00000110: 6481 da3d 5699 82bd b7d2 b2bd 3707 0ebd
00000120: fb0c 913d 98eb b23d 479b 10bd 1852 623d
00000130: 1d42 0a3e eab1 2abd afd8 98bd 8cec fd3d
00000140: 1d88 b6bd bd68 89bd ea56 0c3d 90aa b0ba
00000150: 9e91 773c 5442 773d 61a0 9b3c f46f aa3d
00000160: 3044 ac3d 2c1f cc3c d521 2fbc e34b 8e3d
00000170: d84c 083d 6797 033e aa66 c13c d78f e53d
00000180: 1a4f a9bc 22fb 8bbc 4546 acbc c571 e4bc
00000190: b5e6 a1bc d14a 03bd 81cb b53d 3120 84bd
000001a0: 74a7 7e3c d5a4 e93b 428c b8bd 833b 9f3d
000001b0: 6cfd f1bc 24e3 11bc e852 e3bd 28ce c73c
000001c0: 0f89 dc3d ffc8 ef3d b635 b73d 2edf a1bd
000001d0: ef3d c5bb 7584 cd3d 0e27 8abc a29c f93b
000001e0: 1336 c33d 2881 87bb 6b92 28bd da5c 083c
000001f0: aca4 9abd 87c8 5f3d 8bef d3bd 3b9f c63a
00000200: 4e97 a73d 4dac d13c bde1 a0bb a48f bf3d
00000210: cada 7a3c 91f8 50bd 23b7 333d b650 7d3d
00000220: 45d9 dcbd c101 a83d e1da 1cbd c94a b5bd
00000230: 1472 0e3d 6198 b53d 3a47 d73d 90dc 17bd
00000240: a006 0c3e 5b95 a5bd ba7c a7bd 28cc 9dbd
00000250: 2030 0a3e b763 313d fb94 bcbd c0bb 8d3d
00000260: cd2c 883d 83e2 20bd fd17 6c3d e6d4 b43c
00000270: 9524 85bd 98eb b83d cba2 0e3e f2de 5dbd
00000280: 1b18 b83c acb1 f8bd c702 923c e92f 133d
00000290: 189d bb3d 2a66 b23b 6bc3 273e 0f67 83bd
000002a0: 1471 69bd 68e6 673c e9ab c23d a884 97bd
000002b0: 9f0c df3c e9d9 d23d 66f9 6c3d b04a 57bc
000002c0: c649 173e 0499 f73b 890b d6bd 6d7a b43d
000002d0: d74a a53c 20ac d93d 79b6 05be 87be 8b3d
000002e0: 1a9b 41bd b701 c5bd 4369 ae3d 3b10 bbbd
000002f0: 329c 873d 777d 34bd 48d4 b73d 1c00 923d
00000300: 71bb a6bc 15ec 0a3e 1a81 9cbc 1a86 ae3d
00000310: 7e96 193d 6222 9cbd d5e0 f9bd ad5b f8bc
00000320: 0877 ad3c 19a4 ccbd 0278 23bd ca8d bbbc
00000330: 7cd1 bebc 396d f3bc 95c0 b3bd 60a7 fbbc
00000340: d986 703c d447 ddbd ad72 ac3c d858 143e
00000350: 0e82 0cbd 2958 a8bd 0674 98bc c0d9 08bd
00000360: af30 b43d e5b5 8bbc b8cd 77bd 2128 143d
00000370: b7c3 2e3b 3f1b c53c 3ee8 b03c 3645 fbbc
00000380: 77ec 23bd 0c9c 533d 3460 753d ba68 893d
00000390: b1a1 a5bd bb8e a23c 779b 3abd 42c8 ccbd
000003a0: 5816 8ebd ea6a 2c3c 2e09 7b3d 9a1e 423d
000003b0: 5e72 66bb 1d5e a6bd 8021 723d 035d cc3a
000003c0: 668c 3fbc 1d1d 30bd 9ea3 53bd b2d2 983d
000003d0: 9cfc 9b3d 9a41 b8bd 748f c43d 8dbd 90bc
000003e0: 0b7c f4bd e46d 55bd ce0b d1bc 81c7 2ebc
000003f0: f248 143d b145 c1bd a20a 3c3c eb28 993d

model.3.bias f4 [32]
0.120828226 0.047231697 0.036114506 -0.07124464 0.12786008 0.008617864 0.055096626 0.028462658
0.041680083 0.0052948524 0.026915155 0.046653226 -0.080182545 0.028985871 -0.08058799 0.038570642
-0.024140846 -0.010715953 0.040432274 0.004400028 0.013294602 -0.019389113 -0.0226291 0.006608207
0.12073918 -0.10232667 -0.022385925 0.01588072 -0.03168406 0.02699222 -0.05691618 0.023174863
00000000: ca74 f73d 0676 413d ceec 133d b6e8 91bd
00000010: c1ed 023e f131 0d3c 00ad 613d 852a e93c
00000020: bcb8 2a3d 7180 ad3b 2c7d dc3c 7417 3f3d
00000030: bf36 a4bd c773 ed3c 510b a5bd 40fc 1d3d
00000040: 06c3 c5bc f791 2fbc 509c 253d 1c2e 903b
00000050: 9ad1 593c ebd5 9ebc aa60 b9bc a889 d83b
00000060: 1a46 f73d a590 d1bd b062 b7bc 4918 823c
00000070: 25c7 01bd ca1e dd3c f120 69bd 36d9 bd3c

model.7.weight f4 [10, 32]
0.072257385 0.10356388 -0.019258313 -0.06195799 0.039481234 -0.035211228 -0.03775262 -0.12336002
0.16736028 0.014748146 0.07894967 -0.013411505 0.044547886 -0.103656165 -0.21560313 0.1492166
-0.11074115 0.05069942 -0.06832385 -0.0018934208 -0.13407555 -7.26962e-05 -0.062099352 -0.12986462
0.04568429 -0.13889895 -0.042509902 -0.0055427304 0.016503429 -0.16439547 -0.075563304 -0.07225232
0.15385255 -0.005026663 -0.023827631 -0.027913034 0.17048295 -0.022197694 -0.121327996 0.11276678
-0.04281741 -0.16125253 0.17732982 0.06545325 0.18671204 -0.045823857 -0.09495966 -0.12015924
0.0813517 -0.025130618 -0.01079112 0.14444251 -0.076949425 -0.077122435 -0.1138045 0.018051717
-0.07862748 -0.07442802 0.1762727 -0.08385608 0.0967258 -0.16163267 0.09909927 -0.07401759
0.09519633 -0.021421734 -0.22148336 0.06525911 -0.0063439 -0.16163498 -0.08696445 -0.12882033
0.08829468 -0.10609713 0.07456514 0.14582151 -0.100495115 -0.040722407 -0.11659537 0.046195008
0.1676487 0.13481458 -0.0418394 -0.06751267 -0.02995097 -0.08167883 -0.10880853 0.01240924
-0.10157138 -0.13916767 0.13125436 0.1151705 0.05502024 -0.039832182 -0.091713786 -0.13567081
0.11114147 -0.094433025 0.08682792 0.14646924 -0.10433546 -0.03469671 -0.09456656 0.021801244
0.16863199 -0.0032512976 -0.051043727 0.066242404 -0.099961735 -0.09345141 -0.109747104 0.09751035
0.06866612 0.1909834 0.058847982 -0.0022024591 0.1355124 -0.09531595 0.011313349 -0.076459914
-0.119077615 0.05204607 0.104934044 -0.1196291 -0.1234189 0.048928108 0.049890682 -0.09743083
0.062148944 0.09525507 0.1486022 0.15288712 0.051480513 0.17310067 0.09742704 -0.14881374
0.050452694 -0.15511218 0.08233364 -0.016596967 0.041010518 0.12315361 0.027906297 -0.17264901
-0.17772603 0.014075025 -0.030309934 -0.1555001 0.118001 -0.028397644 0.005546462 0.107811905
-0.048779383 0.044395324 -0.010113971 0.07645343 0.030548705 -0.10643324 -0.051881053 0.028163992
0.19140337 0.15329422 0.13674152 0.039001517 -0.16206628 -0.014665532 -0.124669746 -0.05455342
-0.14343745 -0.12343339 0.13687557 -0.07913954 -0.08341192 0.14839356 -0.17074104 -0.079536565
0.011452448 0.1684117 0.020634638 -0.119649865 0.12975453 0.07974964 0.15862034 0.20184167
0.062081646 -0.11050679 -0.1058386 -0.09243087 -0.057451963 -0.1477547 -0.0381105 0.085616454
0.12872055 0.091017574 -0.21126391 0.05110618 -0.073820874 -0.15306748 -0.029927814 -0.05063
0.1468765 -0.10913096 -0.057680678 -0.1388926 0.13183898 0.13630156 -0.14771807 -0.13935147
0.009868235 0.07212643 0.084263235 0.0007252193 -0.054438192 0.11013871 0.021257376 -0.11125993
-0.011564941 -0.1729982 -0.104317084 0.10592858 -0.056761157 -0.047363196 -0.023677982 0.16383655
0.1680855 -0.06900408 -0.01666739 -0.10692056 0.0024956283 -0.055629753 -0.079051025 0.1404782
0.019053089 0.026548231 -0.1779538 0.12352132 0.14341551 0.15897195 0.10781712 0.06965685
-0.12924272 -0.12451016 0.18025199 -0.13047545 0.14572483 0.092206895 -0.12994409 0.18766497
0.0017847383 -0.048443377 0.017177135 0.059654467 -0.22419757 -0.076385595 0.10023874 -0.08408758
00000000: aefb 933d 4d19 d43d 9cc3 9dbc a9c7 7dbd
00000010: 13b7 213d a639 10bd 7ea2 1abd 2ea4 fcbd
00000020: 7e60 2b3e 35a2 713c 5db0 a13d eebb 5bbc
00000030: d877 363d af49 d4bd 11c7 5cbe 3dcc 183e
00000040: 42cc e2bd 32aa 4f3d 60ed 8bbd a92c f8ba
00000050: 1a4b 09be 7a74 98b8 e45b 7ebd 3bfb 04be
00000060: 731f 3b3d 873b 0ebe dd1e 2ebd cb9f b5bb
00000070: 3332 873c 4957 28be efc0 9abd 06f9 93bd
00000080: 868b 1d3e b5b6 a4bb 2a32 c3bc e0a9 e4bc
00000090: 1593 2e3e f0d7 b5bc d07a f8bd 45f2 e63d
000000a0: 4f61 2fbd 621f 25be f395 353e 5b0c 863d
000000b0: 7131 3f3e ccb1 3bbd 367a c2bd 0c16 f6bd
000000c0: b89b a63d bade cdbc 3dcd 30bc bde8 133e
000000d0: a997 9dbd 5ef2 9dbd 5512 e9bd 32e1 933c
000000e0: 7207 a1bd b86d 98bd d580 343e bdbc abbd
000000f0: 2d18 c63d 0983 25be 8ff4 ca3d 8996 97bd
00000100: 4bf6 c23d a27c afbc 89cc 62be 91a6 853d
00000110: 7ee0 cfbb a483 25be 6b1a b2bd 7ae9 03be
00000120: d7d3 b43d 7449 d9bd 9cb5 983d 3c52 153e
00000130: 62d0 cdbd 8acc 26bd 8ec9 eebd fa36 3d3d
00000140: 1aac 2b3e d50c 0a3e ca5f 2bbd 1544 8abd
00000150: bd5b f5bc 3b47 a7bd 02d7 debd 2050 4b3c
00000160: a804 d0bd f881 0ebe 8b67 063e 83de eb3d
00000170: e75c 613d 1227 23bd 70d4 bbbd 4aed 0abe
00000180: 249e e33d 1a66 c1bd d6d2 b13d 08fc 153e
00000190: d4ad d5bd 231e 0ebd 1dac c1bd 8698 b23c
000001a0: ddad 2c3e b913 55bb 3a13 51bd 19aa 873d
000001b0: bdb8 ccbd 7463 bfbd 17c3 e0bd 82b3 c73d
000001c0: d3a0 8c3d 2791 433e 950a 713d 2257 10bb
000001d0: c3c3 0a3e 0235 c3bd a05b 393c 0497 9cbd
000001e0: f7de f3bd 432e 553d a9e7 d63d 1a00 f5bd
000001f0: 0cc3 fcbd d768 483d 2c5a 4c3d d189 c7bd
00000200: e48f 7e3d 1715 c33d 2d2b 183e 718e 1c3e
00000210: 3bdd 523d 4d41 313e d487 c73d a162 18be
00000220: 7ca7 4e3d bad5 1ebe 8a9e a83d 5df6 87bc
00000230: a5fa 273d f637 fc3d bf9b e43c e7ca 30be
00000240: d0fd 35be ef9a 663c 8a4c f8bc 6b3b 1fbe
00000250: 82aa f13d 2da2 e8bc 18bf b53b 7dcc dc3d
00000260: e4cc 47bd dfd7 353d 12b5 25bc 9e93 9c3d
00000270: 4741 fa3c acf9 d9bd 3a81 54bd 2cb8 e63c
00000280: 3fff 433e 29f9 1c3e f805 0c3e 0ec0 1f3d
00000290: b4f4 25be b347 70bc da52 ffbd 6873 5fbd
000002a0: 44e1 12be a5ca fcbd 1c29 0c3e e913 a2bd
000002b0: ded3 aabd 7bf4 173e bdd6 2ebe 11e4 a2bd
000002c0: 0ca3 3b3c 1e74 2c3e f909 a93c fd0a f5bd
000002d0: 5fde 043e c753 a33d 5f6d 223e 95af 4e3e
000002e0: 5349 7e3d 6251 e2bd e8c1 d8bd 654c bdbd
000002f0: c052 6bbd 024d 17be c119 1cbd ae57 af3d
00000300: 52cf 033e 6c67 ba3d 9155 58be b754 513d
00000310: 662f 97bd b9bd 1cbe 2d2b f5bc 6761 4fbd
00000320: cb66 163e 0e80 dfbd 9342 6cbd dd39 0ebe
00000330: cc00 073e a392 0b3e 6843 17be 27b2 0ebe
00000340: 61ae 213c 06b7 933d 3492 ac3d a51c 3e3a
00000350: 95fa 5ebd 6790 e13d f323 ae3c 3fdc e3bd
00000360: e17a 3dbc 7126 31be 32a4 d5bd 15f1 d83d
00000370: 637e 68bd e9ff 41bd 54f8 c1bc c5c4 273e
00000380: 9b1e 2c3e 0352 8dbd 0d8a 88bc 2bf9 dabd
00000390: b28d 233b 06dc 63bd 81e5 a1bd 84d9 0f3e
000003a0: 3915 9c3c ad7b d93c 8539 36be bff8 fc3d
000003b0: 84db 123e 8bc9 223e 39cf dc3d 40a8 8e3d
000003c0: 3458 04be 2fff febd fa93 383e 5b9b 05be
000003d0: e438 153e f8d6 bc3d 1010 05be 3f2b 403e
000003e0: e1ed e93a 906c 46bd 10b7 8c3c 3e58 743d
000003f0: 0c94 65be 0d70 9cbd f849 cd3d 1c36 acbd

model.7.bias f4 [10]
0.167774 0.031222075 0.03238332 -0.045166392 -0.1243047 0.0282446 0.14719279 0.1204207
0.019380895 0.13930477
00000000: f3cc 2b3e 70c5 ff3c 5fa4 043d 6500 39bd
00000010: 7693 febd 3861 e73c b5b9 163e 219f f63d
00000020: afc4 9e3c e9a5 0e3e

exp_avg f4 [8, 1, 3, 3]
0.0017244148 0.013826905 -0.038729887 -0.012449179 0.018748369 -0.14889568 -0.02312932 -0.024474854
-0.11624042 -0.09537524 -0.07834745 -0.10542493 -0.1006566 -0.10441941 -0.06923874 -0.16293834
-0.11363583 -0.0723863 -0.20908503 -0.17684111 -0.12731788 -0.13557047 -0.046735846 -0.034730818
-0.04544092 0.00021764993 -0.0060053305 -0.1039009 -0.067335844 -0.030699698 -0.062111992 -0.04287946
-0.042793777 -0.04118018 -0.05602803 0.015937658 -0.04710146 -0.113680735 -0.14344896 -0.09727027
-0.1250434 -0.13805394 0.082990065 0.03661648 -0.06018456 -0.05743614 -0.07032058 0.06047574
-0.08368828 -0.0306887 0.06800123 -0.1439075 -0.08530528 -0.08678663 -0.12970951 -0.13104938
-0.11301471 -0.109147 -0.10837616 -0.09001021 -0.029596504 -0.023408735 -0.03795714 -0.10769316
-0.0902312 -0.025923798 -0.036691282 -0.11529897 -0.04619543 -0.008978069 -0.042784005 -0.026731635
00000000: c205 e23a 3e8a 623c 3ba3 1ebd a4f7 4bbc
00000010: 2e96 993c 1c78 18be b379 bdbc 7d7f c8bc
00000020: 750f eebd 1854 c3bd a174 a0bd 07e9 d7bd
00000030: 0c25 cebd d8d9 d5bd 0acd 8dbd 4fd9 26be
00000040: e7b9 e8bd 453f 94bd 631a 56be d615 35be
00000050: 9e5f 02be fcd2 0abe 166e 3fbd e741 0ebd
00000060: 4220 3abd f538 6439 5dc8 c4bb ffc9 d4bd
00000070: 60e7 89bd ef7d fbbc 2569 7ebd 5fa2 2fbd
00000080: 8748 2fbd 8cac 28bd a67d 65bd b18f 823c
00000090: 76ed 40bd 72d1 e8bd 49e4 12be a335 c7bd
000000a0: 610b 00be 035e 0dbe b2f6 a93d 2afb 153d
000000b0: 1684 76bd 2842 6bbd 3c04 90bd 69b5 773d
000000c0: c364 abbd de66 fbbc 3b44 8b3d 7d5c 13be
000000d0: 89b4 aebd 30bd b1bd 92d2 04be cf31 06be
000000e0: 4274 e7bd 7688 dfbd 52f4 ddbd 4657 b8bd
000000f0: 5e74 f2bc adc3 bfbc f278 1bbd 3b8e dcbd
00000100: 23cb b8bd 255e d4bc 9949 16bd de21 ecbd
00000110: 6b37 3dbd c018 13bc 483e 2fbd 4dfc dabc

exp_avg_sq f4 [8, 1, 3, 3]
1.2329408e-05 2.7737538e-05 0.0010886737 0.00021415204 0.0003594404 0.0052882163 0.0018722545 0.0014167255
0.005559955 0.014505075 0.015250581 0.024465876 0.030891608 0.025835907 0.02847871 0.036942855
0.031298824 0.04219359 0.040955637 0.030100226 0.018531632 0.020962832 0.003073916 0.0019251128
0.0030608582 2.8637776e-05 1.9920033e-05 0.038767368 0.035602603 0.017985813 0.041287247 0.02868192
0.00983753 0.021419875 0.009699668 0.00813217 0.08165472 0.14089257 0.11884556 0.11360013
0.13283163 0.10107704 0.08037789 0.09780143 0.051108744 0.04340592 0.022396546 0.0026284116
0.03392939 0.01158392 0.0026008554 0.03164764 0.011128494 0.009981554 0.012046904 0.016597623
0.011817614 0.008984422 0.010068827 0.0067673596 0.007809215 0.008780938 0.008248378 0.020156298
0.026983976 0.021996051 0.026049506 0.019880366 0.0069444105 0.030271884 0.009744963 0.0021102147
00000000: 67da 4e37 e9ad e837 d4b1 8e3a 008e 6039
00000010: 4673 bc39 c648 ad3b 7066 f53a 6bb1 b93a
00000020: 4830 b63b b2a6 6d3c 93dd 793c a96c c83c
00000030: 6610 fd3c d3a5 d33c 2f4c e93c 6451 173d
00000040: 3233 003d 30d3 2c3d 19c1 273d c094 f63c
00000050: a6cf 973c 3fba ab3c c173 493b 1154 fc3a
00000060: ae98 483b 283b f037 f219 a737 88ca 1e3d
00000070: 09d4 113d fc56 933c d11c 293d 59f6 ea3c
00000080: 972d 213c bc78 af3c 5beb 1e3c cb3c 053c
00000090: 973a a73d 2446 103e 4d65 f33d 2fa7 e83d
000000a0: 0405 083e 7b01 cf3d 2a9d a43d 1e4c c83d
000000b0: 6757 513d 68ca 313d f678 b73c 6e41 2c3b
000000c0: 8bf9 0a3d 7bca 3d3c 1d73 2a3b f5a0 013d
000000d0: 4954 363c ac89 233c 6160 453c bdf7 873c
000000e0: aa9e 413c 6633 133c b9f7 243c bac0 dd3b
000000f0: 72e4 ff3b ecdd 0f3c 3424 073c d21e a53c
00000100: 800d dd3c 1031 b43c c665 d53c 26dc a23c
00000110: f08d e33b befc f73c 56a9 1f3c 874b 0a3b

exp_avg f4 [8]
-0.0009684171 0.0020194373 -0.00086251146 0.0008550271 -0.00055288343 -0.002507849 0.0009110211 -3.5573175e-05
00000000: 5fdd 7dba 8958 043b 2a1a 62ba e623 603a
00000010: 61ef 10ba b95a 24bb 97d1 6e3a 6834 15b8

exp_avg_sq f4 [8]
2.7351035e-07 2.2054634e-05 1.3959843e-06 3.1414488e-06 4.974742e-06 9.008325e-06 8.2265e-06 7.63634e-06
00000000: fad6 9234 f701 b937 a85d bb35 aed1 5236
00000010: b5ec a636 7622 1737 8c04 0a37 d51d 0037

exp_avg f4 [32, 8, 3, 3]
0.0012488153 -0.0036331792 0.00018990679 0.00095181185 -4.1825515e-07 -0.00030044332 -0.00013859523 0.0005041644
-0.007096222 -0.005972557 -0.0013343338 -0.0006525138 -0.00036892472 -4.060429e-05 -0.006319209 -0.0021215444
-0.0014218603 -0.0020539716 -0.010348181 -0.006250204 0.0004702163 -0.0024346213 0.0022950198 -0.0034873942
-7.365622e-05 -0.00018010913 -0.0001841841 -0.015182203 -0.0044194567 0.0077262595 -0.002111144 0.001464896
-0.0015702095 -0.00020807295 -0.0004267475 -0.0026804144 -0.012430671 -0.0025523792 0.010977443 0.00014238768
0.0024866895 -0.0047223624 -0.00031492778 -0.0006022449 -0.01112884 -0.00014968334 -0.0075668837 -0.0034395827
-0.0027581998 0.00016543415 -0.0022411977 -0.0028465365 -0.003210199 0.00139469 -0.035711385 -0.015489143
0.009477919 -0.0069007967 0.003938222 -0.005965902 0.0007075371 -0.0014091271 -0.008290501 -0.027034026
-0.013637391 0.00023197145 -0.005495368 0.0017513942 -0.005714909 0.0011183759 0.0017764285 -0.0026658322
-0.011725173 -0.015037587 -0.0016075266 0.0038047398 -0.023847014 0.0058802087 0.006708356 -0.016472619
0.003821537 -0.024659045 -0.01839854 -0.014235159 -0.012951374 -0.00366911 -0.007118661 0.01714593
0.008149593 0.019656364 -0.009878071 -0.0006811292 -0.0054028044 -0.027087126 -0.040780805 -0.02484846
-0.020479385 -0.014171054 -0.009412888 -0.013440993 -0.006973059 -0.000511368 -0.030646926 -0.02213925
-0.016575545 -0.016476624 0.0098286355 0.007873753 -0.011370961 -0.008546858 0.0068234988 -0.029316613
-0.035151627 -0.024607241 -0.02523228 0.009040036 -0.0087037645 -0.0627871 -0.032143943 -0.06858072
-0.052504968 -0.037790686 -0.04575532 -0.022409989 -0.008838655 -0.02225036 -0.0061328947 -0.00028373883
0.014369563 -0.04565361 -0.03392649 -0.049431138 -0.037409894 0.03889457 0.0216153 -0.012510661
-0.01489874 -0.023707882 -0.0588656 -0.03062648 -0.052269563 -0.050823007 0.007854912 -0.024060076
-0.032796767 0.0111733265 -0.00041739718 -0.001468629 -0.010632057 -0.031088095 -0.000985663 -0.0010368022
-0.026407275 0.0016423985 -0.0017778587 -0.009043781 0.0062134555 -0.00097312196 -0.0040057767 -0.011106137
-0.017786724 0.008810884 0.003305654 -0.0061498475 -0.023395684 -0.0011287197 -0.006901636 0.002850182
0.016300514 -0.00092971534 -0.012990101 -0.008839353 -0.009723411 -0.004737978 0.008675654 0.0034981563
-0.009616858 -0.00028187258 -0.00928805 -0.002576117 -0.011736187 0.001848384 0.017780531 -0.00078802294
0.011279079 -0.0066034314 -0.00078653684 0.003141249 -0.026613675 0.00826462 0.010096873 -0.0052923136
-0.012540241 -0.01921846 -0.00058580266 -0.008958557 -0.016330738 0.0003859741 0.015268417 -0.0052361074
-0.00063957955 -0.0065442333 0.013450712 -0.028887315 -0.0015816765 -0.007809613 -0.0021608628 -0.006245016
-0.005053248 0.020715961 -0.0029137032 -0.021286616 0.00023039755 0.02030528 -0.014652076 0.021822818
0.008285092 0.004350206 -0.004415618 0.000253143 0.0024703164 -0.0025655187 0.0018012294 -0.0036218066
-0.0009200601 0.04246221 0.010357309 -0.006349505 0.036716193 0.007993417 -0.000109271765 0.040243633
0.00864119 0.021487748 0.01098943 0.004664033 -0.0077188294 0.008295378 0.0077495505 0.00071509666
0.005513756 -0.00039571372 1.8900073e-05 0.029554326 0.009198682 -0.0059084324 0.035750397 0.0066338493
-0.0017899029 0.036288913 0.0027905942 0.0005541671 0.017889684 0.0014450203 -0.023956452 0.018676857
00000000: 4aaf a33a a21a 6ebb b721 4739 0383 793a
00000010: 8d8c e0b4 d284 9db9 e053 11b9 e629 043a
00000020: 6d87 e8bb 70b5 c3bb d0e4 aeba 760d 2bba
00000030: 3d6c c1b9 864e 2ab8 5e11 cfbb 9c09 0bbb
00000040: b75d baba ed9b 06bb 6b8b 29bc 83ce ccbb
00000050: 5d87 f639 2b8e 1fbb 0b68 163b c48c 64bb
00000060: e277 9ab8 addb 3cb9 8b21 41b9 c6be 78bc
00000070: 17d1 90bb 902c fd3b 1e5b 0abb c101 c03a
00000080: 7dcf cdba 282e 5ab9 14bd dfb9 e4a9 2fbb
00000090: 03aa 4bbc d145 27bb bcda 333c e74d 1539
000000a0: baf7 223b 0cbe 9abb e41c a5b9 f9df 1dba
000000b0: bd55 36bc 51f4 1cb9 9ff3 f7bb 9f6a 61bb
000000c0: eac2 34bb 6478 2d39 0fe1 12bb f58c 3abb
000000d0: 3462 52bb 08ce b63a 1a46 12bd 2dc6 7dbc
000000e0: 4649 1b3c 1420 e2bb 330c 813b 9d7d c3bb
000000f0: 037a 393a 76b2 b8ba e2d4 07bc 7676 ddbc
00000100: 5d6f 5fbc 5d3d 7339 7d12 b4bb 0a8f e53a
00000110: 2244 bbbb 7896 923a 0dd7 e83a 3eb5 2ebb
00000120: f11a 40bc 3660 76bc a4b3 d2ba f158 793b
00000130: d05a c3bc c4ae c03b c5d1 db3b 96f1 86bc
00000140: c072 7a3b c401 cabc 89b8 96bc 963a 69bc
00000150: 0032 54bc 7375 70bb a843 e9bb 9f75 8c3c
00000160: df85 053c 6206 a13c a2d7 21bc cf8d 32ba
00000170: 020a b1bb d2e5 ddbc c609 27bd ff8e cbbc
00000180: 62c4 a7bc b52d 68bc 8438 1abc 9c37 5cbc
00000190: 427e e4bb 530d 06ba 430f fbbc 5f5d b5bc
000001a0: 70c9 87bc fcf9 86bc 4908 213c ea00 013c
000001b0: 444d 3abc 1f08 0cbc a897 df3b 6529 f0bc
000001c0: 27fb 0fbd 2095 c9bc edb3 cebc a91c 143c
000001d0: 3c9a 0ebc 8696 80bd 5ea9 03bd 0c74 8cbd
000001e0: 730f 57bd 68ca 1abd ee69 3bbd 2795 b7bc
000001f0: 02d0 10bc 6346 b6bc 73f6 c8bb c8c2 94b9
00000200: 516e 6b3c 48ff 3abd 81f6 0abd 4e78 4abd
00000210: 1e3b 19bd ea4f 1f3d 9212 b13c 84f9 4cbc
00000220: d819 74bc 0837 c2bc 0e1d 71bd 62e4 fabc
00000230: 9c18 56bd c92b 50bd e4b1 003c a319 c5bc
00000240: e755 06bd 5410 373c 1ad6 dab9 037f c0ba
00000250: 1432 2ebc 76ac febc 5d31 81ba 4fe5 87ba
00000260: 1254 d8bc c045 d73a 0a07 e9ba 5e2c 14bc
00000270: 3e9a cb3b 1c19 7fba e442 83bb 84f6 35bc
00000280: 77b5 91bc 875b 103c aca3 583b a984 c9bb
00000290: 4ea8 bfbc 8cf1 93ba 1e27 e2bb 1eca 3a3b
000002a0: a888 853c 24b8 73ba 6fd4 54bc efd2 10bc
000002b0: f14e 1fbc 0a41 9bbb 5524 0e3c 5341 653b
000002c0: 0790 1dbc 4cc8 93b9 e82c 18bc 12d4 28bb
000002d0: 2349 40bc 7a45 f23a 7aa8 913c 5393 4eba
000002e0: e3cb 383c 9961 d8bb 982f 4eba 6add 4d3b
000002f0: ec04 dabc 5468 073c 5b6d 253c 256b adbb
00000300: 9575 4dbc 0870 9dbc 8d90 19ba e9c6 12bc
00000310: 0ac8 85bc 915c ca39 6228 7a3c a793 abbb
00000320: 75a9 27ba 0271 d6bb 6060 5c3c 17a5 ecbc
00000330: 4250 cfba c8e7 ffbb 439d 0dbb fea2 ccbb
00000340: b795 a5bb 85b4 a93c d4f3 3ebb 4561 aebc
00000350: df96 7139 4257 a63c 430f 70bc c4c5 b23c
00000360: 32be 073c 2c8c 8e3b e3b0 90bb 47b8 8439
00000370: 08e5 213b 4322 28bb 3b17 ec3a d55b 6dbb
00000380: 3030 71ba dbec 2d3d b4b1 293c 820f d0bb
00000390: b863 163d d2f6 023c d528 e5b8 82d6 243d
000003a0: c793 0d3c 1307 b03c 030d 343c bfd4 983b
000003b0: 3cee fcbb 56e9 073c f1ef fd3b 5375 3b3a
000003c0: bdac b43b cc77 cfb9 998b 9e37 ea1b f23c
000003d0: 12b6 163c 869b c1bb 026f 123d c360 d93b
000003e0: 2d9b eaba afa3 143d 67e2 363b 8645 113a
000003f0: 638d 923c d666 bd3a 5240 c4bc 3500 993c

exp_avg_sq f4 [32, 8, 3, 3]
2.9287909e-05 1.01338865e-05 2.1649103e-06 2.2072983e-05 2.2702729e-07 5.286412e-07 1.701199e-05 5.037989e-07
6.1097075e-05 0.00013662725 0.0004315732 0.0006203971 5.6302226e-05 0.00020533075 0.00025804632 0.00017728134
0.00062748085 0.0012878643 0.00018947691 0.00045990985 0.0008055744 4.0872865e-06 2.2691567e-05 0.00010181821
4.237198e-07 1.591128e-05 1.3733308e-05 0.00040080224 0.001819867 0.0021605033 6.427012e-05 0.00035812485
0.00020163048 0.0001239387 0.00032920044 0.0002219815 0.00088991196 0.0030548426 0.0021286276 0.00022561337
0.0006255861 0.000110416295 0.0002870254 0.00037049048 0.00018903281 4.597787e-06 0.00010541658 0.00034029226
3.0647986e-06 0.00017208634 0.0001870754 2.6401256e-05 0.0004772347 0.0005964917 0.0020164703 0.008252929
0.0091325445 0.00042909366 0.0015055729 0.0007907725 0.0006674364 0.0014305343 0.0009213149 0.00081105414
0.004576546 0.005961969 3.1158394e-05 0.0013248896 0.00075424183 9.9063654e-05 0.0010473572 0.00032404726
8.185168e-05 0.00037168185 0.00013123892 0.00016618785 0.0005385025 0.00016986253 0.000108057764 0.0002119059
0.00011503877 0.0076289936 0.009969699 0.02232181 0.016463557 0.018715985 0.023191547 0.022084227
0.02055526 0.018466437 0.00033738455 0.00017398124 0.00031066727 0.0005283266 0.0013924775 0.002716911
0.0015534887 0.0025177475 0.003210749 0.004203704 0.007368555 0.020274177 0.012765889 0.019230641
0.03258029 0.024085559 0.023393666 0.025543816 0.003650608 0.011408484 0.024242882 0.011456786
0.025375681 0.037106913 0.02456892 0.024632016 0.027717497 0.0038828643 0.0024046276 0.006361422
0.005748866 0.00231584 0.005168197 0.0045598675 0.0033352422 0.0049008597 0.015191782 0.032842696
0.07795948 0.043426704 0.06472389 0.12085644 0.08750787 0.084014356 0.10029636 0.010358018
0.0080462415 0.03464371 0.019282412 0.02891431 0.061395958 0.046187013 0.049650278 0.0508266
3.0707626e-05 4.9763603e-06 3.5044072e-06 1.7742618e-06 6.1938676e-06 2.7719918e-05 1.1343855e-06 1.2018453e-06
2.916296e-05 2.2093856e-05 4.73453e-05 4.5983244e-05 2.7765229e-05 3.9008082e-05 7.124389e-05 2.3583463e-05
2.3336996e-05 6.864168e-05 6.313948e-07 3.8460275e-06 1.6617048e-05 1.320675e-06 1.4679264e-05 8.230905e-06
1.4120832e-05 7.96399e-06 1.3797816e-05 1.1739379e-05 4.6167846e-05 2.8549659e-05 3.4190136e-05 4.6130128e-05
3.9825394e-05 2.2946635e-05 2.4288041e-05 7.573687e-05 3.0067435e-05 7.555242e-05 6.156285e-05 5.6302943e-05
6.677139e-05 7.487459e-05 3.9213952e-05 5.0594786e-05 0.00018865355 5.482158e-06 4.694687e-05 4.31802e-05
5.6749454e-06 3.2863787e-05 1.2417698e-05 1.10963765e-05 1.6062284e-05 2.1294404e-06 6.780948e-05 0.00018239052
0.00013123272 0.000120747274 0.00020625118 0.00021017097 9.946518e-05 0.0001252245 0.00037390867 1.1605969e-05
0.00013040953 7.633067e-05 7.7809535e-05 0.00014685193 3.4006614e-05 9.106955e-05 5.631814e-05 0.00015640474
0.00034856301 0.00025052726 0.00022639318 0.00013184924 6.578139e-05 0.00030094062 0.00012357898 0.00015736921
0.000589472 0.05573302 0.036096897 0.015781697 0.038014967 0.020634025 0.008456084 0.021329738
0.012993114 0.013922974 0.0031546012 0.0061469963 0.006363577 0.0065399474 0.0063270256 0.001280512
0.004953839 0.0018947206 0.00032462095 0.06805239 0.04542647 0.029156934 0.06362794 0.02659261
0.010317101 0.035472754 0.012034878 0.011468498 0.06697133 0.03301202 0.033351302 0.06374636
00000000: 4eaf f537 b604 2a37 e048 1136 5f29 b937
00000010: c9c4 7334 f2e7 0d35 f8b4 8e37 cc3c 0735
00000020: 3e21 8038 9943 0f39 c644 e239 25a2 223a
00000030: 0e26 6c38 0e4e 5739 644a 8739 99e4 3939
00000040: 877d 243a 8ecd a83a 52ae 4639 0e20 f139
00000050: 2f2d 533a 8625 8936 c559 be37 3c87 d538
00000060: 9b7b e334 3779 8537 1c68 6637 c422 d239
00000070: 9a88 ee3a 3b97 0d3b c2c8 8638 b4c2 bb39
00000080: c56c 5339 8bf5 0139 8998 ac39 b5c3 6839
00000090: fb48 693a c133 483b 7280 0b3b a192 6c39
000000a0: 5ffe 233a 4c8f e738 e67b 9639 643e c239
000000b0: 1c37 4639 b146 9a36 1813 dd38 4169 b239
000000c0: d7ac 4d36 1372 3439 ac29 4439 4478 dd37
000000d0: 5b35 fa39 e15d 1c3a c226 043b 4b37 073c
000000e0: aba0 153c faf7 e039 a556 c53a d84b 4f3a
000000f0: e6f6 2e3a c480 bb3a 6584 713a ec9c 543a
00000100: daf6 953b 9f5c c33b 12b0 0238 eba7 ad3a
00000110: 50b8 453a 65c0 cf38 7a47 893a e3e4 a939
00000120: c9a7 ab38 4bde c239 2e9d 0939 b642 2e39
00000130: 4b2a 0d3a 201d 3239 129d e238 0f33 5e39
00000140: f840 f138 a3fc f93b f357 233c 3adc b63c
00000150: 95de 863c 4452 993c 33fc bd3c fbe9 b43c
00000160: 8163 a83c ed46 973c fde2 b039 bc6e 3639
00000170: 0ee1 a239 667f 0a3a cb83 b63a 340e 323b
00000180: 6e9e cb3a cb00 253b 6e6b 523b 3abf 893b
00000190: eb73 f13b 0816 a63c 0528 513c 9489 9d3c
000001a0: e972 053d 144f c53c 13a4 bf3c 4441 d13c
000001b0: 0a3f 6f3b a6ea 3a3c 0299 c63c 3eb5 3b3c
000001c0: a9e0 cf3c 6bfd 173d c244 c93c 15c9 c93c
000001d0: ce0f e33c a777 7e3b f596 1d3b 7a73 d03b
000001e0: fc60 bc3b 59c5 173b fb59 a93b f16a 953b
000001f0: 1494 5a3b 6497 a03b f4e6 783c 1086 063d
00000200: 38a9 9f3d 33e0 313d f58d 843d 9583 f73d
00000210: 5337 b33d b80f ac3d 2e68 cd3d adb4 293c
00000220: 62d4 033c 90e6 0d3d 26f6 9d3c b4dd ec3c
00000230: 547a 7b3d 982e 3d3d 175e 4b3d 8e2f 503d
00000240: 10cc 0038 9cfa a636 422d 6b36 2c23 ee35
00000250: ebd4 cf36 1288 e837 3041 9835 174f a135
00000260: fba2 f437 3256 b937 a194 4638 22de 4038
00000270: 60e9 e837 9c9c 2338 c668 9538 1ad5 c537
00000280: d1c3 c337 b9f3 8f38 1f7d 2935 200d 8136
00000290: d764 8b37 0c42 b135 f546 7637 7817 0a37
000002a0: 83e8 6c37 149d 0537 2b7d 6737 40f4 4437
000002b0: 59a4 4138 ed7d ef37 6167 0f38 d97b 4138
000002c0: 310a 2738 867d c037 2cbe cb37 ecd4 9e38
000002d0: 5339 fc37 e671 9e38 4e1b 8138 d326 6c38
000002e0: 9e07 8c38 fd05 9d38 a979 2438 bd35 5438
000002f0: 4dd1 4539 61f3 b736 d1e8 4438 631c 3538
00000300: 696b be36 39d7 0938 9b55 5037 932a 3a37
00000310: 7ebd 8637 82e7 0e36 f034 8e38 1540 3f39
00000320: 849b 0939 b339 fd38 2145 5839 5761 5c39
00000330: f697 d038 b24e 0339 2c09 c439 42b7 4237
00000340: 8bbe 0839 b713 a038 ad2d a338 44fc 1939
00000350: 53a2 0e38 98fc be38 2437 6c38 9400 2439
00000360: 56bf b639 3359 8339 f563 6d39 0341 0a39
00000370: 1df4 8938 91c7 9d39 fb94 0139 7a03 2539
00000380: cc86 1a3a 4f48 643d 57da 133d 9e48 813c
00000390: 95b5 1b3d b008 a93c 638b 0a3c b4bb ae3c
000003a0: 12e1 543c 2f1d 643c 6dbd 4e3b be6c c93b
000003b0: 8e85 d03b 0e4d d63b f052 cf3b dad6 a73a
000003c0: d053 a23b 4658 f83a e331 aa39 0d5f 8b3d
000003d0: 1b11 3a3d 86da ee3c 5e4f 823d bfd8 d93c
000003e0: 0f09 293c e14b 113d f02d 453c 5ee6 3b3c
000003f0: 4428 893d 9d37 073d 609b 083d 748d 823d

exp_avg f4 [32]
-0.0009420572 -0.0007933521 -5.4829095e-05 7.020233e-07 -0.0015310849 -0.0002898693 0.001066539 -0.0018948028
0.0035033922 0.00083967333 -0.0026059954 0.00046516265 -0.0009307108 -0.00039311018 -0.0005145682 0.0036036756
-0.00032454773 -3.9966475e-05 -0.0001408813 -0.00010096981 -0.00027973947 0.00025841713 -0.00033466925 -0.00063742395
0.00022653665 -0.00024808515 -0.00024760855 0.00092229655 -1.1036198e-05 0.0013172386 0.0002658163 -0.0007876818
00000000: 63f4 76ba f5f8 4fba 4bf8 65b8 ad72 3c35
00000010: afae c8ba 99f9 97b9 1ccb 8b3a 085b f8ba
00000020: 2b99 653b 861d 5c3a 59c9 2abb 13e1 f339
00000030: f2fa 73ba 5b1a ceb9 16e4 06ba a52b 6c3b
00000040: 0f28 aab9 ada1 27b8 89b9 13b9 c1bf d3b8
00000050: ffa9 92b9 297c 8739 8c76 afb9 cc18 27ba
00000060: 788a 6d39 6d11 82b9 75d1 81b9 46c6 713a
00000070: 1c28 39b7 31a7 ac3a 435d 8b39 6e7c 4eba

exp_avg_sq f4 [32]
9.4046645e-06 1.6759179e-05 5.687506e-06 1.8562481e-05 2.7674187e-05 2.4048146e-05 3.0397072e-05 4.0841347e-05
3.5556095e-05 1.2955735e-05 2.7159424e-05 3.9344814e-06 8.427868e-06 1.3720582e-05 1.3444529e-06 2.7991658e-05
1.1544364e-05 1.1013269e-06 1.2122936e-05 1.5270658e-05 6.286021e-05 6.580191e-07 4.9015653e-06 4.1163066e-06
7.238211e-06 8.595026e-06 5.9846207e-06 2.429238e-05 1.8069954e-07 2.6774584e-05 7.5323956e-06 9.24778e-06
00000000: bac8 1d37 1096 8c37 4ed7 be36 a0b6 9b37
00000010: dd25 e837 00bb c937 37fd fe37 104d 2b38
00000020: 1122 1538 755c 5937 6bd4 e337 f004 8436
00000030: 6b65 0d37 7331 6637 0d73 b435 a1cf ea37
00000040: aaae 4137 4ed1 9335 9d63 4b37 7d19 8037
00000050: d1d3 8338 baa2 3035 2078 a436 ce1e 8a36
00000060: c2df f236 5b33 1037 80cf c836 7dc7 cb37
00000070: 5006 4234 fb99 e037 c9be fc36 ea26 1b37

exp_avg f4 [10, 32]
0.02180744 -0.038049206 0.010793823 -0.004069465 0.04666518 -0.047663372 -0.020142753 -0.019457739
0.0025952684 -0.039144065 0.01120584 0.010864006 -0.037503198 0.007580869 0.057378046 -0.02119972
0.006357442 -0.04606423 0.0115081705 0.0088655455 -0.015346133 0.020611763 0.09529975 0.038313057
0.0019230185 0.018436318 0.016787782 0.0054729297 -0.0052529047 0.05763066 0.08897715 0.0019562838
0.010907851 0.045255452 0.033861957 -0.009536076 -0.14002289 0.015376321 0.018722182 -0.021914987
0.02216809 0.08461824 -0.059249274 -0.02640188 -0.062083956 -0.026158025 -0.0009028669 0.06833394
0.0391782 0.10637475 0.0019551173 -0.079466924 0.033112857 0.017348794 0.09812986 0.01354082
0.03288815 0.015761813 -0.04629808 0.115458615 -0.003717009 0.07710367 -0.057146274 0.0030713927
-0.011054202 -0.033984292 0.024269417 0.006503852 0.018193807 0.030934485 -0.005610586 0.05395517
-0.009046167 0.0049773855 0.019290606 0.000106805746 0.069993205 -0.025948856 -0.0014598281 0.012145157
-0.048278727 -0.100895636 0.0041473196 0.05982651 -0.039854046 -0.01166064 0.019598033 -0.055018574
0.003240316 0.037657503 -0.05121442 -0.09608106 -0.005048948 -0.0550159 0.06116517 -0.004880844
-0.0010588035 0.18069148 0.0076465276 0.00914033 0.104761586 0.023256266 0.023339616 -0.00034379042
-0.011939947 0.0033963707 0.048389826 -0.024801997 -0.015748184 0.053597003 0.002816232 -0.054934736
0.0076597147 -0.07600181 0.012612169 0.061571065 0.07082338 0.031916875 -0.014847924 0.064223945
0.113998376 -0.027814014 0.07884254 0.14400184 0.0045818095 -0.041554615 -0.031738367 -0.006604554
-0.021224018 0.09631984 -0.11349208 -0.004541107 -0.070307985 -0.082072325 0.01845657 -0.009817987
0.031778354 0.08064031 -0.037697505 -0.013207956 -0.036766004 0.017693259 -0.06671588 0.13140506
0.1177411 0.085320525 -0.015364163 -0.016726729 0.013690315 0.036962755 -0.009120996 0.0058498248
-0.012919188 -0.10917511 0.037776116 0.07910635 -0.002131074 0.09392854 -0.028271653 -0.0012012329
-0.025933528 0.0022952678 -0.015346483 -0.0039481227 0.07602392 -0.032932516 -0.0332545 -0.00011811564
0.045764107 -0.05245365 0.007919357 0.021764241 0.028449854 -0.04745845 0.01945852 -0.040643685
-0.0711806 -0.08160108 -0.023891808 0.035074864 -0.026537387 -0.052198004 -0.051038638 -0.122196294
-0.008623988 0.038783073 0.03983028 0.0045801774 0.0051482595 -0.053062137 0.093342565 0.0044320417
0.010286959 -0.23061326 0.018634157 -0.01000478 -0.07787924 0.039124716 0.000223102 0.01554469
-0.07320033 0.0051362203 -0.008844915 0.03164428 0.020537313 -0.05981946 0.034982678 0.03701597
0.059501823 0.103995614 0.00454698 -0.050924875 -0.000716148 0.0135902045 -0.036480073 -0.0417239
-0.14242136 -0.0010739904 -0.014616675 -0.13320194 -0.0008223532 0.023910223 -0.05352475 -0.0050380956
0.0059014973 0.031681065 0.020741846 0.008489445 0.021018183 0.030972041 -0.00029170018 -0.0020854247
0.004276638 -0.0858737 0.06952042 -0.0057525095 0.014925613 0.026443368 -0.004946892 -0.07735711
0.017495705 0.0028435118 -0.0007068313 -0.028145384 -0.024999479 -0.039172485 0.020944923 -0.022970786
-0.021902973 0.04196803 0.01810451 -0.031480078 0.0069486736 -0.04027423 -0.004188294 0.0042114826
00000000: 84a5 b23c 7cd9 1bbd 93d8 303c 2659 85bb
00000010: fd23 3f3d ab3a 43bd 6a02 a5bc d665 9fbc
00000020: 6115 2a3b 8755 20bd b398 373c f2fe 313c
00000030: f49c 19bd f068 f83b 3e05 6b3d 09ab adbc
00000040: 1752 d03b d9ad 3cbd c48c 3c3c cb40 113c
00000050: 596e 7bbc 00da a83c 842c c33d 27ee 1c3d
00000060: cb0d fc3a c307 973c 8886 893c 4356 b33b
00000070: 8f20 acbb 200e 6c3d a739 b63d ff34 003b
00000080: d8b6 323c c85d 393d d6b2 0a3d 343d 1cbc
00000090: 2962 0fbe f7ec 7b3c 435f 993c 0f87 b3bc
000000a0: db99 b53c 544c ad3d 5eaf 72bd c148 d8bc
000000b0: bf4b 7ebd 5b49 d6bc 5fae 6cba aaf2 8b3d
000000c0: 5279 203d 01db d93d 6d21 003b 8ebf a2bd
000000d0: 59a1 073d 0f1f 8e3c 4ff8 c83d 51da 5d3c
000000e0: bab5 063d eb1e 813c 0ea3 3dbd 9175 ec3d
000000f0: 1099 73bb 87e8 9d3d 3612 6abd 6b49 493b
00000100: af1c 35bc 1d33 0bbd a8d0 c63c 441e d53b
00000110: 2e0b 953c 516a fd3c 02d9 b7bb 1900 5d3d
00000120: 6036 14bc 5619 a33b 5507 9e3c e6fc df38
00000130: 9958 8f3d b292 d4bc b457 bfba 7bfc 463c
00000140: eabf 45bd 5fa2 cebd 3de6 873b a40c 753d
00000150: ff3d 23bd 450c 3fbc 0e8c a03c 285b 61bd
00000160: 7b5b 543b c13e 1a3d 36c6 51bd 26c6 c4bd
00000170: a571 a5bb 5a58 61bd 5488 7a3d 7def 9fbb
00000180: 8dc7 8aba 3007 393e b98f fa3b 53c1 153c
00000190: 3e8d d63d ed83 be3c b932 bf3c c53e b4b9
000001a0: c49f 43bc a595 5e3b 6934 463d 8f2d cbbc
000001b0: 5602 81bc 8888 5b3d 8890 383b 3f03 61bd
000001c0: 58fe fa3b d6a6 9bbd 45a3 4e3c f131 7c3d
000001d0: d90b 913d 45bb 023d b544 73bc d887 833d
000001e0: fb77 e93d 37da e3bc 3378 a13d 3875 133e
000001f0: 0123 963b 2c35 2abd 1700 02bd 046b d8bb
00000200: fedd adbc 5643 c53d 896e e8bd 91cd 94bb
00000210: a2fd 8fbd 8915 a8bd 3c32 973c 9fdb 20bc
00000220: 052a 023d bf26 a53d b368 1abd 2f66 58bc
00000230: f397 16bd 74f1 903c 56a2 88bd 0c8f 063e
00000240: 3f22 f13d 87bc ae3d f8b9 7bbc 7e06 89bc
00000250: 584d 603c 4266 173d 3b70 15bc e3af bf3b
00000260: 00ab 53bc 3397 dfbd 21bb 1a3d 8302 a23d
00000270: 7da9 0bbb 9b5d c03d f499 e7bc b072 9dba
00000280: 8d72 d4bc 346c 163b d16f 7bbc 415f 81bb
00000290: 6eb2 9b3d 3fe4 06bd df35 08bd dab4 f7b8
000002a0: 2573 3b3d a3d9 56bd 31c0 013c ec4a b23c
000002b0: ab0f e93c cb63 42bd 7967 9f3c fe79 26bd
000002c0: 22c7 91bd 781e a7bd c1b8 c3bc a9aa 0f3d
000002d0: ef64 d9bc 93cd 55bd e40d 51bd 0d42 fabd
000002e0: a14b 0dbc 00db 1e3d 1325 233d 5015 963b
000002f0: bbb2 a83b af57 59bd 632a bf3d a93a 913b
00000300: a28a 283c e225 6cbe a9a6 983c 17eb 23bc
00000310: 277f 9fbd 3d41 203d 7df0 6939 28af 7e3c
00000320: 0eea 95bd bd4d a83b 43ea 10bc 6f9d 013d
00000330: de3d a83c 4005 75bd ff49 0f3d 0f9e 173d
00000340: 2fb8 733d a7fb d43d d5fe 943b 9a96 50bd
00000350: e1bb 3bba 73a9 5e3c 216c 15bd aee6 2abd
00000360: e8d6 11be 23c5 8cba c77a 6fbc 1766 08be
00000370: 3093 57ba 5fdf c33c c53c 5bbd 9c16 a5bb
00000380: 5961 c13b 01c4 013d ceea a93c 5017 0b3c
00000390: 532e ac3c 14b9 fd3c 56ef 98b9 9fab 08bb
000003a0: 0a23 8c3b 8dde afbd b960 8e3d 8c7f bcbb
000003b0: 8f8a 743c c39f d83c 8a19 a2bb 686d 9ebd
000003c0: 2753 8f3c 365a 3a3b a54a 39ba 2691 e6bc
000003d0: b5cb ccbc 5473 20bd b094 ab3c 3b2d bcbc
000003e0: dd6d b3bc abe6 2b3d e94f 943c 41f1 00bd
000003f0: b3b1 e33b 97f6 24bd f53d 89bb 7a00 8a3b

exp_avg_sq f4 [10, 32]
0.00058487686 0.17641675 1.2015016e-05 0.009430831 0.0056838472 0.00327442 0.010407638 0.037907504
0.030160328 0.028895222 0.035458397 0.0013949891 0.009218584 0.0068509514 0.00043474813 0.020543985
0.037193183 0.002139045 0.0045620333 0.02957417 0.051252298 0.00043819912 0.016100422 0.009757953
0.057249438 0.004753046 0.00998546 0.09027316 1.18308635e-05 0.033440076 0.035306536 0.00038378205
0.0038418518 0.42744502 3.774115e-05 0.04096026 0.020427387 0.00943564 0.030248407 0.16135648
0.06746812 0.053333275 0.10215918 0.0044992906 0.049335197 0.03679966 0.00080761325 0.018432489
0.12184247 0.004062712 0.03397069 0.09985802 0.1933723 0.001771437 0.06839037 0.023343204
0.13964814 0.021382427 0.0362295 0.16001263 1.6663784e-05 0.114390284 0.17110422 0.0037393274
0.0008677379 0.20274341 1.7053904e-05 0.0076051666 0.004777344 0.0038778828 0.010879622 0.033784892
0.039031874 0.032217287 0.04749217 0.0019511573 0.009773983 0.007598873 0.0002611937 0.028205313
0.054216743 0.0044969646 0.0059343814 0.028398165 0.05908378 0.00058006024 0.015577847 0.0135322455
0.0557116 0.005626783 0.011073052 0.11808066 6.531197e-06 0.05013549 0.030127184 0.00091086945
0.003140703 0.72081107 7.5639455e-06 0.112487204 0.02630687 0.02172649 0.06523115 0.17790927
0.19013558 0.124557786 0.13193968 0.007682501 0.034812007 0.04764377 0.0018368773 0.074040174
0.17805639 0.01123235 0.045041367 0.1191877 0.4261064 0.0021085178 0.14508998 0.045606762
0.18746834 0.059282742 0.06865961 0.35184914 3.0258572e-05 0.2568594 0.20292908 0.005194183
0.0035869007 0.9040666 0.00037698945 0.18606976 0.043373976 0.027714336 0.114548 0.20040692
0.21266045 0.08117294 0.16364035 0.007142029 0.05528403 0.10913269 0.0033434574 0.027954746
0.1573904 0.008322549 0.06171176 0.1324867 0.65599394 0.00412709 0.20772365 0.05506414
0.13923548 0.08052088 0.08478753 0.41047448 4.3388438e-05 0.37279847 0.274528 0.014757201
0.0009540752 0.19006452 1.6752345e-05 0.014937804 0.006974551 0.005577478 0.020819126 0.047148664
0.03394381 0.027914327 0.033412777 0.0016965704 0.012401256 0.012888812 0.0003911431 0.015375139
0.046984304 0.0051439772 0.011295849 0.034107037 0.076359235 0.0008962848 0.02816213 0.019847726
0.06330082 0.00881459 0.011840189 0.08426276 1.1953123e-05 0.05621058 0.05221895 0.0017909794
0.00088968826 0.1321902 1.1749367e-05 0.0068271644 0.0037165375 0.0025977877 0.0070280004 0.03365409
0.02175278 0.018507816 0.024068147 0.0011716831 0.011210581 0.008208823 0.00022454641 0.010667211
0.042597085 0.0028791893 0.0058934703 0.022422787 0.044003658 0.00044115187 0.016770095 0.007930547
0.044246104 0.004419461 0.0071504894 0.05907412 4.4902467e-06 0.03322209 0.031547077 0.00084001955
0.00018188053 0.040201526 1.5659767e-05 0.0036478257 0.0027971482 0.0012829781 0.003675141 0.010016918
0.0069658854 0.0074892435 0.006485502 0.00026877373 0.0021759656 0.0023717713 0.0001587248 0.004288326
0.008208344 0.0004579964 0.0018756172 0.009563353 0.018436901 0.00026121936 0.0069993073 0.003027525
0.011612988 0.001879086 0.0030799743 0.020209173 4.924413e-06 0.011468361 0.011864603 0.00019889956
00000000: 6c52 193a 98a6 343e 1a94 4937 c683 1a3c
00000010: 913f ba3b a797 563b cc84 2a3c e644 1b3d
00000020: cb12 f73c acb5 ec3c d33c 113d 11d8 b63a
00000030: 8b09 173c f27d e03b e8ee e339 dc4b a83c
00000040: e157 183d 382f 0c3b 1c7d 953b 8845 f23c
00000050: eeed 513d 17be e539 08e5 833c d2df 1f3c
00000060: 637e 6a3d 71bf 9b3b 0e9a 233c 22e1 b83d
00000070: 2c7d 4637 76f8 083d 969d 103d 5b36 c939
00000080: 94c7 7b3b 13da da3e 404c 1e38 f2c5 273d
00000090: 5657 a73c f197 1a3c 82cb f73c a23a 253e
000000a0: ba2c 8a3d fe73 5a3d d538 d13d c96e 933b
000000b0: b413 4a3d 3ebb 163d 02b6 533a bbff 963c
000000c0: 8b88 f93d 8020 853b da24 0b3d 5d82 cc3d
000000d0: 6303 463e 902f e83a 4010 8c3d 3f3a bf3c
000000e0: ecff 0e3e 332a af3c 6265 143d 5ada 233e
000000f0: 34c9 8b37 7445 ea3d f235 2f3e 810f 753b
00000100: e878 633a f89b 4f3e fb0e 8f37 c334 f93b
00000110: 448b 9c3b 1424 7e3b 7140 323c 0762 0a3d
00000120: e3df 1f3d 46f6 033d 2687 423d fabd ff3a
00000130: 0e23 203c f8ff f83b d3f0 8839 d40e e73c
00000140: 6012 5e3d 465b 933b 3375 c23b 45a3 e83c
00000150: d501 723d 2f0f 183a 3a3a 7f3c 5ab6 5d3c
00000160: d931 643d e060 b83b bf6b 353c 46d4 f13d
00000170: 8e26 db36 df5a 4d3d 49cd f63c 6ac7 6e3a
00000180: 41d4 4d3b 1387 383f cccd fd36 b15f e63d
00000190: 8181 d73c c1fb b13c e997 853d d92d 363e
000001a0: e7b2 423e 2718 ff3d 321b 073e 7dbd fb3b
000001b0: 0997 0e3d 1d26 433d 60c3 f03a 60a2 973d
000001c0: 6a54 363e e407 383c 4c7d 383d ae18 f43d
000001d0: 9e2a da3e 0f2f 0a3b 7892 143e 28ce 3a3d
000001e0: b3f7 3f3e 76d2 723d 699d 8c3d 9225 b43e
000001f0: cad3 fd37 1383 833e a4cc 4f3e f733 aa3b
00000200: 3512 6b3b e970 673f aba6 c539 1289 3e3e
00000210: e9a8 313d 2d09 e33c 2498 ea3d 7937 4d3e
00000220: a9c3 593e 003e a63d 5691 273e ae07 ea3b
00000230: 8271 623d f680 df3d e81d 5b3b 5a01 e53c
00000240: f32a 213e 4d5b 083c 78c5 7c3d 98aa 073e
00000250: 38ef 273f 8a3c 873b 82b5 543e f08a 613d
00000260: bf93 0e3e 22e8 a43d 16a5 ad3d b629 d23e
00000270: fbfb 3538 71df be3e ef8e 8c3e 30c8 713c
00000280: e71a 7a3a 46a0 423e 6387 8c37 b1bd 743c
00000290: c68a e43b 47c3 b63b df8c aa3c f51e 413d
000002a0: aa08 0b3d 96ac e43c d6db 083d 755f de3a
000002b0: a32e 4b3c 992b 533c 5712 cd39 02e8 7b3c
000002c0: 9d72 403d cf8e a83b 3a12 393c d2b3 0b3d
000002d0: 3b62 9c3d a8f4 6a3a 44b4 e63c b397 a23c
000002e0: dca3 813d 126b 103c 5afd 413c f491 ac3d
000002f0: 468a 4837 113d 663d 8ae3 553d 4cbf ea3a
00000300: f839 693a de5c 073e 261f 4537 68b6 df3b
00000310: 2791 733b a53f 2a3b 244b e63b dfd8 093d
00000320: e332 b23c b49d 973c 902a c53c 2993 993a
00000330: 96ac 373c 4d7e 063c 3874 6b39 87c5 2e3c
00000340: 487a 2e3d c8b0 3c3b 031e c13b feaf b73c
00000350: 2e3d 343d 674a e739 7061 893c 20ef 013c
00000360: 673b 353d 20d1 903b a74e ea3b b4f7 713d
00000370: edaa 9636 e313 083d 8237 013d c234 5c3a
00000380: 2fb7 3e39 5baa 243d 185d 8337 5c10 6f3b
00000390: 5c50 373b 9a29 a83a a2da 703b 001e 243c
000003a0: 1542 e43b 5468 f53b 5584 d43b 33ea 8c39
000003b0: a59a 0e3b b86f 1b3b 5d6f 2639 1685 8c3b
000003c0: 4a7c 063c 3c1f f039 45d7 f53a 9caf 1c3c
000003d0: fc08 973c 45f4 8839 725a e53b 7169 463b
000003e0: 6744 3e3c aa4b f63a 65d9 493b b58d a53c
000003f0: 633c a536 cbe5 3b3c c063 423c b28f 5039

exp_avg f4 [10]
0.0072074346 -0.011221261 0.0021239717 0.00570149 0.0009014085 -0.0041508405 -0.0013971344 0.0025449856
9.317252e-09 -0.001710056
00000000: 582c ec3b 61d9 37bc 5532 0b3b 91d3 ba3b
00000010: 804c 6c3a c603 88bb 0d20 b7ba c6c9 263b
00000020: b511 2032 f523 e0ba

exp_avg_sq f4 [10]
0.00018822272 0.0006599057 0.0002073699 0.0008684258 0.0009766193 0.00022196597 0.00014997082 4.6418947e-05
1.199951e-13 0.00012215019
00000000: a75d 4539 86fd 2c3a 6f71 5939 12a7 633a
00000010: e801 803a 89bf 6839 7c41 1d39 f7b1 4238
00000020: 3c1a 072a 7115 0039
